saved_models/tb_logs/version_10/checkpoints/epoch=42-step=1634.ckpt (torch, 249634 bytes, 100 tensors)

conv_layers.0.att_src f4 [1, 1, 4]
00000000: 84f7 873f ed63 b1be 85ac 323e 2b6d d4be
1.0622411 -0.3464655 0.17448623 -0.4148954

conv_layers.0.att_dst f4 [1, 1, 4]
00000000: fcf6 793f 7837 a4be c8bd 2cbf c18b 153f
0.97642493 -0.3207357 -0.67477083 0.5841637

conv_layers.0.att_edge f4 [1, 1, 4]
00000000: 0467 3dbf a22f 463f f0a2 d33e 2e02 6bbe
-0.73985314 0.7741643 0.4133525 -0.2295005

conv_layers.0.bias f4 [4]
00000000: fc7a cd3c f1c3 173d 271e 0c3c db8d 823c
0.025083058 0.0370521 0.008552111 0.015936783

conv_layers.0.lin_src.weight f4 [4, 4]
00000000: 4948 23bf 70f3 28be 21a6 acbe 7db7 2abf
00000010: c22a 443e d9c8 a9be 4e5b 203f 8583 4bbf
00000020: 802c 2cbe fe12 22bf e72e 3dbf 45e6 4ebf
00000030: a0d3 f3be 683b 8d3e 8c4c 2cbe d294 d53e
-0.63782173 -0.16499114 -0.33720496 -0.6668623 0.19156936 -0.33161047 0.6263932 -0.7949756
-0.1681385 -0.6331023 -0.7389969 -0.80820113 -0.47622395 0.27584386 -0.16826075 0.41715103

conv_layers.0.lin_dst.weight f4 [4, 4]
00000000: 4948 23bf 70f3 28be 21a6 acbe 7db7 2abf
00000010: c22a 443e d9c8 a9be 4e5b 203f 8583 4bbf
00000020: 802c 2cbe fe12 22bf e72e 3dbf 45e6 4ebf
00000030: a0d3 f3be 683b 8d3e 8c4c 2cbe d294 d53e
-0.63782173 -0.16499114 -0.33720496 -0.6668623 0.19156936 -0.33161047 0.6263932 -0.7949756
-0.1681385 -0.6331023 -0.7389969 -0.80820113 -0.47622395 0.27584386 -0.16826075 0.41715103

conv_layers.0.lin_edge.weight f4 [4, 12]
00000000: 485c 00bf e5dc f8be 6d74 1cbd a7ea c4be
00000010: c39f 173f 6d8b abbd 2a2a 19bf c4dc 3dbd
00000020: 2878 f13e 4f6e b73e 15f2 313c 8f84 05bf
00000030: b1d4 003e d23d 803e aaf9 143f d2da afbe
00000040: 0520 d9bd 5f99 8f3e cb21 d33e acbf 42be
00000050: a083 fa3c 93d9 95bd 8f00 17bf 08de 933e
00000060: bc7f 25bc 1395 ee3e a3f9 babe 1313 083f
00000070: 7bdd f63c 193c 45bd 3ef2 813e f1b7 5b3e
00000080: 81ed 0e3e e6b9 243e 70fb e1bd 9f94 8b3e
00000090: efd6 e13e bb48 01bf 76df e83e 1288 0ebf
000000a0: 90e5 a93e e482 43bc 1287 b4be 0f0c 823e
000000b0: 9616 d23e e899 dcbd 5338 9c3d 75d1 3fbe
-0.5014081 -0.4860603 -0.03819697 -0.38460276 0.5922815 -0.08376203 -0.5982996 -0.046353117
0.47161984 0.35826346 0.0108609395 -0.52155393 0.12581135 0.25047165 0.5819346 -0.34346634
-0.1060181 0.280467 0.4123672 -0.1901843 0.030580342 -0.073168896 -0.5898523 0.28880334
-0.010101255 0.4659811 -0.36518583 0.53154105 0.030134907 -0.048153017 0.2538013 0.21456887
0.13957788 0.1608654 -0.11034286 0.27261826 0.44109294 -0.505016 0.45482987 -0.55676377
0.33182955 -0.011933062 -0.352593 0.25399825 0.41032857 -0.10771543 0.076279305 -0.18732245

conv_layers.1.att_src f4 [1, 1, 4]
00000000: 93d0 06bf f08d 473e cf20 653f 411b 0c3f
-0.5266201 0.19487739 0.89503187 0.54729086

conv_layers.1.att_dst f4 [1, 1, 4]
00000000: d994 88bf 4778 41bf bcbd 5cbe 2e63 903e
-1.0670425 -0.75574154 -0.21556753 0.28200668

conv_layers.1.att_edge f4 [1, 1, 4]
00000000: b5fd 21bf 248f f6bd 0708 573f 5be2 42bf
-0.6327775 -0.12039021 0.83996624 -0.7612664

conv_layers.1.bias f4 [4]
00000000: 2822 1b3d 0f6d 3f3c 5c61 d6bc 15ef c73c
0.03787437 0.011683716 -0.026169471 0.024405995

conv_layers.1.lin_src.weight f4 [4, 4]
00000000: 4f47 8f3e c857 1e3f 06cb 193f 1e53 efbe
00000010: ef1c f8be 7073 5dbd 55ae 2c3f a567 d23e
00000020: 32cc 45bf 92df 20be 45ff 503f 85de 0cbf
00000030: 7b13 e7bd 0a52 663d f5d5 0ebf ed89 4f3f
0.27984092 0.61852694 0.60075414 -0.467431 -0.48459575 -0.054065168 0.6745351 0.410947
-0.772647 -0.15710285 0.8163951 -0.5502704 -0.112830125 0.056230582 -0.5579522 0.81069833

conv_layers.1.lin_dst.weight f4 [4, 4]
00000000: 4f47 8f3e c857 1e3f 06cb 193f 1e53 efbe
00000010: ef1c f8be 7073 5dbd 55ae 2c3f a567 d23e
00000020: 32cc 45bf 92df 20be 45ff 503f 85de 0cbf
00000030: 7b13 e7bd 0a52 663d f5d5 0ebf ed89 4f3f
0.27984092 0.61852694 0.60075414 -0.467431 -0.48459575 -0.054065168 0.6745351 0.410947
-0.772647 -0.15710285 0.8163951 -0.5502704 -0.112830125 0.056230582 -0.5579522 0.81069833

conv_layers.1.lin_edge.weight f4 [4, 12]
00000000: cd79 ebbe b421 a83d fb7c 5bbe f78a 55be
00000010: 6ba1 e5bd b7b5 0b3f 058b 933d ad40 f9bd
00000020: 5a40 e83d a7f0 583e 6bfc d0bd ea63 e4be
00000030: c35b 05bf b1f2 af3c f9eb f2be 3655 d0bd
00000040: 9dfa 963e bbcb 123f ea88 2e3e 3720 d63c
00000050: 3a00 ea3d 75d4 313d c4f9 b33e bd00 ac3e
00000060: e436 90be e8de 13bf 23a3 1c3e 009d 08bf
00000070: ce13 da3e 2710 d7be 7215 f7bd e484 a23c
00000080: ec4a 44be d3d8 0abf 4b64 423d bc11 babe
00000090: 8e84 e23e f20f e0bc 9ae3 02be 629f e83d
000000a0: 0e0f c1bd 6f6a a73d 3cdc dfbe 95ef 95bd
000000b0: 33b9 ce3e f647 3dbd 5811 a63d 3a93 f1bd
-0.45991364 0.08209553 -0.21434395 -0.20853792 -0.11212429 0.5457415 0.0720425 -0.12170539
0.11340399 0.21185552 -0.10204395 -0.44607478 -0.5209314 0.021478029 -0.47445658 -0.10172503
0.29488078 0.5734212 0.17044416 0.026138408 0.114258245 0.043415505 0.35151494 0.33594313
-0.28166878 -0.57762 0.15296607 -0.53364563 0.42593235 -0.4200451 -0.12064637 0.019838758
-0.19169205 -0.542371 0.047458928 -0.36341655 0.44241756 -0.027351353 -0.12782136 0.11358525
-0.094266996 0.081745975 -0.43722713 -0.07321087 0.4037567 -0.046211205 0.08108777 -0.11795659

transf_layers.0.weight f4 [4, 4]
00000000: ab1f f0be ff72 a3be bd4d c5bd d89a 1a3e
00000010: 7574 97be 7f4e 10be f1d8 b63e 79a7 7dbe
00000020: dc62 cc3e b2a7 a43e d45e a2be 5b32 8dbe
00000030: 1f0b 42bd 4d02 d33e 7106 2e3e 1aba e43e
-0.4689916 -0.31923673 -0.09633968 0.1509813 -0.29581037 -0.14092444 0.35712388 -0.24770917
0.39919174 0.3215919 -0.31712973 -0.2757748 -0.047373887 0.41212693 0.16994645 0.44673234

transf_layers.0.bias f4 [4]
00000000: 0a0d 5e3e 60a1 d83e 92d2 c9be 938a bf3e
0.21684662 0.4231062 -0.39418465 0.3741041

transf_layers.1.weight f4 [4, 4]
00000000: 8842 bbbd b052 84be f6ce 97bd f8a3 a8bd
00000010: ec75 bb3e 459c 98be 00c0 a2be 782d adbe
00000020: 6ace b0be 6047 423d 794c 693e 66e4 9c3b
00000030: 28ee f7be 34f0 1e3e a50a 053f e2ee c23c
-0.09143549 -0.25844336 -0.074125215 -0.082343996 0.36613405 -0.29806724 -0.3178711 -0.33823752
-0.3453248 0.04743135 0.22783078 0.0047879694 -0.48423886 0.15521318 0.5196937 0.023795549

transf_layers.1.bias f4 [4]
00000000: 8696 96bd 4b32 1abe e15a 443e ae15 ab3e
-0.07352929 -0.15058248 0.19175293 0.33414978

bn_layers.0.weight f4 [4]
00000000: 0000 803f 0000 803f 0000 803f 0000 803f
1.0 1.0 1.0 1.0

bn_layers.0.bias f4 [4]
00000000: 0000 0000 0000 0000 0000 0000 0000 0000
0.0 0.0 0.0 0.0

bn_layers.0.running_mean f4 [4]
00000000: 0000 0000 0000 0000 0000 0000 0000 0000
0.0 0.0 0.0 0.0

bn_layers.0.running_var f4 [4]
00000000: 0000 803f 0000 803f 0000 803f 0000 803f
1.0 1.0 1.0 1.0

bn_layers.1.weight f4 [4]
00000000: 0000 803f 0000 803f 0000 803f 0000 803f
1.0 1.0 1.0 1.0

bn_layers.1.bias f4 [4]
00000000: 0000 0000 0000 0000 0000 0000 0000 0000
0.0 0.0 0.0 0.0

bn_layers.1.running_mean f4 [4]
00000000: 0000 0000 0000 0000 0000 0000 0000 0000
0.0 0.0 0.0 0.0

bn_layers.1.running_var f4 [4]
00000000: 0000 803f 0000 803f 0000 803f 0000 803f
1.0 1.0 1.0 1.0

conv1.att_src f4 [1, 1, 4]
00000000: 4c43 e43e 5033 843f d11c 5e3f 7a1f c5be
0.44582593 1.0328159 0.8676272 -0.38500577

conv1.att_dst f4 [1, 1, 4]
00000000: f67f 543f 617e 823f 456a c8be d0c6 fd3e
0.8300775 1.0194818 -0.39143577 0.49565744

conv1.att_edge f4 [1, 1, 4]
00000000: e107 063f 34e4 69bf d823 523f 0b55 6b3f
0.5235577 -0.91363835 0.82085943 0.9192664

conv1.bias f4 [4]
00000000: 50d7 38bc 233f d2bb aa92 fc3b 5a0e b1bb
-0.011281803 -0.006416218 0.0077079134 -0.005403322

conv1.lin_src.weight f4 [4, 3]
00000000: 34c8 963c b363 0ebf edec a1be 57cb d6be
00000010: f3c4 09bf 4e92 63be 854c e5be fd27 9e3c
00000020: 6a15 3cbf d6b5 533f 3217 df3e 51f4 34bf
0.018406011 -0.5562088 -0.31626073 -0.4195201 -0.53816146 -0.2222378 -0.44784942 0.019306177
-0.73470175 0.82699335 0.43572384 -0.706853

conv1.lin_dst.weight f4 [4, 3]
00000000: 34c8 963c b363 0ebf edec a1be 57cb d6be
00000010: f3c4 09bf 4e92 63be 854c e5be fd27 9e3c
00000020: 6a15 3cbf d6b5 533f 3217 df3e 51f4 34bf
0.018406011 -0.5562088 -0.31626073 -0.4195201 -0.53816146 -0.2222378 -0.44784942 0.019306177
-0.73470175 0.82699335 0.43572384 -0.706853

conv1.lin_edge.weight f4 [4, 12]
00000000: 6815 15bd b189 15bf 9bfa f33e 8b17 b03e
00000010: 1e26 1c3f 9dfb ea3d 396f dd3e 5c8e 03be
00000020: 3a41 d7be bead f4bb 2253 4e3e fccb bb3d
00000030: db68 bc3b 61f8 c43e e00e 26bc bb7f 3d3e
00000040: 9e72 dcbe 94f8 48be b993 ebbe c9c4 183f
00000050: 2222 143f 2df8 00bf 73c9 bebc ddfc c43e
00000060: caaa 603d 23e8 3dbe 9c3e ed3e 9917 53be
00000070: 2f92 b3be d139 893e 8a6b 973e 1dd9 01bf
00000080: a54f 3a3e 8da7 71be a7a0 0f3f d969 b73d
00000090: 9043 3d3e b51e 15bf 4ce7 2a3e cb67 08be
000000a0: 60dc d73e 0e77 b4be 51d8 b7be 73ab 61bd
000000b0: 5b5e c5bd 813d 913e 2b26 f73d af75 813e
-0.036397368 -0.58413225 0.47652134 0.34392962 0.6099566 0.11473773 0.4324892 -0.12847275
-0.4204195 -0.0074670007 0.201489 0.09169766 0.0057498044 0.38470748 -0.010135382 0.18505757
-0.43056196 -0.19626075 -0.4601114 0.5967527 0.5786458 -0.50378686 -0.023289418 0.3847417
0.054850377 -0.18545584 0.4633683 -0.2061447 -0.35072467 0.26801923 0.29574233 -0.50721914
0.18194444 -0.23599072 0.5610451 0.08955736 0.18482804 -0.5824998 0.16689795 -0.13320844
0.4216032 -0.35247082 -0.35907224 -0.055095147 -0.096371375 0.28367236 0.12067827 0.25285098

transf1.weight f4 [4, 4]
00000000: 375e b73e fdad 34be 2817 a83e 8d32 c8bd
00000010: aae2 2bbd 64a4 ab3e 5338 dabe 9d8e fc3e
00000020: 568a e13e 3519 243e 6336 9d3e 4e41 dc3e
00000030: ca78 5b3e 5b81 a53d face a4bd 22a7 f23b
0.35814068 -0.17644496 0.32830167 -0.09775267 -0.04196421 0.33523858 -0.42621097 0.49327555
0.44050854 0.1602524 0.30705556 0.43018574 0.21432796 0.08081313 -0.0804729 0.0074051777

transf1.bias f4 [4]
00000000: daba be3c d855 03bd cb9b 43be 5c71 843a
0.023282457 -0.03206429 -0.19102399 0.0010104585

bn1.weight f4 [4]
00000000: 0000 803f 0000 803f 0000 803f 0000 803f
1.0 1.0 1.0 1.0

bn1.bias f4 [4]
00000000: 0000 0000 0000 0000 0000 0000 0000 0000
0.0 0.0 0.0 0.0

bn1.running_mean f4 [4]
00000000: 0000 0000 0000 0000 0000 0000 0000 0000
0.0 0.0 0.0 0.0

bn1.running_var f4 [4]
00000000: 0000 803f 0000 803f 0000 803f 0000 803f
1.0 1.0 1.0 1.0

pool1.select.weight f4 [1, 4]
00000000: b80d e2bd 6669 c83e 4a3a c83e c031 8fbc
-0.11037773 0.39142913 0.3910697 -0.017479777

conv_fin.att_src f4 [1, 1, 8]
00000000: 59c7 aebe f32f 3cbe 970f ed3d e5e2 88bc
00000010: c371 e83e 9253 9bbe 84bd 86bd 8c38 be3e
-0.34136465 -0.18377666 0.11575239 -0.016709754 0.45399293 -0.30337197 -0.06579116 0.37152517

conv_fin.att_dst f4 [1, 1, 8]
00000000: dbb2 093b a235 7a3e 6463 debe 7ac5 ae3e
00000010: 0cc1 3ebf e7fc 463f 9ce9 1ebf 7a0c c9be
0.0021011147 0.24434522 -0.43435204 0.34135038 -0.74513316 0.7772965 -0.6207521 -0.3926733

conv_fin.att_edge f4 [1, 1, 8]
00000000: be9f 443f f83a 8f3e 9791 e53d ec18 d8be
00000010: 23dc 203f 4f7d 0abf 893b febe b87d 15be
0.7680625 0.27974677 0.1120941 -0.42206514 0.628359 -0.54097456 -0.49654797 -0.14598739

conv_fin.bias f4 [8]
00000000: 1121 913c 7ca6 9a3c 88e0 e0bc 4623 053c
00000010: e195 82bd 4c51 b6bb 3459 b43c 3baa 7a3c
0.017715963 0.018878214 -0.027450815 0.008126086 -0.063762434 -0.0055638906 0.022015192 0.015299375

conv_fin.lin_src.weight f4 [8, 4]
00000000: 778c 633e 9ebb eb3e ec1a 953c 0b08 8abe
00000010: a448 ddbe aa2e 053f 5db5 423e 2bc0 cbbe
00000020: da81 fb3e e020 9c3d 7767 7d3e 796c 593d
00000030: 01d1 ffbe 6388 0c3f 109d 1abf b938 213f
00000040: 94d6 e6be 4759 ffbe 08e7 863e b5e3 193f
00000050: de43 c63a a952 0f3f e723 093f 5bce 1dbf
00000060: bac8 d83e d317 13bf d9da 20bf d24f 32bd
00000070: 8a0a fdbd 9355 9cbd ef10 a83e 704d 7abe
0.22221552 0.46041578 0.018201314 -0.2695926 -0.43219483 0.5202433 0.19014497 -0.3979505
0.49122506 0.07623458 0.247465 0.053081963 -0.49964145 0.5489561 -0.6039591 0.62977177
-0.45085585 -0.498728 0.26348138 0.6011308 0.0015126427 0.55985504 0.5357041 -0.61643
0.42340642 -0.5745823 -0.62833935 -0.043533154 -0.12355526 -0.076335095 0.3282542 -0.24443603

conv_fin.lin_dst.weight f4 [8, 4]
00000000: 778c 633e 9ebb eb3e ec1a 953c 0b08 8abe
00000010: a448 ddbe aa2e 053f 5db5 423e 2bc0 cbbe
00000020: da81 fb3e e020 9c3d 7767 7d3e 796c 593d
00000030: 01d1 ffbe 6388 0c3f 109d 1abf b938 213f
00000040: 94d6 e6be 4759 ffbe 08e7 863e b5e3 193f
00000050: de43 c63a a952 0f3f e723 093f 5bce 1dbf
00000060: bac8 d83e d317 13bf d9da 20bf d24f 32bd
00000070: 8a0a fdbd 9355 9cbd ef10 a83e 704d 7abe
0.22221552 0.46041578 0.018201314 -0.2695926 -0.43219483 0.5202433 0.19014497 -0.3979505
0.49122506 0.07623458 0.247465 0.053081963 -0.49964145 0.5489561 -0.6039591 0.62977177
-0.45085585 -0.498728 0.26348138 0.6011308 0.0015126427 0.55985504 0.5357041 -0.61643
0.42340642 -0.5745823 -0.62833935 -0.043533154 -0.12355526 -0.076335095 0.3282542 -0.24443603

conv_fin.lin_edge.weight f4 [8, 12]
00000000: f0ac a93d 7fad 9dbe ba8e 923d 1a5a cebe
00000010: b284 ecbe b41c 0b3e 49b2 ecbe e7fd 693e
00000020: 5ea2 0abd 0b2b c93e 333f e8be fe6e 81be
00000030: e2d8 6abe 40c3 d3be cee1 693e c8c6 c93e
00000040: 8677 e0be f134 51bd e4a8 88bd 9e19 f73e
00000050: 7422 133e f71b cb3e 94d9 5dbe c55c ac3e
00000060: 649e 9dbd 67f0 7b3b 968b a73e 76a9 7a3e
00000070: 51fe 633d a22f b83d aee0 f43e 730d f7be
00000080: e7dc ed3e 3480 883e 5135 aabd c123 8d3d
00000090: 49ad 8b3e 84ea e1be ea04 f2bc 401c 07bf
000000a0: 2412 06bf c657 83be e3ec 8f3e e7e4 cfbe
000000b0: 5a29 a63e b7ac 98be ff36 ee3e 3148 f43e
000000c0: 85c5 f4be 9cc5 83be 75c3 3d3e 0ac9 b7be
000000d0: b10d 3e3e 9911 87bd a920 c53e 1c6c 043e
000000e0: b8b5 9bbe c6ac 5e3b 74c5 833e 1733 a6bb
000000f0: 92cd c3be 4a41 543e b901 b53d fb4a 8f3e
00000100: 5e34 9dbe 021a 743c 6f0b d23c 781a 4fbe
00000110: 9674 e4be 72bd 8abe 6d8d edbe 47b7 dfbd
00000120: 7d47 d3be cb29 e23d f726 cc3e 9eab 81be
00000130: 72bb c43e 31e5 243e 148b bd3e edb0 88be
00000140: c6f4 593c f276 d03e 4b05 cb3e 6ab5 fbbe
00000150: 17fd d83d 48db ee3e a197 3a3e 83ef 293e
00000160: 4312 d6be da24 a0be 0c12 ce3e d68e 82be
00000170: abca eebe 6324 d2be 8178 a3bd 3966 093f
0.08284938 -0.3079643 0.07156129 -0.40303117 -0.46194988 0.13585168 -0.4622977 0.22850762
-0.03384625 0.39290652 -0.45360717 -0.25279993 -0.22934297 -0.413599 0.22840044 0.3940947
-0.4384119 -0.05107588 -0.06672838 0.48261732 0.14368612 0.39669773 -0.2166503 0.33664528
-0.07696226 0.0038442852 0.32723683 0.24478707 0.055662457 0.0899346 0.47827667 -0.48252448
0.46457598 0.2666031 -0.083109505 0.06891585 0.27280644 -0.44124234 -0.029543359 -0.5277748
-0.5237143 -0.25652903 0.28110418 -0.40604326 0.32453424 -0.2981927 0.46526334 0.47711328
-0.47806945 -0.257367 0.18531592 -0.35895568 0.1855991 -0.06595153 0.3850148 0.12931865
-0.30412078 0.0033977493 0.25736582 -0.0050720084 -0.38242775 0.20728031 0.08838219 0.27986893
-0.30704015 0.014898779 0.025640218 -0.20224941 -0.44620198 -0.2709766 -0.46396962 -0.10923629
-0.4126548 0.110431276 0.39873478 -0.25326246 0.3842426 0.16103055 0.3702017 -0.26697484
0.013302987 0.40715748 0.39652476 -0.49161845 0.10595148 0.46651673 0.18221904 0.16595273
-0.41810808 -0.31278116 0.40248144 -0.254996 -0.46638998 -0.41043386 -0.07981969 0.53671604

transf_fin.weight f4 [8, 8]
00000000: 85d7 03be 409b b2be f7a8 123e 5e6a 1b3e
00000010: 52ee 97be 31c2 513c 248e a03e 1891 3ebe
00000020: 4298 313d 16c6 693e 757c a13e 94d9 1bbe
00000030: 595a a1be 1220 583e 0b14 6ebd 4072 8e3e
00000040: cd4b 11be 96c4 a13e 4373 153e e2c4 7f3e
00000050: 59e2 143e 3a10 3c3e 9693 593c 1879 463e
00000060: e744 923d 49a4 523e d59f ba3d df02 b5be
00000070: 8342 893e d434 b53e 3eb1 8b3e 09b5 d0bd
00000080: 0dd1 0abd e382 98be 2f26 073e 9d41 bd3d
00000090: b392 e2bd ffba cbbd 094b 283e 97d2 2b3e
000000a0: 0c80 433e cbe9 48be b368 d0bd 1358 2d3e
000000b0: e4ff 0f3c 0fb2 bfbd d995 1abe 13a6 35bd
000000c0: 70cb 383d 8d23 1a3e 2bdd 9fbd 4fb6 6f3d
000000d0: 5e04 92bd 2bc4 c4bd 5816 4bbe 6c74 a63c
000000e0: 480b a1be 01c9 88bc 990f 83bd a1d1 a93e
000000f0: 7d25 03bd edf9 a4bc 5179 103e 7a59 02be
-0.12875183 -0.3488407 0.14322267 0.15177295 -0.2967401 0.0128026465 0.31358445 -0.18610036
0.043358095 0.2282947 0.31540266 -0.15219718 -0.31514242 0.21105984 -0.058124583 0.2782154
-0.14189072 0.31595296 0.1459475 0.24977449 0.1453947 0.18365565 0.013279816 0.19382131
0.07142048 0.20570482 0.09112517 -0.35353753 0.26808557 0.35391867 0.27283663 -0.1019078
-0.033890773 -0.2978736 0.1319816 0.0924103 -0.11063137 -0.09947776 0.16434874 0.16779552
0.19091815 -0.19620435 -0.1017622 0.16928129 0.008789036 -0.09360134 -0.15096225 -0.044347834
0.045115888 0.15052624 -0.07805856 0.058523472 -0.07129739 -0.096077286 -0.19832742 0.020319186
-0.3145392 -0.016697409 -0.063994594 0.33167747 -0.032018173 -0.020138705 0.14108779 -0.12729445

transf_fin.bias f4 [8]
00000000: 0727 92be e27c abbc 01b7 9f3d 2e30 983d
00000010: bd80 a43e 8561 c1bd 3a9d e83e 9788 85be
-0.285454 -0.020933572 0.07798577 0.074310645 0.3212947 -0.094424285 0.45432454 -0.26080772

bn_fin.weight f4 [8]
00000000: 0000 803f 0000 803f 0000 803f 0000 803f
00000010: 0000 803f 0000 803f 0000 803f 0000 803f
1.0 1.0 1.0 1.0 1.0 1.0 1.0 1.0

bn_fin.bias f4 [8]
00000000: 0000 0000 0000 0000 0000 0000 0000 0000
00000010: 0000 0000 0000 0000 0000 0000 0000 0000
0.0 0.0 0.0 0.0 0.0 0.0 0.0 0.0

bn_fin.running_mean f4 [8]
00000000: 0000 0000 0000 0000 0000 0000 0000 0000
00000010: 0000 0000 0000 0000 0000 0000 0000 0000
0.0 0.0 0.0 0.0 0.0 0.0 0.0 0.0

bn_fin.running_var f4 [8]
00000000: 0000 803f 0000 803f 0000 803f 0000 803f
00000010: 0000 803f 0000 803f 0000 803f 0000 803f
1.0 1.0 1.0 1.0 1.0 1.0 1.0 1.0

pool_fin.select.weight f4 [1, 8]
00000000: 788b 9c3e 0774 03be 4523 083e d988 723e
00000010: 83fe 973e d4a1 ee3d 6d36 5bbe f863 f43d
0.30575156 -0.1283723 0.13294704 0.23685016 0.29686365 0.1165196 -0.2140748 0.1193313

linear0.weight f4 [128, 10]
00000000: 89a1 2bbe d676 8d3e 6b70 603e 24ed cfbd
00000010: ef5b f6bd 8598 22be 38a0 30be 4624 9cbe
00000020: 742d 9c3e c44f 953e e333 293e 3178 713e
00000030: 25a0 0bbd 2fa1 213e 7333 1139 3b5f 61be
00000040: b115 4fbd 6774 943e 8cfc 1ebd 5646 773e
00000050: ffab 1abd 5b62 293c 7acd 75be 71c6 aebc
00000060: b1bd 1cbd c63c 25bd 7f41 7cbe 198b 273e
00000070: ec74 5b3e 1680 cf3e a03a 04be b4b6 95be
00000080: 3c8c d73d e93c 903e 5d7d 2d3e 05e3 47be
00000090: a446 0abd 4675 3fbe 6ee2 633d 677b 60be
000000a0: 4163 0ebe 049d 7c3e 487e 1e3d 735e 64be
000000b0: fcfa 4bbe 61c9 a03d a347 13be 4856 193e
000000c0: 3cc5 273d 06b9 283d 16bd 05be 86b5 ebbd
000000d0: fd05 b63d 3da4 d33d f7ef f4bb 206a 073e
000000e0: 88f2 f53c 1510 1e3c 4aa2 2bbe 6146 aa3e
000000f0: 8cd5 edbd a67d 8e3c db39 c73d 7bfa 8abe
00000100: f25a b2bc ea1a 2dbe d895 a93d ea71 843e
00000110: 4e16 5c3e 61bd 383e 062a 19be 6ff0 353e
00000120: 7992 7c3c daf0 72bc 49ec 2f3e 3f9f 58bd
00000130: 247d a63e d2d6 eabd dc2b dabd 3323 f1be
00000140: 7679 4b3e 3b43 17be 88af 1c3e 7eeb f8ba
00000150: 3ffc 7fbe 9629 3d3d 0435 613e 59ae 883e
00000160: 78e9 053c 2946 62be 7984 963e c44a 083e
00000170: a20d 9a3e fb42 6d3e 14bc acbe 508e 0fbe
00000180: 9ba1 503e 741d 643e 5b32 4e3e 84ad 793e
00000190: b0f0 13bc 1020 eabd 01e5 bd3d 6866 4a3e
000001a0: b32f 18be a41a 7a3d 167a 69be 72a0 693e
000001b0: ea25 1d3d da51 3cbd 74a8 763e 638d 21be
000001c0: 8826 a8be 33fd 5dbe e95c 82bc ca2d da3d
000001d0: 7fac 4c3e 4fa2 5abe 862c c0bd 7e4f f0be
000001e0: 806a 0e3c 0a5a a03d a8ef 95be deb5 cbbc
000001f0: 378f 79bd 929c 463e 9b6a 9fbe acdd 9a3e
00000200: f239 c4bc d26d dcbc f201 85be d6ca a53d
00000210: b434 8ebe dfd6 25be 6844 023e 0622 2fbe
00000220: 3af5 8bbe b24b 59be 6543 963e c72d 093e
00000230: 0038 923e b322 9cbd 6572 54be 83a7 63be
00000240: 9a79 943d c2ad 873c df14 6ebe 73f2 47be
00000250: e23c 893e 1c73 d3bd 954f 103e b6bd d1bd
00000260: 4cad 093e 1451 4abd 6102 083d df33 893e
00000270: 5574 9dbe a19a 2abe c6ea 30bd 1777 593e
00000280: b938 ecbd c1a3 99be a0ab 8fbd 8984 253e
00000290: 3e28 833e 3823 ff3d 7042 dbbd ba4e 993e
000002a0: 6c5d 60be 96c1 80be 2f68 893e ba3d 96be
000002b0: 4974 d23b ab56 0abd bd7a 86bc 2786 9f3e
000002c0: 3e69 883e b714 23bd cc29 443e 1e15 a6be
000002d0: 4d4e 8abe 88e4 2abe 63d5 773e 5561 413d
000002e0: b6cf c1bd d791 b43c f46f af3d 3466 993e
000002f0: e855 d43d c9d6 25be 2ef6 e03d 696e 1cbe
00000300: 1b3e 40be 5a20 d8bc fa80 35be d3e7 1cbe
00000310: 9320 8d3e 7707 19bd 73b7 1fbe feee 84be
00000320: a926 883e 238b 093e 7dc9 023e ce00 933d
00000330: ee51 273e f862 9c3e 0e59 993d 8657 503d
00000340: f1b1 39be 0baf 15bf 9249 9ebe bdb9 04be
00000350: c318 93be 299b 5bbe 34ea 413e 8ba2 743d
00000360: fe26 30be 17a9 5bbe 4a6d 9a3d fdf4 68be
00000370: 6e01 76be da6b c83d fa8a 97be 9138 893d
00000380: e8fd bb3d 6c95 e0bd 2023 2b3d a550 b1b9
00000390: 2e6d e2bd 0e93 583e 32c2 893e 52a5 4b3e
000003a0: e967 903e ae21 dbbd 8668 1cbe f377 52be
000003b0: 5ec2 8f3e 3ec1 b1ba 0c2b e5bd 86b3 01bf
000003c0: 6922 80be d38b 2cbe 806c d33c f8eb 39be
000003d0: 718f 5e3d 08d5 723e 6e70 2fbe 3a50 913e
000003e0: 77c9 17be 53ff df3d 418c 0b3d 6541 e23c
000003f0: 7d5f 1fbe 3ede 093e fe1b 433d 3bc0 c6bd
-0.1676084 0.27629727 0.21917884 -0.10152653 -0.12029254 -0.15878494 -0.17248619 -0.30496424
0.30503428 0.2916242 0.165237 0.23581006 -0.034088273 0.15784143 0.00013847444 -0.22008984
-0.050557796 0.28995058 -0.038815066 0.24147925 -0.037761685 0.010338391 -0.24004164 -0.021334859
-0.03826684 -0.04034116 -0.2463436 0.16361655 0.21431321 0.4052741 -0.12912989 -0.29240954
0.105247945 0.2817147 0.16942354 -0.19520195 -0.033758774 -0.1869708 0.055635862 -0.21922074
-0.1390505 0.24669272 0.03869465 -0.22301655 -0.19919962 0.0785091 -0.14382796 0.1497432
0.04095958 0.041192077 -0.13060412 -0.11509232 0.08887861 0.1033406 -0.007474895 0.13224077
0.030022874 0.009647389 -0.16761127 0.3325682 -0.116129965 0.017393898 0.09727832 -0.27144226
-0.021771882 -0.16904798 0.082805336 0.2586816 0.21492884 0.18040992 -0.14957437 0.177675
0.015415781 -0.014827931 0.1717998 -0.052886244 0.3251735 -0.11466755 -0.10652897 -0.47097167
0.19870552 -0.1477174 0.15301335 -0.001899108 -0.24998568 0.046182238 0.2199288 0.26695517
0.008173339 -0.22097076 0.29397944 0.13309771 0.30088526 0.23170082 -0.33737242 -0.14019132
0.20374148 0.2227686 0.20136397 0.24382597 -0.009029552 -0.11431897 0.09272195 0.19765627
-0.14861946 0.061060563 -0.22800478 0.22815111 0.038366236 -0.045976497 0.24087697 -0.15776591
-0.32841897 -0.21678619 -0.015913444 0.10653265 0.19987677 -0.21350978 -0.09383492 -0.46935648
0.008692384 0.078296736 -0.29284406 -0.024866994 -0.060927596 0.19395664 -0.3113602 0.30247247
-0.023953412 -0.026907835 -0.25978047 0.080953285 -0.27774584 -0.16195248 0.12721407 -0.17102823
-0.2733553 -0.21220282 0.29348293 0.13396369 0.2855835 -0.07623806 -0.20746763 -0.2223187
0.07249756 0.016562346 -0.23250149 -0.19526081 0.26804262 -0.1032469 0.14092858 -0.102412626
0.13445014 -0.04939373 0.033205394 0.26797387 -0.30752817 -0.16660549 -0.043192647 0.21236835
-0.115342565 -0.30007747 -0.07015157 0.1616384 0.2561664 0.12457889 -0.10706031 0.29942876
-0.21910638 -0.25147694 0.26837298 -0.2934397 0.0064225537 -0.03377406 -0.016415948 0.31157038
0.26642793 -0.039814677 0.19156569 -0.32437986 -0.27012864 -0.1668874 0.24202494 0.047211964
-0.09463446 0.022042198 0.08566275 0.29960787 0.10367948 -0.16195215 0.10984455 -0.15276493
-0.18773691 -0.026382614 -0.17724982 -0.15322809 0.27563915 -0.037360635 -0.15597324 -0.25963587
0.26591995 0.13431983 0.12772174 0.07177888 0.16339847 0.30544257 0.07487689 0.05086472
-0.18134286 -0.5847022 -0.30915505 -0.12961479 -0.2872983 -0.21445908 0.18936998 0.059725326
-0.17202374 -0.21451221 0.075403765 -0.22749706 -0.24023983 0.09786196 -0.29598218 0.06700242
0.09179288 -0.10966 0.041781545 -0.00033820156 -0.110559806 0.21149847 0.26905972 0.19887283
0.28204277 -0.10699783 -0.15274248 -0.2055357 0.28077978 -0.0013561619 -0.11189851 -0.50664556
-0.25026253 -0.16850214 0.025808573 -0.18156421 0.054336015 0.23714077 -0.17132732 0.2838152
-0.14822946 0.10937371 0.034069303 0.027619073 -0.1556377 0.13463685 0.047634117 -0.09704634

linear0.bias f4 [128]
00000000: bb9e 363e d658 a83d 88a8 1b3e 3f5a a73d
00000010: b32e 2abe 1cd2 81be 6ba5 c3be d9e8 d2bc
00000020: 66a1 30bb 860c 97be 5b20 883e e15d 4e3e
00000030: 266b 07be 217d 2fbd bc37 853d e56c 7dbe
00000040: ae2f 3a3e f8d3 253d 540a 3c3e 4b2b 363c
00000050: e908 10be a477 7e3e a6e5 87be 1f5a 82be
00000060: a419 10be 7925 15be e370 36be 1c50 a6bd
00000070: fcbc 913e 573d 1b3e 8a2a 933e 51ed 443e
00000080: ef8a e53d 6974 4a3e 2f88 69be 9115 a1be
00000090: 3a5c dcbb 0401 9f3e e98d 91bd 62d9 5ebe
000000a0: 4fa7 953d 59c1 cfbd e247 85be f14b 1ebd
000000b0: 8678 863d b49e 493e 3268 c23d 9339 ba3e
000000c0: 88d2 f93d 9c80 77be d486 83be 0413 4e3e
000000d0: 19c5 21be 3ec8 aabc c59c e63e 28a4 a0be
000000e0: 7827 053e 627c e53b 50c3 b43e ed99 84be
000000f0: 036f 6d3e fb89 683d 49d4 3bbe 4128 c0bd
00000100: 5479 c7bc 98ae 943d 05aa 89bd 31b3 ecbe
00000110: f2a2 ed3d 1df0 57be 612f c53e bded 96be
00000120: c0a8 1bbe 170a 22be 4b34 9f3e 1e28 33be
00000130: 0c0f 74be 4b86 bb3e 1bd7 b1bd d6fe 0dbb
00000140: 4b16 ba3d 678d bcbd b201 ba3d 78f7 743e
00000150: ff97 03bf 668f f7bd 5464 03be d06d 1b3e
00000160: dd04 763e 2ffd 183e 65f2 8abe f2ed 4cbe
00000170: 9b0d 02bf 134d b5bd cff1 7a3a 4cfe c23e
00000180: 89e0 99bd e3bb 87be 3e5e 773e 321d d83c
00000190: 9dcb bbbd 371c b6be 3282 153e 821e fb3d
000001a0: 61ec 043e 65b7 55bd c93f 4abe f8f4 a6bd
000001b0: 4aea 24be 33c0 f03d cf43 ef3d 6be8 2cbd
000001c0: 95d4 8abe b706 643e cba4 b83e c867 80bd
000001d0: 3bad 243e 7650 893e 3bef 673e 7294 383c
000001e0: 61cd 963d 8420 76be 6ac8 983e 4faf aabd
000001f0: 5f24 e2bb 331d 493e 6204 933e 2536 383e
0.17833988 0.08220069 0.15201008 0.0817151 -0.16619377 -0.25355613 -0.3821214 -0.025745796
-0.002695167 -0.29501742 0.26587185 0.20153 -0.13224468 -0.04284394 0.06504771 -0.24748571
0.18182251 0.040485352 0.18363315 0.01111872 -0.14065899 0.24850327 -0.26542395 -0.25459382
-0.14072281 -0.14565076 -0.178165 -0.081207484 0.28464496 0.15160118 0.28743392 0.19231154
0.1120814 0.1977097 -0.22805856 -0.31461766 -0.0067248615 0.31055462 -0.07107145 -0.21762612
0.07307302 -0.101443 -0.26031405 -0.038646642 0.06565957 0.19689447 0.0949253 0.3637205
0.12198359 -0.24170154 -0.25688803 0.20124441 -0.15797843 -0.020847436 0.4504148 -0.3137524
0.13003337 0.007003353 0.35305262 -0.25898686 0.23186879 0.056772213 -0.18342699 -0.09382678
-0.024349846 0.072598636 -0.06721882 -0.46230462 0.11603345 -0.2108769 0.3851271 -0.29478255
-0.15201092 -0.15824161 0.31094584 -0.17495772 -0.23833865 0.36625895 -0.08683606 -0.0021666787
0.09086283 -0.09206658 0.090823546 0.23922527 -0.514038 -0.12087898 -0.12831241 0.15178609
0.24025293 0.14940332 -0.27138057 -0.20012644 -0.5080201 -0.08852591 0.00095727755 0.38084638
-0.0751353 -0.26510534 0.24157044 0.026381109 -0.091696955 -0.355684 0.14600447 0.12261678
0.12980796 -0.05217685 -0.19750895 -0.08152193 -0.16104999 0.11755409 0.11682855 -0.04221384
-0.27115312 0.22268187 0.36063227 -0.06269795 0.16081707 0.268192 0.22649853 0.011265861
0.07363392 -0.24035841 0.29840404 -0.08334219 -0.0069013084 0.19640045 0.2871428 0.17989404

linear2.weight f4 [128, 128]
00000000: 8e83 a6bb 906c 423d f90f 75bd ec33 71bd
00000010: 3526 6f3d 657a debc 2a60 c13c 376f 3a3d
00000020: abb5 57bc 6894 4d3d e0cf 4f3c 4a80 933d
00000030: 3742 a5bd d15a 96bd ffc8 9ebd bc83 0bbd
00000040: 4a02 05bc 8fd0 81bd ff52 87bd d33e 86bd
00000050: e3de 933c 2e4b c33c e4f9 21bd 5ea0 94bd
00000060: fab2 3d3d 3501 6fbd 8c7d e1bc 96a2 afbc
00000070: 1dd5 ae3c c610 71bc 7458 883c 16fc 043d
00000080: 0fd8 ce3c 31e9 533d fb8c 883d 495c 923b
00000090: 3050 8fbd b90f a93d ebda 473d b9d4 df3c
000000a0: c2c3 8f3d 0e84 2f3d 2d02 35bd 3ff0 073d
000000b0: e667 8cbd 9274 cdbc 5d02 c93c d966 9cbd
000000c0: 4b4f b1bc eefc 54bb 86c9 3fbd c908 a6bd
000000d0: 956d 86bd f928 a03d 7cc8 04bd 1351 afbd
000000e0: aef3 d33c cfd0 253d aa4f 1abd 8b5d 8ebd
000000f0: ebec 07bd f258 8b3d fdac 01bd 504e 9fbd
00000100: 625c d7bc bf17 1e3d df3e e3bc 0cc4 a53d
00000110: f9ec 0c3d fb4e d4bc 12b5 8cbc 7cc9 67bd
00000120: b9b0 94bd c429 b5bc 4181 3fbd 2b3f a33d
00000130: 0009 3d3d 70e0 a9bd a3a8 53bd 7e38 44bd
00000140: 3625 543d 8023 69bd 85c3 24bd e11a a4bd
00000150: 94bc 4a3d 0147 3f3d 2603 393c 410a 0a3d
00000160: f974 833d e8c4 4e3d 3648 a93d 79b4 95bd
00000170: 02d9 513d af12 20bb 3ae6 8c3d e15e a03d
00000180: 851a 9c3b 9b64 78bd 59f2 f73c 75d3 4abc
00000190: 6925 ad3d e50f 013c f7b0 87bc eeac 13bd
000001a0: 9a07 fa3c 138d 98bd 1161 10bd c61e 96bc
000001b0: bb71 8d3d af75 9cbd 5ed5 86bd efcb 9b3c
000001c0: 910e 2ebd 300f 6d3c 219f 843d 20c1 9bbd
000001d0: ed0d 943d 4e69 f9bb f678 713d 0c47 743c
000001e0: 1f57 2abd 6729 7f3d d4e6 d1bc 3e86 863d
000001f0: f2da 033d 84a3 d83c 4fa2 12bd 27f9 49bd
00000200: 44ad 55bd c38e 64bd 7135 50bd 2d67 2f3d
00000210: 68d4 88bc 12c7 dabd a2c8 f13c c6f1 9c3c
00000220: 2649 d03d 8b1e 1fbd 5156 a43d 8739 e73d
00000230: 9a62 a43d 9c14 aebc 96cf ad3d 74af 253d
00000240: d5d0 073c 7060 43bd 7d8f 813d 9cf5 5b3c
00000250: 0390 193d d466 8abd c93b e83c d63e 8639
00000260: 1507 53bd dc15 2dbd 0b02 45bd 4f56 003d
00000270: 75d6 a53d 90d9 343d 5e0a a4bc c59b 1f3d
00000280: 00fb 1dbc c949 9b3d 6e71 a4bd 4ffd 183d
00000290: 0966 c1ba 1d44 7e3d 7932 33bb 870c 88bd
000002a0: 5511 afbd 0d5a 473d 5769 78bd b3ee 4b3d
000002b0: c906 403d 6bdd d73c 1a2e d33b 82c8 873d
000002c0: 08b4 e4bd c116 023c 42f7 2b3d 6196 e23b
000002d0: 6bb8 9e3d bb29 003c 029a 94bd db89 763d
000002e0: 7d9d 67bd 4183 59bd 8ba7 21bb 0317 30bc
000002f0: 6ec5 36bb 9530 ca3c c85a 8abc 6bd6 be3c
00000300: 7404 8f3c 5e8c 34bd 69e1 adbd cd1c b6bd
00000310: dc22 1b3d 9ea7 62bd 361b 97bc 14da 053d
00000320: ce04 f8bc 857d 893d 3a7a a13d 68d7 373d
00000330: 840f 443d 16cd f23d 80d9 993d 9db7 afbd
00000340: 3206 9b3d a4a9 753d e041 883d ba39 9bbd
00000350: b2c8 61bd acf2 093d 39c7 9bbd 8711 95bd
00000360: fabb a9bb 269d 2abd 2b78 153d 4b34 2d3d
00000370: 71de 4abc b312 083d ca32 1fbd 0a85 403d
00000380: 5799 3e3d 62a0 293d 0cc9 043d 9e99 a73d
00000390: ca55 493d 211a 44bc 0998 503c 9601 9bbc
000003a0: 0802 4d3d c5f5 423d f5d6 6e3d b0c3 273d
000003b0: 0f50 9f3d 2a88 613d 03c3 0bbd 50d3 5abd
000003c0: 7478 3f3b 198f 49bd 4ccf 43bd 24f3 98bd
000003d0: ae4d 533c d07f 8d3d 89c5 b4bc 2c71 9b3d
000003e0: f33f 5e3c fa06 c43a 4017 26bd 26a9 673d
000003f0: 0466 c1bd ee72 b63b 7238 ab3c 2e83 09bd
-0.0050816005 0.047466815 -0.059829686 -0.058887407 0.058386046 -0.027157972 0.023605425 0.04551622
-0.013165872 0.05019036 0.012683839 0.072022036 -0.0806927 -0.073415406 -0.07753181 -0.03406118
-0.008118222 -0.063386075 -0.06607627 -0.065549515 0.018050617 0.02383956 -0.039544955 -0.0725715
0.046313263 -0.05835076 -0.027525686 -0.021439832 0.021341855 -0.014713472 0.01664374 0.03246697
0.02524951 0.05173606 0.06667515 0.0044665677 -0.069977164 0.08254952 0.04879276 0.027323114
0.0701976 0.042850547 -0.044191528 0.0331881 -0.068557546 -0.02508 0.02453726 -0.07636804
-0.021644255 -0.003249939 -0.046823047 -0.081071444 -0.0656387 0.07820315 -0.03241776 -0.085603856
0.025873031 0.04048234 -0.03767363 -0.06951436 -0.033184927 0.06804074 -0.031659115 -0.07778609
-0.026289169 0.038596865 -0.02773994 0.080940336 0.034405682 -0.025916567 -0.017176185 -0.056588635
-0.0726027 -0.022114642 -0.046754126 0.07971033 0.04615116 -0.08294761 -0.051674496 -0.047905438
0.0517933 -0.05691862 -0.040225524 -0.08012939 0.04949625 0.046698574 0.011292255 0.033701185
0.06418795 0.050480753 0.08265726 -0.07309813 0.051232345 -0.0024425199 0.0687985 0.07830597
0.0047639036 -0.06064282 0.030266928 -0.012379517 0.08454401 0.007877325 -0.016563876 -0.03605359
0.030521203 -0.07448783 -0.03524882 -0.01832522 0.06906458 -0.07639634 -0.06583665 0.019018142
-0.04249436 0.014468953 0.06475664 -0.07605195 0.07229219 -0.0076114303 0.058953248 0.014909517
-0.04158699 0.062295344 -0.025622763 0.065685734 0.032191224 0.026445158 -0.03579932 -0.049309876
-0.052167192 -0.05580021 -0.050832216 0.042823005 -0.016702846 -0.10682501 0.029514614 0.019158255
0.10170202 -0.038847487 0.08024276 0.11290269 0.08026619 -0.021250062 0.084868595 0.04045053
0.0082895355 -0.04769939 0.06326196 0.013425257 0.037490856 -0.06757894 0.02834882 0.00025605288
-0.051520426 -0.042257175 -0.04809765 0.03133231 0.08097545 0.044152796 -0.020024475 0.038966913
-0.009642363 0.07582433 -0.080294475 0.03735095 -0.001475514 0.062076677 -0.0027343316 -0.066430144
-0.08548228 0.048669863 -0.060647335 0.04978819 0.04688147 0.026350698 0.0064447047 0.06630041
-0.11167151 0.007939995 0.04198385 0.006914899 0.07750019 0.007822449 -0.07255937 0.060190063
-0.056546677 -0.05310369 -0.0024666514 -0.010747674 -0.0027888673 0.024681369 -0.016888991 0.023295602
0.017458178 -0.044079177 -0.08490259 -0.08892212 0.03787504 -0.055335633 -0.018445592 0.03267868
-0.030275729 0.06713394 0.07884641 0.04488316 0.04786636 0.11855523 0.07512188 -0.08579943
0.07569541 0.059976235 0.0665319 -0.0757937 -0.05512304 0.033678696 -0.07606358 -0.07278734
-0.0051798793 -0.041653775 0.036491554 0.0422862 -0.012382136 0.033220958 -0.038866796 0.047001876
0.046532955 0.04141272 0.032418296 0.08183597 0.04915408 -0.01196912 0.0127315605 -0.018921655
0.050050765 0.047597665 0.058310468 0.040958107 0.07778942 0.055061497 -0.034121525 -0.05342418
0.0029216083 -0.049208734 -0.047805116 -0.074682504 0.012896938 0.06909144 -0.022066848 0.07589945
0.013565051 0.0014955692 -0.040549517 0.056557797 -0.09443286 0.0055679 0.020900939 -0.03357237

linear2.bias f4 [128]
00000000: 2ffb 5bbd 05ab 073e 79d0 40bd aa55 0c3c
00000010: c832 a03d 4655 20bd 9631 f33d 1e5d 1b3d
00000020: 415c 79bd eb41 ac3d 331f 573d 0ac8 623d
00000030: 16fe 3e3d ee6f b9bd d212 83bd ddf1 83bd
00000040: c94d febd af9e 28bc b47b 673d 6295 30bc
00000050: fd88 623d 4be6 69bd d037 5cbd cee6 863c
00000060: bf48 afbd cb45 973d d465 433d d873 a1bd
00000070: ec6e 903d bf61 2d3d 4e9c 7fbd 6e02 7d3d
00000080: 74a0 e83b 9ca5 33bc 9f48 9cbd 4f4f 4dbd
00000090: ee1c 933c a09e 65bd 2e45 e63d 85e8 a63c
000000a0: e2c3 61bd c025 90bd 30ce 7abd 4b6f 973d
000000b0: b4d4 93bc 4ebe b9bd 02ce d63d 21dc d23b
000000c0: 7dd3 bf3d 5f98 e9b9 ffeb 46bb 1666 92bd
000000d0: 8efb 3b3d 309c 823c 1d1f afbc 91a1 0bbd
000000e0: 8868 4fbd 8ff8 38be 4d85 aa3d 96f8 903b
000000f0: 5c03 f7bc b785 1d3c e1f5 8b3b 7e3f e2bc
00000100: 8b27 c3bd e3e2 3fbe 5f81 9c3d 6d59 edbb
00000110: 8e29 92bd e1fe e53c 1b6e edbc c2f2 bc3d
00000120: 2ad2 04bb b8b0 4cbd 3bcb 77bc d52a debc
00000130: 3a3a 0a3d 8090 943d 73ce e0bd c7de e03c
00000140: 9468 203d b5cd b93c 2c48 98bc f4a4 3cbd
00000150: c7bd 07bc 878d 933d 29ce b33c f10b 263c
00000160: 0623 1bbd 990a b13d b3be a1bd 60b8 bcbb
00000170: bb9c a63d d889 2bbe e99a 86bd 8d87 153d
00000180: f14f b73c e6f4 acbd e5ef a7bd d8c5 23bd
00000190: d79a 18be 76ae 21bd 385d 5c3d fb63 25bd
000001a0: 31c4 88bd 765e bebd 962a a8bd 8d5d 4ebc
000001b0: c0fc f43b 9a8a 1fbe 3bf8 56bd cf95 a0bd
000001c0: 3c09 843d c963 42bc 02b3 4abe 511f 5d3d
000001d0: 1f0f 3b3d 0f38 51bd e539 053c 6d2c b4bd
000001e0: f686 0ebc a67c 183d efc2 e9bc e49f 0a3d
000001f0: 8986 2bba 06aa be3c 7422 523d 02a5 38bd
-0.053706344 0.13248833 -0.047073815 0.008565346 0.07822186 -0.039143823 0.11874692 0.0379306
-0.060878996 0.0841101 0.05251999 0.055366553 0.046629034 -0.09054552 -0.06400074 -0.06442616
-0.1241718 -0.010291739 0.056514457 -0.010777803 0.055306423 -0.05710439 -0.053764164 0.016467478
-0.08558797 0.07386359 0.047704533 -0.078834236 0.07052407 0.042329546 -0.062404923 0.061769895
0.0070992056 -0.010964777 -0.07631039 -0.050124463 0.01795813 -0.05605948 0.11243664 0.020374546
-0.05511845 -0.0703845 -0.061231792 0.07394274 -0.01804576 -0.09069501 0.104885116 0.006434933
0.0936651 -0.00044554748 -0.0030353067 -0.071483776 0.045894198 0.015943617 -0.02137714 -0.03408963
-0.0506368 -0.18063568 0.08326206 0.004424165 -0.030152969 0.0096144 0.0042712544 -0.027618166
-0.095290266 -0.18738894 0.07641863 -0.0072433264 -0.07136832 0.028075637 -0.028983166 0.0922599
-0.002026687 -0.04997322 -0.0151241375 -0.027120033 0.033746935 0.07254124 -0.10976877 0.027449979
0.039162233 0.022681097 -0.018589102 -0.04605575 -0.008284993 0.072047286 0.02194889 0.010134683
-0.037875198 0.086445995 -0.07897701 -0.005759284 0.08135363 -0.16751802 -0.065725155 0.036506224
0.022376986 -0.08445148 -0.08200053 -0.0399836 -0.14902817 -0.03947302 0.053799838 -0.040378552
-0.066780455 -0.09295361 -0.082112476 -0.012595546 0.007476419 -0.15580216 -0.052482825 -0.07841074
0.06447074 -0.011864611 -0.19794849 0.053984944 0.045668717 -0.051078852 0.008131479 -0.08797536
-0.008699169 0.03722825 -0.028535334 0.03384389 -0.00065431796 0.023274433 0.05130239 -0.04507924

linear3.weight f4 [64, 128]
00000000: a1ae 533d 0c9a 92bd 8c53 23bd 6e01 8fbd
00000010: 207e 483d a461 8f3d c6b0 253d 1b91 693a
00000020: 7dda 873b 51fd 9cbc 70c6 8fbd b446 6fbd
00000030: 3d5b be3c 29d5 663d e781 61bd 7dfb e43c
00000040: fab3 db3d c062 3e3d 57ce 243c 3575 9bbc
00000050: 16e6 36bd a7d5 00bd 18b1 1e3d a0d8 683d
00000060: cf99 a03a 0ad3 ae3d 0360 21bd 4c00 9abc
00000070: 819d 8dbd 4f36 59bb c49b 95bd 25ca c7bc
00000080: d9e0 a13c f150 1abd 2d18 cb3d 9f3a 213d
00000090: 6632 ac3d afc5 a1bd ca3b 04bd b1c9 c6bc
000000a0: 07f1 2b3d b0ca 81bd 6cfd 983c 8ecf 34bd
000000b0: 2e5f a33d 0b73 613c 4a94 f4bb c2e2 c13d
000000c0: 0ca7 1dbd 5a6c 91bd 9015 ff3c 78be 46bd
000000d0: 1897 5e3d 7f72 b2bd 73d8 af3d 6d2f 48bd
000000e0: e1c9 3c3d c67f 53bd f9b8 b0bc 37e9 1d3d
000000f0: 1e29 9d3d 61cd 263d f296 b4bc 531c 99bd
00000100: 1ac6 703d 5556 863d 212d 68bd f099 26bc
00000110: 9c9d a8bd 0c09 cf3c 0a1a 153d 2c55 8a3d
00000120: e02c a2bc 5120 be3c 2134 8ebd 1a90 5abd
00000130: 8d58 a8bd a311 5f3d d50c 843d 6c76 533d
00000140: 97c6 6fbd fe86 ea3b 6920 16bd 897f 9f3d
00000150: 17ea b93d be6b 41bc e4e9 7bbd a97e 9d3c
00000160: 6e79 2bbc fe6d 8ebd 1b32 21bd 32a6 8fbd
00000170: 281f 93bd c0df 963d e8f0 9e3d b603 5abd
00000180: c49d 033c 91f2 a13c b104 493a 0827 2ebd
00000190: 864f e93d a81c 70bd df19 b33d 5b5e 073d
000001a0: 5c5b dbbc f54c 59bb 4405 e53c 4c34 9bbc
000001b0: 6f06 5fbd 3c4c c23c ed60 c03d e20c ecbc
000001c0: 9b15 01bd 0cfd 87bd 5d93 2b3d 458e c2bc
000001d0: 9d24 22bb de07 f8bc 75e8 8b3d 0523 93bd
000001e0: 0eed 65bd cf96 8abd 3a6c e3bb a748 88bc
000001f0: 0700 773b 906c 75bd dc25 3fbc 8e1b bc3d
00000200: f687 77bc 5015 403d a020 45bd 9396 663d
00000210: 8da0 0f3d 4025 e3bc 51a1 8c3d c7ef 92bd
00000220: eacb 9ebc ee52 ac3d e776 ae3d f167 01bd
00000230: 450d 83bd 978c 1fbd a6e5 9cbc dc01 37bd
00000240: 29ca c93d 76ea 9b3d 7245 56bd e487 81bd
00000250: ef01 8fbd f74b 853d 6e0b 04bd b92a 763d
00000260: 1cb4 18bd e119 9ebd 0c42 c43d 625a ebbc
00000270: a039 d23d 2f40 c3bd e640 d3bc a152 7dbc
00000280: fb0f 563d 73c2 c43d b730 ef3d 6e00 013d
00000290: e484 c2bd 56f7 7abc e3bd 9e3d b164 863c
000002a0: 9125 723d c7cb 273d 735b c53d 42d1 4c3d
000002b0: 6b61 073d 23b3 a83d 8757 353d 7d14 fb3c
000002c0: ced2 9e3d 5616 70bc c14a 51bd 1266 713c
000002d0: ef2f 193d be95 8bbd 90b9 57bd 318e a4bc
000002e0: 5c12 b7bc 8c72 fb3d 674a f93c 6926 173d
000002f0: 3098 613d cf02 4d3d 7119 7d3c 780a 91bd
00000300: 56e8 023d 6b75 013e cff2 d63d 9129 cf3d
00000310: ccef 073d f685 f2bc 57bb 553b 4f66 f33d
00000320: e48e 72bd 91ad 71bd 05a0 1a3d 2eea 123c
00000330: fb30 943d 59f1 80bd dc08 e33d fbe1 143d
00000340: 51fb 233d 0376 a63c c406 c63c 21f6 0a3d
00000350: 54ab 44bd 265f d23b 9221 a5bd b194 32bd
00000360: 6d16 723d 0d4e 113c 6599 8bbd a26f 5abd
00000370: a7b8 5ebd 541b 883d a301 2cbb 6929 7a3d
00000380: 9c90 b93d 3ac1 143d a235 b43d ac90 823d
00000390: 1869 e53d bdfe 6b3d de42 973d ed46 9bbd
000003a0: 83f8 a8ba 4b5e ab3d ea20 3abd 6ae1 173d
000003b0: f85e 183d 8226 acbc f7ee b4bc 42c5 a73d
000003c0: 9852 3e3d 9dcd f43d 06ee b63d ca5d bd3d
000003d0: 0c75 8c3d 25a0 723d 5e98 90bd 6776 64bc
000003e0: f102 403c e11b 243c 4bb3 26bd 63be 0abc
000003f0: 658b 503d f811 95bb 3603 04bd 7dbd 8b3d
0.05168021 -0.07158288 -0.0398746 -0.069826946 0.048948407 0.07001045 0.040451787 0.0008909867
0.004145919 -0.01916376 -0.07020271 -0.058417037 0.023236865 0.05635563 -0.055055525 0.02795195
0.10727687 0.046480894 0.010058961 -0.018976787 -0.04465302 -0.031453755 0.03874311 0.056847215
0.001225287 0.08536346 -0.039398205 -0.01879897 -0.06914807 -0.0033143943 -0.073051006 -0.024388382
0.019760536 -0.037674848 0.099167205 0.039362546 0.0840805 -0.07899033 -0.03228358 -0.024266096
0.04197791 -0.06337488 0.018675528 -0.044143252 0.079771385 0.013760339 -0.0074639665 0.09467079
-0.038489386 -0.071007445 0.031138211 -0.04852149 0.054343313 -0.08713245 0.08586206 -0.048873354
0.046090964 -0.051635526 -0.021572577 0.03855249 0.07673858 0.04072321 -0.022044633 -0.074761055
0.058782674 0.06559435 -0.056683663 -0.0101685375 -0.082331866 0.025272869 0.036401786 0.067545265
-0.019796789 0.023208769 -0.069435365 -0.053360082 -0.08220015 0.05446018 0.0644776 0.051626608
-0.058539 0.0071572056 -0.036652002 0.07787997 0.09077852 -0.011805473 -0.061502352 0.019225435
-0.010465963 -0.06954573 -0.039354425 -0.07014121 -0.07183677 0.07366896 0.07760793 -0.053226195
0.00803322 0.019768985 0.00076682406 -0.04251769 0.11392121 -0.05862108 0.08745169 0.03304897
-0.026776962 -0.0033157442 0.027956612 -0.018945836 -0.054449495 0.023717992 0.09393487 -0.028814737
-0.031514745 -0.06640062 0.041888583 -0.02374948 -0.0024741061 -0.030277189 0.06831447 -0.07184414
-0.056134276 -0.06767046 -0.006940392 -0.016636206 0.0037689225 -0.059917986 -0.011666741 0.09184943
-0.015108099 0.046895325 -0.048126817 0.056295943 0.035065223 -0.027727723 0.06866706 -0.0717464
-0.019384343 0.08414255 0.085187726 -0.031593267 -0.06399015 -0.038952436 -0.019152474 -0.044679508
0.09853012 0.07613079 -0.052312322 -0.06324747 -0.06982791 0.0650863 -0.032237463 0.060099337
-0.03728114 -0.0771978 0.0958291 -0.028729621 0.10264897 -0.095337264 -0.025787782 -0.015461595
0.052261334 0.09607401 0.116792135 0.03149455 -0.09498003 -0.015317759 0.07751062 0.016405435
0.059117857 0.04096582 0.09636583 0.05000425 0.03305189 0.082372926 0.044272926 0.030649418
0.077550516 -0.014653763 -0.05109668 0.014733808 0.03739923 -0.068156704 -0.0526672 -0.020087333
-0.022347622 0.122777075 0.030430986 0.036901865 0.055076778 0.050051507 0.01544796 -0.07082075
0.031959854 0.12642448 0.10495531 0.1011535 0.033187672 -0.029604893 0.0032612884 0.11884748
-0.059218302 -0.059003416 0.037750263 0.008966966 0.07235905 -0.062960334 0.11085674 0.036348324
0.040034596 0.020319944 0.024173148 0.033926133 -0.048014954 0.006420034 -0.08063044 -0.043598834
0.05910342 0.008868706 -0.06816367 -0.053329118 -0.054375317 0.066458374 -0.0026246093 0.061074648
0.09060785 0.036317088 0.08799292 0.0637525 0.11201686 0.057615984 0.07385801 -0.075818874
-0.0012891445 0.08367594 -0.045441546 0.037080206 0.037199944 -0.021014456 -0.022086604 0.08191921
0.046465486 0.1195328 0.08932118 0.092464045 0.068582624 0.059234757 -0.07060312 -0.013944245
0.011719451 0.0100164125 -0.04069833 -0.008468243 0.050914187 -0.004549261 -0.032229625 0.068232514

linear3.bias f4 [64]
00000000: 6a3b efbc b66c 0b3d 37ae 20bd adf3 6a3d
00000010: 1ef4 5fbd cce4 693c 6bbf 89bb e443 ceba
00000020: f5ff 333b bac1 b4bd 3c5b 22bd 9c1c 39bc
00000030: c71a f33c b8e0 833b 2cd9 9bbd bf09 c8bd
00000040: d0f4 403c 81cf d0bc feb8 b33b c596 d73c
00000050: f884 753d ebdc 0dbb cf83 80bc 65ea 2abd
00000060: 7c7b 5ebd 3149 1a3d 94eb ca3d 9da9 98bd
00000070: 7308 ef3d 1f11 1b3e a240 bb3b 2f9c 68bd
00000080: 92b3 c5bb 6851 173b 6fae 003b 0f6a 09bc
00000090: e14d 42bc 5a2e e338 6b91 f53c 95f4 a0bd
000000a0: 6ac5 87be 0d8d e83c ce35 99bd b523 fe3a
000000b0: b130 bdbd 85a9 033e ab98 65bd e60f b7bc
000000c0: f54e 1bbd e3b4 bebc 3278 03bc 8b75 64bd
000000d0: 916c ea3c 4f38 db3c 49f0 27bd 4ded 743d
000000e0: 4715 3abd 15bb 513b 05a7 d23b db2b dbbd
000000f0: 59c3 643d f4ff 933a 31ad 6d3c 5065 99bc
-0.029203136 0.03403922 -0.039228644 0.057361294 -0.054676168 0.014275741 -0.004203727 -0.0015736786
0.0027465795 -0.08826013 -0.03963779 -0.011298325 0.029675854 0.0040245913 -0.076097816 -0.09767484
0.011777118 -0.02548957 0.0054846993 0.02631701 0.059941262 -0.002164657 -0.015687851 -0.041727442
-0.054316983 0.037667457 0.09908214 -0.07454226 0.116715334 0.1514325 0.005714492 -0.056789573
-0.0060333693 0.0023089293 0.001963522 -0.008387103 -0.011859388 0.00010832837 0.029976567 -0.0785915
-0.26517802 0.02838757 -0.074809656 0.0019389304 -0.09237803 0.12857635 -0.0560538 -0.022346448
-0.037917096 -0.023279613 -0.008024262 -0.05577616 0.028616222 0.026760248 -0.04100064 0.05979662
-0.045430448 0.0032002379 0.0064286017 -0.10701724 0.05585036 0.001129149 0.014506624 -0.018725067

linear5.weight f4 [1, 64]
00000000: c1c1 2a3e e553 a93e 63b0 86bd cdf2 c1bc
00000010: ee9a a33d de22 603e a43a b33e e85e aa3e
00000020: 5ef2 903e 7da6 fbbb 8a08 1c3e 1ac9 333d
00000030: c624 ba3d 03ee 9a3e 2ef3 6dbd 3a94 abbd
00000040: be62 633e 1af8 693c 9de5 743d c007 143e
00000050: 0386 e2bd 7397 d1bd eb37 293e d181 b23e
00000060: ac36 b73b 23c8 583e 528b 9abd 31ce cabd
00000070: 81db 3bbe a51b 40be 872b 86bd 1a5b 6fbd
00000080: 580c 973e 122b 3e3e 5438 c03e 6352 8abd
00000090: 23b4 053e c1b2 da3d 5cc7 60bd 6f19 d2bd
000000a0: a9f4 ee3e c4e3 52bd 187b b8bd 14c7 803e
000000b0: 504d 18bd f010 2cbe 1a00 72bd c70c e53d
000000c0: c688 edbd 92b3 da3d 0967 883e d47b b13d
000000d0: bf3e 82bb 9d57 0d3e 992e 8a3e 4eb6 353d
000000e0: 07fc ddbd dbef 8d3e 9753 bcbd d2ec aebd
000000f0: c5fa d03d 3d70 983e 059e 7a3e c378 9dbd
0.16675474 0.3307182 -0.06576612 -0.023675347 0.07988535 0.21888301 0.35005677 0.33275533
0.2830991 -0.007679759 0.15237632 0.043892957 0.09089045 0.30259714 -0.058093242 -0.08377881
0.22205636 0.014280343 0.05978929 0.14456081 -0.11060717 -0.10233965 0.16525237 0.34864667
0.005591234 0.21170096 -0.075461045 -0.09902609 -0.18345453 -0.18760546 -0.06551271 -0.05843649
0.29501605 0.18571118 0.37542975 -0.06753995 0.13056998 0.10678626 -0.054877624 -0.10258757
0.46671036 -0.051486745 -0.09007853 0.25151885 -0.037183106 -0.16803336 -0.059082128 0.11184078
-0.11598353 0.106787816 0.2664111 0.086661965 -0.003974765 0.13802953 0.26988676 0.044363312
-0.10839086 0.27722058 -0.09195631 -0.08541264 0.102040805 0.2977313 0.24474342 -0.07689049

momentum_buffer f4 [1, 1, 4]
00000000: 0e2f fab2 6b39 59b3 54a5 e7b3 4e2a 3f33
-2.9125228e-08 -5.057647e-08 -1.0786849e-07 4.450913e-08

momentum_buffer f4 [1, 1, 4]
00000000: 9102 c831 f731 9332 2430 e632 99bb 6cb2
5.821058e-09 1.7135774e-08 2.6797416e-08 -1.3779663e-08

momentum_buffer f4 [1, 1, 4]
00000000: 0b56 1c34 70c4 a1b3 9a76 5833 c47b 4cb4
1.4559934e-07 -7.5328785e-08 5.0399287e-08 -1.9044006e-07

momentum_buffer f4 [4]
00000000: 2d46 9eb8 4738 8eb8 e8e8 b434 a1d7 6fb7
-7.547098e-05 -6.78157e-05 3.3697074e-07 -1.4295715e-05

momentum_buffer f4 [4, 4]
00000000: badc 5ab3 bc18 f1b6 c3cb e934 0930 0432
00000010: 2545 0cb3 fabd fcb6 962e b534 4c2a 4db2
00000020: 6542 b132 f075 0eb3 e605 09b2 425d 05b1
00000030: 8667 58b2 242c 31b6 2c76 e332 2db4 b1b2
-5.095783e-08 -7.185239e-06 4.3547888e-07 7.694333e-09 -3.2659177e-08 -7.5323014e-06 3.3747773e-07 -1.1942188e-08
2.0635705e-08 -3.3169215e-08 -7.975791e-09 -1.9407058e-09 -1.2596393e-08 -2.6400749e-06 2.6480016e-08 -2.0687446e-08

momentum_buffer f4 [4, 12]
00000000: fe30 8534 cec5 4e33 f8a3 34b2 72cb 02b4
00000010: e06d d8b2 ea88 c6b3 0000 0000 0000 0000
00000020: 0000 0000 0000 0000 0000 0000 0000 0000
00000030: 455e 8bb4 aa5c 58b3 9404 3d32 3edc 0834
00000040: 5777 e232 f6bd cf33 0000 0000 0000 0000
00000050: 0000 0000 0000 0000 0000 0000 0000 0000
00000060: acd3 14b4 c40b e7b2 9ad8 c931 1726 9233
00000070: 02d6 7132 48d7 5d33 0000 0000 0000 0000
00000080: 0000 0000 0000 0000 0000 0000 0000 0000
00000090: 3643 a533 dc47 8032 0e23 60b1 e349 22b3
000000a0: 8345 06b2 0c57 f6b2 0000 0000 0000 0000
000000b0: 0000 0000 0000 0000 0000 0000 0000 0000
2.4808827e-07 4.8143015e-08 -1.0514661e-08 -1.2181206e-07 -2.5195675e-08 -9.244998e-08 0.0 0.0
0.0 0.0 0.0 0.0 -2.5959358e-07 -5.0375697e-08 1.1002289e-08 1.274611e-07
2.6364132e-08 9.673742e-08 0.0 0.0 0.0 0.0 0.0 0.0
-1.386058e-07 -2.689729e-08 5.8744947e-09 6.805583e-08 1.4076706e-08 5.165137e-08 0.0 0.0
0.0 0.0 0.0 0.0 7.695637e-08 1.4933839e-08 -3.2616216e-09 -3.7785764e-08
-7.815632e-09 -2.8677754e-08 0.0 0.0 0.0 0.0 0.0 0.0

momentum_buffer f4 [1, 1, 4]
00000000: 8c15 1833 27d6 36b2 f819 18b4 74ca a033
3.5409855e-08 -1.0642487e-08 -1.416555e-07 7.4874066e-08

momentum_buffer f4 [1, 1, 4]
00000000: aca4 1733 cdc5 3733 6857 d8b3 5090 f733
3.5307195e-08 4.2787907e-08 -1.0074183e-07 1.1528084e-07

momentum_buffer f4 [1, 1, 4]
00000000: 56c6 e0b5 b905 01b6 90d2 3db5 41c7 f435
-1.6747024e-06 -1.922583e-06 -7.0714395e-07 1.8237407e-06

momentum_buffer f4 [4]
00000000: 4389 5238 742e 4cb8 5693 c4b8 5b3c f5b7
5.0195737e-05 -4.8680653e-05 -9.373452e-05 -2.9234381e-05

momentum_buffer f4 [4, 4]
00000000: a016 7e37 46d5 d637 ac3e 89b4 2234 d437
00000010: 5245 69b7 ea8b ccb7 6038 8134 2375 c9b7
00000020: 3155 b2b7 38e5 1fb8 b268 c834 b1f3 1cb8
00000030: 5850 44b7 66ac a5b7 2e19 5434 aa08 a4b7
1.5144848e-05 2.5610101e-05 -2.5563838e-07 2.5296646e-05 -1.3904022e-05 -2.4383848e-05 2.406914e-07 -2.4015613e-05
-2.1258924e-05 -3.812203e-05 3.732908e-07 -3.7420254e-05 -1.1701217e-05 -1.9749812e-05 1.9753199e-07 -1.9554358e-05

momentum_buffer f4 [4, 12]
00000000: fbbe 29b6 5bc7 3935 90ad e9b3 8048 6e32
00000010: 4392 7833 e088 abb4 0000 0000 0000 0000
00000020: 0000 0000 0000 0000 0000 0000 0000 0000
00000030: 9330 01b5 3061 0d34 c0cd b1b2 80e8 3531
00000040: 382c 3d32 a882 82b3 0000 0000 0000 0000
00000050: 0000 0000 0000 0000 0000 0000 0000 0000
00000060: 7d52 6136 c39b 76b5 7019 1b34 8014 9eb2
00000070: d4fa a4b3 a0b5 e334 0000 0000 0000 0000
00000080: 0000 0000 0000 0000 0000 0000 0000 0000
00000090: a835 4cb6 d980 5f35 3092 0cb4 0038 8f32
000000a0: 9685 9533 8061 ceb4 0000 0000 0000 0000
000000b0: 0000 0000 0000 0000 0000 0000 0000 0000
-2.5294128e-06 6.920797e-07 -1.0881479e-07 1.3869908e-08 5.7875024e-08 -3.1950822e-07 0.0 0.0
0.0 0.0 0.0 0.0 -4.812693e-07 1.3167005e-07 -2.0699076e-08 2.6471128e-09
1.1011302e-08 -6.077363e-08 0.0 0.0 0.0 0.0 0.0 0.0
3.3575627e-06 -9.1868804e-07 1.4444754e-07 -1.8402943e-08 -7.6824705e-08 4.2414194e-07 0.0 0.0
0.0 0.0 0.0 0.0 -3.04296e-06 8.326147e-07 -1.3091699e-07 1.6672857e-08
6.962652e-08 -3.844143e-07 0.0 0.0 0.0 0.0 0.0 0.0

momentum_buffer f4 [4, 4]
00000000: c515 bf35 7e26 8834 51ee ceb6 9c75 ba36
00000010: cd63 f034 98c3 ecb3 3e34 57b6 0301 2f36
00000020: 8896 30b2 4444 03b2 aac0 3632 a265 93b2
00000030: 2cad 9ab3 b612 2735 2486 7436 b263 2ab6
1.4236945e-06 2.535998e-07 -6.167022e-06 5.5569235e-06 4.4776098e-07 -1.1025185e-07 -3.2067906e-06 2.607762e-06
-1.0278775e-08 -7.640725e-09 1.0637601e-08 -1.715927e-08 -7.2026836e-08 6.2239576e-07 3.6436913e-06 -2.5390004e-06

momentum_buffer f4 [4]
00000000: 9a90 0739 c45f 6d38 fcff 0db5 853c 3bb8
0.00012928472 5.6594392e-05 -5.28991e-07 -4.4640637e-05

momentum_buffer f4 [4, 4]
00000000: 2c80 feb4 e8a8 0db4 88a3 c435 0ef7 8db5
00000010: 3e65 a737 b5f3 8336 c8cd 89b8 c887 3d38
00000020: 5c48 3538 5451 5c37 46a9 ffb8 b26a bc38
00000030: d9bc 18b8 4070 34b7 ec4e d538 6090 9cb8
-4.7404444e-07 -1.3193096e-07 1.4650732e-06 -1.0577221e-06 1.9955096e-05 3.9324755e-06 -6.570999e-05 4.5187568e-05
4.3221153e-05 1.31319575e-05 -0.00012190877 8.984412e-05 -3.6415502e-05 -1.0754971e-05 0.00010171332 -7.4655516e-05

momentum_buffer f4 [4]
00000000: 3ad3 19b6 602b 9738 7aa9 a739 6e1a 91b9
-2.2921727e-06 7.20832e-05 0.00031978992 -0.00027676247

momentum_buffer f4 [1, 1, 4]
00000000: 2857 7134 24bb 1fb3 f0f8 a3b1 58c1 1735
2.2476581e-07 -3.7190276e-08 -4.7722253e-09 5.6533236e-07

momentum_buffer f4 [1, 1, 4]
00000000: 0540 bda7 c5d2 61a7 65fc 5f27 1236 b526
-5.252745e-15 -3.133928e-15 3.108429e-15 1.2574054e-15

momentum_buffer f4 [1, 1, 4]
00000000: 0505 0b34 7cb6 2332 cab3 6ab3 bbed 80b3
1.294721e-07 9.529341e-09 -5.4645888e-08 -6.0037074e-08

momentum_buffer f4 [4]
00000000: 3e66 6936 8b80 c236 ee8a e0b6 04e8 0437
3.4779218e-06 5.796615e-06 -6.6918938e-06 7.9218335e-06

momentum_buffer f4 [4, 3]
00000000: 3cdb c535 9654 42b4 161e 1fb4 9812 8236
00000010: 7c2e a135 b4e3 6b35 c85d 74b6 5067 04b6
00000020: 7284 f2b5 310a 8336 b9ad 0f36 a652 fa35
1.4741449e-06 -1.809843e-07 -1.4818974e-07 3.8764665e-06 1.2008963e-06 8.7875674e-07 -3.6413421e-06 -1.9729669e-06
-1.8068952e-06 3.9052907e-06 2.140978e-06 1.8650505e-06
