saved_models/tb_logs/version_8/checkpoints/epoch=49-step=950.ckpt (torch, 249634 bytes, 100 tensors)

conv_layers.0.att_src f4 [1, 1, 4]
000000 ee 63 2f bf 74 d4 59 bf 39 13 d1 3e 68 92 90 3e
       -0.68511856 -0.850898 0.40834978 0.282367

conv_layers.0.att_dst f4 [1, 1, 4]
000000 92 7b 7f bf 95 f8 93 be cb c7 2d 3f a3 c1 db be
       -0.9979793 -0.2890059 0.67882985 -0.4292117

conv_layers.0.att_edge f4 [1, 1, 4]
000000 47 ee 19 be af 54 03 3e dc 66 c3 3e 5f a7 76 3e
       -0.15032302 0.12825273 0.38164413 0.24087285

conv_layers.0.bias f4 [4]
000000 60 06 d8 3a 63 21 52 3d 25 8e 96 bc 69 5d 49 bb
       0.0016481392 0.05130137 -0.018378327 -0.0030725843

conv_layers.0.lin_src.weight f4 [4, 4]
000000 23 25 f9 be 73 50 59 3f 4e 27 a5 be 19 8e 33 3f
       -0.48661146 0.8488838 -0.3225655 0.701387
000010 2e 4a f5 3d 10 d1 29 be a7 85 3b 3f 9b 0b c7 3e
       0.11977039 -0.16583657 0.7325081 0.38876042
000020 3d fb 83 be af c3 0f 3f 18 66 39 3c 61 c9 1b 3e
       -0.25777617 0.56157964 0.011315845 0.15213539
000030 c4 dc 73 3e b5 f2 e8 bd fc ff 3b bf 7b a9 1c bf
       0.23814684 -0.11374418 -0.73437476 -0.61196107

conv_layers.0.lin_dst.weight f4 [4, 4]
000000 23 25 f9 be 73 50 59 3f 4e 27 a5 be 19 8e 33 3f
       -0.48661146 0.8488838 -0.3225655 0.701387
000010 2e 4a f5 3d 10 d1 29 be a7 85 3b 3f 9b 0b c7 3e
       0.11977039 -0.16583657 0.7325081 0.38876042
000020 3d fb 83 be af c3 0f 3f 18 66 39 3c 61 c9 1b 3e
       -0.25777617 0.56157964 0.011315845 0.15213539
000030 c4 dc 73 3e b5 f2 e8 bd fc ff 3b bf 7b a9 1c bf
       0.23814684 -0.11374418 -0.73437476 -0.61196107

conv_layers.0.lin_edge.weight f4 [4, 12]
000000 a1 f3 b3 3e b2 3c 08 3f 7d af de bd 24 28 74 3c
       0.35146812 0.53217614 -0.108733155 0.014902148
000010 26 b8 5c be b5 85 01 bf 32 b7 d9 be a9 21 01 bf
       -0.21554622 -0.50594646 -0.4252258 -0.50441986
000020 58 87 45 be 6a 1f 94 be f0 ed 98 be 58 5c c4 3e
       -0.19289911 -0.28930217 -0.29869032 0.38351703
000030 d0 ba c8 3e 7a 8b 07 3f ce 92 cf 3e d5 54 43 be
       0.39205027 0.529472 0.4054169 -0.1907533
000040 57 f9 8f 3e 41 fa 0e 3f 4b 90 16 3f 00 6a 2d 3e
       0.2811992 0.5585061 0.58813924 0.16934967
000050 f3 c1 c4 be 6d 99 01 bf 76 c3 c1 3e d4 27 85 be
       -0.38429222 -0.50624734 0.37844437 -0.2600695
000060 54 d4 a2 be 35 2d d3 bd d6 ab d5 be 3e 33 90 be
       -0.31802619 -0.10311357 -0.41732663 -0.28164095
000070 9a 0c 4d 3e 10 ef 1f be a2 c2 4f 3e a4 d6 98 be
       0.20024338 -0.15618539 0.2028909 -0.29851258
000080 57 c6 03 3f eb 47 82 be e9 17 07 bf 37 97 53 3e
       0.5147452 -0.25445494 -0.5277086 0.20663153
000090 66 d7 ae 3e 48 82 e9 3e 25 1f 21 3e 83 dc 14 bf
       0.3414871 0.4560721 0.15734537 -0.58148974
0000a0 e0 17 16 bf d7 85 53 bd da 97 1c be 06 28 f4 be
       -0.5863018 -0.05164131 -0.15292302 -0.47686785
0000b0 b5 6d d6 be 2b 0a ed be d7 e5 0d be 0e a9 b1 bd
       -0.41880575 -0.4629682 -0.13857208 -0.08674823

conv_layers.1.att_src f4 [1, 1, 4]
000000 67 cc 80 3f 20 1e 08 be 3d ef 64 3f 29 9b bf 3e
       1.0062379 -0.13292742 0.8942755 0.37423065

conv_layers.1.att_dst f4 [1, 1, 4]
000000 39 d2 a1 bd 44 75 2a 3f b6 20 29 3f 89 b0 05 3f
       -0.07901425 0.66585183 0.6606554 0.52222496

conv_layers.1.att_edge f4 [1, 1, 4]
000000 1f 72 47 bf 50 af 52 3e 96 da 87 bf 79 7b b1 3e
       -0.7790851 0.20574689 -1.0613582 0.34664515

conv_layers.1.bias f4 [4]
000000 6c 20 ec 3c 08 b4 52 3a a5 a7 5f 3d ba f7 b6 3c
       0.028824054 0.0008037691 0.054603238 0.022334922

conv_layers.1.lin_src.weight f4 [4, 4]
000000 bc 0b 32 3f fa 82 57 bf c0 8e a2 3e 35 99 ee bd
       0.69549155 -0.8418423 0.31749535 -0.11650316
000010 eb 62 7c be 3b dc 1f 3e 4d b6 80 be 33 4d ee be
       -0.24647109 0.15611355 -0.25139084 -0.46543273
000020 5d 07 2e bf 02 a1 f5 be ad f7 40 bf ed c7 3a 3f
       -0.67979985 -0.47974402 -0.75377923 0.7296131
000030 0d 59 b2 be ee 95 43 bf 4d d5 09 3f 6f 49 65 3e
       -0.34833565 -0.7640065 0.53841096 0.22391294

conv_layers.1.lin_dst.weight f4 [4, 4]
000000 bc 0b 32 3f fa 82 57 bf c0 8e a2 3e 35 99 ee bd
       0.69549155 -0.8418423 0.31749535 -0.11650316
000010 eb 62 7c be 3b dc 1f 3e 4d b6 80 be 33 4d ee be
       -0.24647109 0.15611355 -0.25139084 -0.46543273
000020 5d 07 2e bf 02 a1 f5 be ad f7 40 bf ed c7 3a 3f
       -0.67979985 -0.47974402 -0.75377923 0.7296131
000030 0d 59 b2 be ee 95 43 bf 4d d5 09 3f 6f 49 65 3e
       -0.34833565 -0.7640065 0.53841096 0.22391294

conv_layers.1.lin_edge.weight f4 [4, 12]
000000 dc df d2 bd a2 42 a1 bd 6a 6c 83 be 53 61 f7 3c
       -0.10296604 -0.07874037 -0.2566865 0.030197775
000010 9c 4f bc bd cf 19 bc 3e 35 85 0d 3f 0d 2f 4b be
       -0.09194872 0.3673844 0.5528138 -0.19842167
000020 ff f8 bf be 57 25 10 3f 7d 3d 5f be 09 e3 a9 bd
       -0.37494656 0.56306976 -0.218008 -0.08295257
000030 1a 8a b8 bd 7f 28 9f bd 4c 67 86 3d e7 f7 9e 3e
       -0.09010716 -0.07771396 0.06562671 0.3104851
000040 7e 27 ed be b0 09 13 3f 27 5b 37 be 87 8e 19 bf
       -0.46319193 0.57436657 -0.17905866 -0.59983104
000050 9d 48 41 bc 70 c4 c2 bc 89 da eb be fd 7a 0c 3e
       -0.0117970975 -0.02377531 -0.46065167 0.13718791
000060 a1 2e 69 be 1d 34 27 be 93 1e 06 be b6 6e 01 3e
       -0.22771694 -0.16328473 -0.130976 0.12639889
000070 49 13 11 be 87 64 48 3d 80 32 f1 3e 9c bd 81 3e
       -0.14167513 0.048923995 0.4710884 0.25339973
000080 86 98 0f bf 64 15 d0 3e 9e 5e be 3e 2f ae ad 3e
       -0.5609211 0.4064132 0.37181562 0.33921954
000090 76 d4 ae 3e 9e 34 0c bd ad 1c 81 bd 10 fe e6 3e
       0.3414647 -0.034229867 -0.063042976 0.4511571
0000a0 77 a1 fa 3e 41 0c 23 3e 3d f5 af 3d 07 4e da bc
       0.48951313 0.15922643 0.08591697 -0.026648534
0000b0 98 28 fd be 3d 35 c8 be 8a b2 06 3e ff af 0e 3f
       -0.49445033 -0.39103118 0.13154045 0.557373

transf_layers.0.weight f4 [4, 4]
000000 04 6d 3e be 2c 83 22 ba b7 86 d1 3e 50 89 bc 3e
       -0.18596274 -0.00061993557 0.40923092 0.3682351
000010 a5 30 4d 3e aa 92 a1 be 07 e2 c3 3d 55 83 55 be
       0.20038088 -0.31557208 0.09564596 -0.2085088
000020 24 35 1d be 03 35 f2 be 3a fe 3f be a1 8e 9a bd
       -0.15352303 -0.4730607 -0.18749323 -0.075467356
000030 78 35 df 3d 70 77 a8 3e ad 9e 50 bd da fb 1c be
       0.1089887 0.32903624 -0.050932575 -0.15330449

transf_layers.0.bias f4 [4]
000000 f7 9f b9 3e 2d 5e e3 3d bf 39 fb 3d a1 8e 96 3e
       0.36254856 0.11101947 0.122668736 0.29405692

transf_layers.1.weight f4 [4, 4]
000000 2f 6d 97 be 9a 7f 4e 3e cf 1c e3 be f4 a4 69 be
       -0.29575488 0.20165864 -0.44357917 -0.22816831
000010 12 70 e9 3e 29 5a 90 be 5e ab 6b be a2 2a 1d 3e
       0.45593315 -0.28193787 -0.2301459 0.15348294
000020 24 d1 78 3d bc bb ca 3e d3 64 17 be 65 85 28 3e
       0.060746327 0.39596355 -0.14784555 0.16457136
000030 6e d4 bd be ea 4f ac 3d 7f e4 b9 3e e3 c9 11 bd
       -0.37076133 0.0841368 0.3630714 -0.035592925

transf_layers.1.bias f4 [4]
000000 fa b6 93 3e 09 76 17 3e c0 e7 b1 be 1b dd 03 3e
       0.28850538 0.1479112 -0.34747124 0.12877314

bn_layers.0.weight f4 [4]
000000 00 00 80 3f 00 00 80 3f 00 00 80 3f 00 00 80 3f
       1.0 1.0 1.0 1.0

bn_layers.0.bias f4 [4]
000000 00 00 00 00 00 00 00 00 00 00 00 00 00 00 00 00
       0.0 0.0 0.0 0.0

bn_layers.0.running_mean f4 [4]
000000 00 00 00 00 00 00 00 00 00 00 00 00 00 00 00 00
       0.0 0.0 0.0 0.0

bn_layers.0.running_var f4 [4]
000000 00 00 80 3f 00 00 80 3f 00 00 80 3f 00 00 80 3f
       1.0 1.0 1.0 1.0

bn_layers.1.weight f4 [4]
000000 00 00 80 3f 00 00 80 3f 00 00 80 3f 00 00 80 3f
       1.0 1.0 1.0 1.0

bn_layers.1.bias f4 [4]
000000 00 00 00 00 00 00 00 00 00 00 00 00 00 00 00 00
       0.0 0.0 0.0 0.0

bn_layers.1.running_mean f4 [4]
000000 00 00 00 00 00 00 00 00 00 00 00 00 00 00 00 00
       0.0 0.0 0.0 0.0

bn_layers.1.running_var f4 [4]
000000 00 00 80 3f 00 00 80 3f 00 00 80 3f 00 00 80 3f
       1.0 1.0 1.0 1.0

conv1.att_src f4 [1, 1, 4]
000000 dd 12 65 be 70 85 e7 bb b3 20 39 be aa 84 85 bc
       -0.22370477 -0.0070654675 -0.1807888 -0.01629861

conv1.att_dst f4 [1, 1, 4]
000000 83 2a 0d 3f 19 45 8a 3e 56 41 fe be 7f 01 ba 3e
       0.5514299 0.27005842 -0.49659222 0.36329266

conv1.att_edge f4 [1, 1, 4]
000000 b1 ca 7a bf 4b 44 fe 3e 29 a8 22 bf 5f 6d 37 bf
       -0.9796553 0.49661478 -0.6353784 -0.7165126

conv1.bias f4 [4]
000000 04 30 9f 38 99 fe 28 b9 87 76 4b b9 c1 b6 50 b8
       7.5906544e-05 -0.00016116574 -0.00019403743 -4.9761267e-05

conv1.lin_src.weight f4 [4, 3]
000000 79 e5 58 3f 65 83 32 bf 30 bf 5c bf 62 76 68 3d
       0.8472515 -0.6973174 -0.8622923 0.056753524
000010 b9 2a b6 bd a8 51 ea 3e 37 8a 03 3f 34 0a f3 3e
       -0.088948674 0.45765424 0.51382774 0.47468722
000020 29 e7 ba 3e 7a 70 4b 3f a0 dd 0b 3f bc bc 82 3d
       0.36504486 0.794685 0.5463505 0.063836545

conv1.lin_dst.weight f4 [4, 3]
000000 79 e5 58 3f 65 83 32 bf 30 bf 5c bf 62 76 68 3d
       0.8472515 -0.6973174 -0.8622923 0.056753524
000010 b9 2a b6 bd a8 51 ea 3e 37 8a 03 3f 34 0a f3 3e
       -0.088948674 0.45765424 0.51382774 0.47468722
000020 29 e7 ba 3e 7a 70 4b 3f a0 dd 0b 3f bc bc 82 3d
       0.36504486 0.794685 0.5463505 0.063836545

conv1.lin_edge.weight f4 [4, 12]
000000 30 da 05 3f 2d 6b a8 3e 34 19 ef be 53 e5 f3 3e
       0.5228605 0.3289427 -0.46698916 0.47635898
000010 78 56 9c bd ba cc fa be f6 89 e7 be 6f b2 fe be
       -0.0763368 -0.4898432 -0.45222443 -0.4974551
000020 73 4a 03 3f 74 15 f8 bc c0 65 de 3e c6 0c 15 3f
       0.51285475 -0.030283667 0.43437004 0.58222616
000030 cf cc 22 be 14 4e 38 bd 85 61 c5 3d 2e 22 9f bc
       -0.15898441 -0.044996336 0.09637741 -0.019425478
000040 47 1d 17 3e 44 ea 88 3e 6a 7a 40 3e f4 52 23 bc
       0.14757262 0.2674123 0.18796697 -0.009968508
000050 05 d4 9d be 84 d2 9b bd 40 1a e7 be 77 44 17 be
       -0.3082582 -0.07608512 -0.45137215 -0.14772211
000060 0e ac 0d bf e4 59 6a 3e f6 e4 f6 be 2b 8c 80 3d
       -0.5534066 0.22885853 -0.48221558 0.06276735
000070 e4 cf b1 be 4f e3 0b 3d 67 69 bc be 99 91 bd 3c
       -0.3472892 0.034152325 -0.36799166 0.023140715
000080 ea ed bd be ed a8 ef be e3 87 d2 3e 25 83 9a be
       -0.37095577 -0.46808568 0.41119298 -0.3017818
000090 46 67 a3 be e7 70 9f 3e db fa a2 3d 2a 1f 10 3e
       -0.3191473 0.31140825 0.07958003 0.14074388
0000a0 92 fe 01 3e b4 c6 cc be 4f bc 7e 3d 60 06 e0 3e
       0.12694767 -0.39995348 0.062191304 0.43754864
0000b0 83 d1 35 bc df a4 bd 3e 6b 41 dc 3e d2 a1 14 3f
       -0.011097315 0.3703985 0.4301866 0.5805942

transf1.weight f4 [4, 4]
000000 19 f4 76 be c6 be 06 be 9a 3c 49 be f3 06 17 bb
       -0.24116553 -0.13158712 -0.19652024 -0.0023044914
000010 a9 ca 94 3e 7d 9d a8 3c c3 b8 ce 3e 1b da 9b be
       0.29060867 0.020582909 0.40375337 -0.3043984
000020 03 d8 3d be fe 4b 60 be d2 68 3f 3c 26 ab 97 be
       -0.18539433 -0.21903989 0.011682706 -0.29622763
000030 6a 90 cc be 9a a0 09 3e b8 25 3e 3e 32 0d fc bd
       -0.3995393 0.13440171 0.18569076 -0.12307204

transf1.bias f4 [4]
000000 b2 31 c2 be 07 97 f1 be 25 29 89 be 6b 80 4c be
       -0.3792854 -0.47185537 -0.26789203 -0.19970863

bn1.weight f4 [4]
000000 00 00 80 3f 00 00 80 3f 00 00 80 3f 00 00 80 3f
       1.0 1.0 1.0 1.0

bn1.bias f4 [4]
000000 00 00 00 00 00 00 00 00 00 00 00 00 00 00 00 00
       0.0 0.0 0.0 0.0

bn1.running_mean f4 [4]
000000 00 00 00 00 00 00 00 00 00 00 00 00 00 00 00 00
       0.0 0.0 0.0 0.0

bn1.running_var f4 [4]
000000 00 00 80 3f 00 00 80 3f 00 00 80 3f 00 00 80 3f
       1.0 1.0 1.0 1.0

pool1.select.weight f4 [1, 4]
000000 5e a7 f7 be 62 42 8c be 2c 69 76 be 40 f7 ba be
       -0.4836988 -0.27394396 -0.24063557 -0.36516762

conv_fin.att_src f4 [1, 1, 8]
000000 0c bf da 3e e4 44 ae 3e 37 d8 94 be 7b 64 ad bd
       0.42723882 0.34036934 -0.2907121 -0.08466431
000010 a2 22 03 bd 15 66 45 3e cb 1a 32 3f fa 50 fc be
       -0.03201545 0.19277222 0.6957213 -0.4928053

conv_fin.att_dst f4 [1, 1, 8]
000000 64 1a 2f 3e 8c a4 1b bf 90 89 90 3d 84 5a 28 3e
       0.17099911 -0.60797954 0.07057488 0.16440779
000010 15 21 ea 3e 95 9d 0f 3e b3 e2 4e bf ff 13 91 be
       0.45728365 0.14024957 -0.80814666 -0.28335568

conv_fin.att_edge f4 [1, 1, 8]
000000 8e a4 0b 3f 9d 68 bf 3e c6 92 08 3f 25 5c a6 be
       0.54547966 0.373845 0.5334896 -0.32492176
000010 74 6a ec 3c 67 d5 f1 be e2 a3 d5 be e7 29 e6 be
       0.028859355 -0.47233126 -0.41726595 -0.44953844

conv_fin.bias f4 [8]
000000 e1 77 64 3d 81 88 d1 bb fa 76 27 3c 1e fc c0 3c
       0.055778388 -0.0063944464 0.010221237 0.023557719
000010 79 be 35 bd cf b0 ff 3c 28 bb d9 3d ff e3 fb bd
       -0.044371102 0.031212239 0.106314 -0.12299346

conv_fin.lin_src.weight f4 [8, 4]
000000 04 ea 79 be 58 39 2e 3d 68 13 b4 be 2e 21 a7 be
       -0.24405676 0.042535156 -0.35171056 -0.32642502
000010 b9 2b 8a be 03 d6 e4 3e 6b cf 3b be ba 82 fc be
       -0.26986483 0.44694528 -0.18340842 -0.49318486
000020 00 2c 5f be 48 86 44 3e 69 6e 84 3e 7e 82 b2 be
       -0.21794128 0.19191849 0.25865486 -0.34865183
000030 df 5f 12 3f 8e b1 2a bf df 70 64 bd 23 69 41 bd
       0.5717754 -0.66677177 -0.055771705 -0.047219407
000040 f5 e9 07 3f ba 12 7c be b1 a6 fa 3d 2c 69 0d 3f
       0.53091365 -0.24616519 0.12238825 0.55238605
000050 63 30 27 bf f4 5d 08 3f 94 41 26 bf 37 b3 ae be
       -0.6530821 0.5326836 -0.64943814 -0.34121105
000060 73 04 20 bf 59 95 16 be a1 e8 1f bd ff f5 97 be
       -0.6250679 -0.14705409 -0.03904021 -0.29679868
000070 7f 14 0b be 10 f7 20 3f 81 82 23 3e 3d ae 4d 3e
       -0.13582037 0.6287699 0.15967752 0.20085998

conv_fin.lin_dst.weight f4 [8, 4]
000000 04 ea 79 be 58 39 2e 3d 68 13 b4 be 2e 21 a7 be
       -0.24405676 0.042535156 -0.35171056 -0.32642502
000010 b9 2b 8a be 03 d6 e4 3e 6b cf 3b be ba 82 fc be
       -0.26986483 0.44694528 -0.18340842 -0.49318486
000020 00 2c 5f be 48 86 44 3e 69 6e 84 3e 7e 82 b2 be
       -0.21794128 0.19191849 0.25865486 -0.34865183
000030 df 5f 12 3f 8e b1 2a bf df 70 64 bd 23 69 41 bd
       0.5717754 -0.66677177 -0.055771705 -0.047219407
000040 f5 e9 07 3f ba 12 7c be b1 a6 fa 3d 2c 69 0d 3f
       0.53091365 -0.24616519 0.12238825 0.55238605
000050 63 30 27 bf f4 5d 08 3f 94 41 26 bf 37 b3 ae be
       -0.6530821 0.5326836 -0.64943814 -0.34121105
000060 73 04 20 bf 59 95 16 be a1 e8 1f bd ff f5 97 be
       -0.6250679 -0.14705409 -0.03904021 -0.29679868
000070 7f 14 0b be 10 f7 20 3f 81 82 23 3e 3d ae 4d 3e
       -0.13582037 0.6287699 0.15967752 0.20085998

conv_fin.lin_edge.weight f4 [8, 12]
000000 4c dd 75 3d 05 39 04 3f 24 5e cc 3e 9c b9 93 3d
       0.0600255 0.51649505 0.39915574 0.072131366
000010 27 98 5a 3e c4 23 e5 be 1b 64 ff 3e 60 e4 ed 3e
       0.21347104 -0.4475385 0.49881062 0.464633
000020 30 52 63 3e 8c 9b 46 3e 0b 8b fd be 36 5c d2 3e
       0.22199321 0.19395274 -0.49520144 0.41085976
000030 d2 a3 fd be 43 f3 7d 3e 65 2e 0c 3f b5 63 c0 be
       -0.49539047 0.24799828 0.5475829 -0.3757607
000040 b8 81 93 3e b3 3c 95 3e 2e 5f cf be d8 82 51 bd
       0.28809905 0.29147872 -0.40502304 -0.051150173
000050 b0 e1 af 3e 35 71 0b 3f c1 0f 07 bf 21 84 fe be
       0.34351873 0.54469615 -0.52758414 -0.4971018
000060 1c 61 8f 3e 35 f3 9a 3e f3 7f 23 be 9a 99 d5 be
       0.28003776 0.30263677 -0.15966778 -0.4171875
000070 76 e5 02 bf 02 d4 c7 3e b5 1d 6e 3e 12 18 ba be
       -0.5113138 0.39028937 0.2325352 -0.3634649
000080 5f 70 f5 be bd f3 b4 3e 61 c1 d1 be 12 b8 c9 be
       -0.47937295 0.35342208 -0.4096785 -0.39398247
000090 68 4b 06 bf 77 83 80 3e 89 49 f6 3e 40 96 98 3e
       -0.5245881 0.251003 0.48102978 0.29802132
0000a0 c3 48 ec be 35 8d f9 be 45 8c c2 3e eb 5d d5 3e
       -0.46149263 -0.48740545 0.37997642 0.41673216
0000b0 5d af d1 3e 02 f8 01 be a8 1d 20 3e 56 6c 8d be
       0.40954104 -0.12692264 0.15636313 -0.27621716
0000c0 03 50 71 3d af 40 ef be 47 84 09 bf be 21 77 3e
       0.058914196 -0.46729037 -0.53717464 0.24133965
0000d0 63 88 fe be 1e 59 84 3e d7 2e c4 be 83 74 88 bc
       -0.4971343 0.2584924 -0.38316986 -0.01665712
0000e0 f9 f1 d8 3d 0c 7e 9b be 52 9b d3 be 18 67 b0 be
       0.105930276 -0.30369604 -0.41329437 -0.34453654
0000f0 84 4c 01 bf a5 22 d9 3d c3 09 bf be d0 0c fa 3e
       -0.5050738 0.10602311 -0.37312135 0.488379
000100 a8 30 f5 3e e2 20 be be df 38 af 3e 52 f0 7b be
       0.47888684 -0.37134463 0.34223077 -0.24603394
000110 c3 cc 15 be 37 19 1d be 96 15 47 bd e8 23 ca be
       -0.14628892 -0.1534165 -0.04860457 -0.3948052
000120 36 a2 cc be 50 39 a1 3e 88 d5 8e be 90 2d 8e be
       -0.39967507 0.31489038 -0.27897286 -0.27769136
000130 dc 73 e0 bd 95 cb ef be 26 9d ce be 76 71 13 3e
       -0.109595984 -0.46835008 -0.4035427 0.1439875
000140 52 56 f1 bd db e9 4c be db ee 3f 3e b0 12 d2 bd
       -0.117840424 -0.20011084 0.1874346 -0.102574706
000150 50 73 e0 3e 79 ae 8e bd df e7 64 bd 84 45 d9 be
       0.43837976 -0.06966872 -0.055885192 -0.4243585
000160 db b1 b4 3c 59 93 99 bd ff 28 dc be 53 9b cb be
       0.022057464 -0.074988075 -0.43000028 -0.3976694
000170 d0 b6 89 3d 0e 6e 7a 3e d4 d6 2a bd e4 bb 88 be
       0.06724322 0.24456045 -0.041708782 -0.2670585

transf_fin.weight f4 [8, 8]
000000 64 95 ab be 76 08 8d be a0 98 1d bc 18 ab 41 be
       -0.33512414 -0.27545518 -0.009618908 -0.18912923
000010 11 c2 b6 bc 88 58 b1 3e 53 0b 6a 3b 63 17 80 be
       -0.022309335 0.34637856 0.0035712316 -0.25017843
000020 80 99 ad 3d a3 44 01 be fc c2 a1 3d 74 df 05 3e
       0.084765434 -0.12623839 0.078985184 0.13073522
000030 24 6c 10 be b2 fb 02 3d 2a 90 6b 3e 3b 4d 57 3e
       -0.14103752 0.031978317 0.23004213 0.21025555
000040 5d b1 1b be 4e ba 20 be c1 fb 74 3d 23 6a 2a be
       -0.15204377 -0.1569607 0.059810404 -0.1664205
000050 ec 8b 56 be 44 b1 9d be 32 58 48 3e 2e 60 50 3e
       -0.20951813 -0.30799305 0.19564894 0.2034919
000060 34 65 aa 3d 80 77 79 3e bb 4a a1 3d 3b b6 b8 bd
       0.08320084 0.24361992 0.07875582 -0.09019133
000070 23 91 c2 bd 35 f1 67 bd 7a 89 70 be e6 0b a0 be
       -0.09500339 -0.056626517 -0.23489943 -0.31259078
000080 68 17 d5 bd f8 6d 0f be d9 91 ab be 57 ab 63 be
       -0.10404855 -0.14006793 -0.3350971 -0.2223333
000090 c6 bd 03 3c fc 51 f9 3d 1b f6 d9 bc 3c ff 99 3e
       0.008040851 0.121738404 -0.02660661 0.3007754
0000a0 bf 99 2d 3d f4 ec 5c 3e 91 bd 02 be ee ac f9 3b
       0.04238295 0.21574765 -0.12767626 0.007619492
0000b0 9e b2 96 3e f8 f7 75 bd ed 21 67 3e 98 2d 02 bd
       0.2943315 -0.060050935 0.22571535 -0.031781763
0000c0 af 74 3f 3e 82 07 5a be 70 94 0c 3d 31 cf 48 3e
       0.18696855 -0.21291927 0.03432125 0.19610287
0000d0 36 4e c4 bb 41 98 ad 3e 88 83 7d be 28 83 c8 3d
       -0.005990769 0.33905223 -0.24757206 0.09790641
0000e0 fb 82 8f 3e 9f a2 39 be 41 fe 6b 3e e1 25 aa be
       0.28029618 -0.18128441 0.23046209 -0.33232024
0000f0 1c e4 3d be f7 73 72 be 43 3f b2 bd 11 13 91 3e
       -0.18544048 -0.2367705 -0.087034725 0.2833486

transf_fin.bias f4 [8]
000000 f8 d2 a4 be 81 34 61 bc 20 50 98 3e b0 3a 98 3d
       -0.32192206 -0.013745428 0.2974863 0.07433069
000010 6e ac 84 be a4 35 96 3e 6f 1c 49 3e 73 ca 9d be
       -0.25912803 0.293378 0.19639753 -0.3081852

bn_fin.weight f4 [8]
000000 00 00 80 3f 00 00 80 3f 00 00 80 3f 00 00 80 3f
       1.0 1.0 1.0 1.0
000010 00 00 80 3f 00 00 80 3f 00 00 80 3f 00 00 80 3f
       1.0 1.0 1.0 1.0

bn_fin.bias f4 [8]
000000 00 00 00 00 00 00 00 00 00 00 00 00 00 00 00 00
       0.0 0.0 0.0 0.0
000010 00 00 00 00 00 00 00 00 00 00 00 00 00 00 00 00
       0.0 0.0 0.0 0.0

bn_fin.running_mean f4 [8]
000000 00 00 00 00 00 00 00 00 00 00 00 00 00 00 00 00
       0.0 0.0 0.0 0.0
000010 00 00 00 00 00 00 00 00 00 00 00 00 00 00 00 00
       0.0 0.0 0.0 0.0

bn_fin.running_var f4 [8]
000000 00 00 80 3f 00 00 80 3f 00 00 80 3f 00 00 80 3f
       1.0 1.0 1.0 1.0
000010 00 00 80 3f 00 00 80 3f 00 00 80 3f 00 00 80 3f
       1.0 1.0 1.0 1.0

pool_fin.select.weight f4 [1, 8]
000000 80 cb 09 3e 40 45 98 be 67 95 6b be fe 00 1c bd
       0.13456535 -0.29740334 -0.23006211 -0.038086884
000010 1c 61 a2 be 3c 6b 6a be a9 1f a4 be 1f 42 79 3e
       -0.31714714 -0.22892469 -0.32055405 0.2434163

linear0.weight f4 [128, 10]
000000 a5 77 1e 3e ba 2e ef 3d 92 40 cf 3d 0b 5f 58 be
       0.15475328 0.11678834 0.10119738 -0.21130006
000010 bc 10 4c 3e ec 65 1c be d4 34 98 be 77 24 15 bd
       0.19928259 -0.15273255 -0.29727805 -0.03641173
000020 ab eb ca 3d 34 c4 f3 3e 83 58 10 be 53 3b 5d 3e
       0.09908231 0.4761063 -0.14096265 0.21604662
000030 2e 33 3f be 66 37 2a be 64 89 67 be 23 04 8e 3d
       -0.18671867 -0.16622695 -0.22611004 0.06934383
000040 b0 a2 98 be 1e d1 41 be e5 8d 4b 3e 03 04 c8 3e
       -0.2981162 -0.18927428 0.19878347 0.3906556
000050 53 82 b6 bb 2f 90 01 3d 6f 99 a9 3d 87 b2 14 3e
       -0.005569735 0.031631645 0.08281218 0.14521228
000060 2f 86 c3 3c 00 f0 4d 3c 7c 9e 6d 3e c9 c5 2a 3e
       0.023867695 0.0125694275 0.23204988 0.16677012
000070 e0 f5 84 3e 4d 2f 92 be ac c4 89 3e 06 5c 56 be
       0.25968838 -0.28551713 0.2690786 -0.20933542
000080 49 97 d9 bc a7 15 ce 3d 8d 8c 0c 3e 76 61 1e 3e
       -0.026561396 0.100627236 0.13725491 0.15466866
000090 83 ed 7b 3e cd a7 9a 3e e0 b2 e2 bc f3 33 2c 3e
       0.24602322 0.30206147 -0.027673185 0.16816692
0000a0 5d 97 f7 bd 49 d3 ee bd c5 28 c8 bb bd 9d 7c 3e
       -0.12089417 -0.11661393 -0.0061083757 0.24669547
0000b0 79 5c 87 3d ee 49 09 3e 93 77 f4 3d 71 e5 7e 3e
       0.06609435 0.13407108 0.119368695 0.24892212
0000c0 cd 61 4e 3e 81 d2 98 be d9 43 bf 3d a7 e8 46 3e
       0.20154496 -0.29848102 0.09339113 0.19424687
0000d0 0e 9e 09 be 07 e3 67 3d 63 fa 51 be fc 66 58 3e
       -0.134392 0.056612995 -0.20505671 0.21133035
0000e0 6e b5 33 3d 30 6a 84 be bc ff 40 be a4 15 2c be
       0.043874197 -0.25862265 -0.18847555 -0.1680513
0000f0 c2 7d 8d be b0 fc 37 3e 8d 2d 17 3e 16 92 3a be
       -0.27635008 0.17967486 0.1476347 -0.1821979
000100 02 93 75 3e cd 52 e6 3d 55 96 8d be eb cf 88 be
       0.2398186 0.11246262 -0.27653757 -0.2672113
000110 6c 33 97 3c f6 77 2f 3e 9a a4 b6 bd b2 f3 80 3e
       0.018457137 0.17135605 -0.08918114 0.25185925
000120 d0 2a 95 be b1 f8 8b 3e 57 bf 51 3e 12 e6 84 3b
       -0.29134226 0.27338174 0.20483147 0.004055747
000130 d9 7e 3d be 31 87 88 3e 02 8d 45 be 7e 6b 97 bd
       -0.1850542 0.26665643 -0.19292071 -0.073935494
000140 15 35 e9 bd bc de 49 bc 0d dd 49 3e 66 58 d7 bd
       -0.11387078 -0.01232117 0.1971323 -0.105149075
000150 e9 1c 87 be 8c 9c 71 bd b9 f0 99 be 5c d9 a5 bd
       -0.26389244 -0.058987185 -0.3006647 -0.08098099
000160 e7 fd 90 bd 3a 16 cd 3d 8a e4 c7 3c 5f 14 bf 3d
       -0.07079678 0.10014005 0.024400968 0.09330057
000170 d0 f0 f5 bd 49 51 57 bc 4a 52 90 3d 1d 1f a1 be
       -0.12008822 -0.0131419385 0.070469454 -0.3146905
000180 d6 db 83 be 6b ff 5d be ca 79 8d 3e 3b 4c 8e 3e
       -0.2575366 -0.21679465 0.2763198 0.27792534
000190 6f d9 14 bd a4 42 ba bd 1d e6 66 be 16 ec 81 3e
       -0.036340173 -0.09094742 -0.22548719 0.25375432
0001a0 43 86 4f 3d ba 32 0b be ab 87 ff bc 90 31 02 3c
       0.05066515 -0.1359357 -0.031192621 0.007946387
0001b0 8e 21 1e be 55 d5 b2 3e e5 5a 3f 3e 0f 05 39 be
       -0.15442488 0.34928384 0.18687017 -0.18068336
0001c0 23 52 43 3d 87 9f d4 bd 7e cc 63 be d7 95 80 3e
       0.047685754 -0.1038199 -0.22245976 0.2511432
0001d0 7b 53 1c 3e 63 c2 91 be 49 41 90 be ac e9 c1 be
       0.1526622 -0.28468618 -0.2817481 -0.3787359
0001e0 94 8b 29 be 67 c9 76 3e 3a a1 e5 bb ab 26 73 be
       -0.16557151 0.24100266 -0.007007745 -0.2374522
0001f0 4d 1b 2c bd a7 89 8e 3e a7 c0 1c 3e 5b b9 7a 3e
       -0.042018224 0.27839395 0.15307866 0.2448477
000200 71 16 59 3e 87 91 af be 9f 0e 8a be 58 81 49 be
       0.21199967 -0.34290716 -0.2696428 -0.19678247
000210 11 67 43 3e fe f9 84 3b 25 15 4f 3a be 3c 21 bd
       0.19082285 0.0040581217 0.0007899574 -0.03936457
000220 3e 70 bf 3d 27 a3 45 3e 8b e0 03 3d 3c b5 56 bc
       0.093475804 0.19300519 0.032196563 -0.013104733
000230 c8 e4 9a be fe 81 92 3d 50 b5 05 3e e6 83 b6 3d
       -0.3025267 0.071537 0.13057446 0.089118764
000240 6a d4 8c 3e e8 ae 9e bb 10 65 9b be 4f 05 13 3e
       0.2750581 -0.004842628 -0.30350542 0.14357494
000250 a2 ed 36 be 42 60 70 bb 63 2a 6b 3d 49 5e f6 bc
       -0.17864087 -0.0036678468 0.05741347 -0.030074256
000260 c3 c8 be bd c2 db 52 3e 25 cf 2f bd ba c6 7d 3e
       -0.09315636 0.20591643 -0.042922158 0.2478284
000270 96 38 53 bc 26 f5 cb bd 51 c4 5a bd 12 e9 00 3c
       -0.012891909 -0.09958868 -0.05340988 0.007868068
000280 3c 87 0c be 94 0d 40 bd be 3e bd bc bc bc 10 be
       -0.13723463 -0.04688795 -0.023101207 -0.14134496
000290 42 08 8e be eb 11 02 3e 11 20 5a 3d b3 93 87 be
       -0.27740675 0.12702148 0.053253237 -0.26479873
0002a0 07 e8 c5 3d 6a 36 c4 3d 03 b2 83 3e 1e 81 5d bd
       0.09663396 0.09580691 0.2572175 -0.054078214
0002b0 63 76 83 3e 93 36 6b 3d 2d d0 f6 3d a3 dd 95 bd
       0.2567626 0.057425093 0.12051425 -0.073176645
0002c0 e4 a3 01 bd f9 34 0b 3c 8b 10 26 be 1e 7a d7 be
       -0.03165044 0.008496516 -0.16217248 -0.42085356
0002d0 d3 48 2b 3e 50 83 28 3c 26 38 af 3d a4 4c 81 be
       0.16726999 0.010285214 0.08555631 -0.25253785
0002e0 b5 86 8f be 78 b6 4f be 1d 09 f0 3d 6d d6 f1 3d
       -0.2803246 -0.2028445 0.11720488 0.118084766
0002f0 3b f9 21 3e d0 4a a5 3d fc 11 6e 3e 78 f0 41 bd
       0.1581773 0.0807091 0.23249048 -0.04734847
000300 b7 2e bb 3d 65 5b d8 3c 89 97 4f bd 01 b6 5f be
       0.091397695 0.026410768 -0.050681625 -0.21846773
000310 29 7f 72 be 15 b1 96 be 97 18 83 be ac 73 52 be
       -0.2368132 -0.29431978 -0.25604698 -0.20551938
000320 3a 3f 13 bd b3 06 34 3e 3f 20 bc 3d 1c 38 0d be
       -0.03594897 0.1758068 0.09185838 -0.13790935
000330 dc 63 ee bc 0d 06 a5 be 4e be 4e 3e 1f cc 31 3d
       -0.029100351 -0.3223118 0.20189783 0.043407556
000340 67 d3 28 3d a8 d8 99 3e c8 14 94 bd 8d 63 2b be
       0.041217234 0.30048108 -0.07230526 -0.16737194
000350 ab 17 0f 3d df 93 2a be 01 de a1 3e 5f ca 70 be
       0.03493468 -0.16657971 0.31614688 -0.23514698
000360 f3 a3 55 3e 36 8c 2e be 8f 7f 4f 3e 64 d8 a7 3e
       0.20863323 -0.17045674 0.20263503 0.3278228
000370 79 80 44 bc 94 92 26 be 12 a0 ad 3e 73 39 29 be
       -0.011993521 -0.16266853 0.33911186 -0.16525821
000380 96 2d 51 3e a2 1f 8e be 36 78 94 3e 56 90 8e 3c
       0.20427546 -0.2775851 0.28997964 0.01740281
000390 6f 87 29 be 03 b4 c6 be 15 c1 9b be a4 d5 9a be
       -0.1655557 -0.38809213 -0.30420747 -0.3024112
0003a0 1b b7 f3 3d 8e 91 68 3d 30 84 42 be 63 97 40 be
       0.11900159 0.056779437 -0.18995738 -0.1880775
0003b0 58 97 80 be d7 db a1 3e ad ab 43 be 2e 62 77 3e
       -0.25115466 0.31613037 -0.19108458 0.24158546
0003c0 9b 9c 8f be fb 87 20 3e a2 24 49 be 4a cb a0 bd
       -0.28049168 0.15676872 -0.1964288 -0.07851274
0003d0 b7 4f 57 3e 45 6a 48 bd 28 a0 94 be 1e 56 54 3e
       0.21026503 -0.04892947 -0.2902844 0.20735976
0003e0 70 a5 0b be a6 f0 f2 bb 5f f9 8e be ed b4 4e be
       -0.13637328 -0.0074139414 -0.2792463 -0.20186205
0003f0 48 b2 ae bd f7 64 93 be a2 29 53 be 15 4f fd bd
       -0.08530098 -0.28787968 -0.2062135 -0.12368599

linear0.bias f4 [128]
000000 ed 6a 9e be 9f 5a ae bd b5 9f 01 3e ac e4 8a bc
       -0.30940953 -0.08513378 0.1265858 -0.016954742
000010 8e 06 58 3e ef 60 aa 3e 3f 64 81 3e c5 6c 00 be
       0.2109625 0.3327708 0.25271794 -0.12541492
000020 ee ee 14 be 6f 6e 10 be cc 99 32 3d 55 75 25 be
       -0.1454427 -0.14104627 0.043603703 -0.1615804
000030 cd 13 91 3e 26 c4 7d be 30 cc 9c 3e 2e 0a 18 be
       0.2833542 -0.24781856 0.30624533 -0.14847633
000040 cd c3 0e 3e 35 86 05 3e 77 09 82 3e 6f ee 93 3e
       0.1394188 0.13039477 0.25397846 0.28892848
000050 fb 0c a4 bc cb 97 33 3d 11 c7 43 3d 00 af 15 3e
       -0.02002572 0.043845933 0.047797266 0.14617538
000060 27 7a 7f be 61 49 67 be c2 75 94 bb 0b 44 3c 3d
       -0.24948941 -0.22586586 -0.0045306394 0.04596333
000070 6a d3 45 3e c5 a7 89 be 4f f6 db 3c 92 a9 a2 be
       0.1931893 -0.2688581 0.026850848 -0.31769997
000080 21 a7 2e be 79 3d 95 3e ba 47 02 3d 27 ca 99 3d
       -0.17055942 0.29148462 0.031806685 0.075092606
000090 ca f7 c0 bc 4c e0 97 be 6d b8 e7 3c 80 db 6f 3e
       -0.023555655 -0.29663312 0.028286183 0.23423576
0000a0 63 3a 01 be 5f 2d 33 be 84 87 94 bd a7 e3 86 3e
       -0.12619929 -0.17497776 -0.0725241 0.2634556
0000b0 cd f7 2a be f9 a5 07 3e 39 46 ce 3e 27 9d c7 bb
       -0.16696091 0.13246907 0.4028795 -0.006091732
0000c0 2b 65 6a 3e aa d1 46 be 2a 50 26 bd 61 3f 2f be
       0.22890155 -0.19415918 -0.040603794 -0.17114021
0000d0 54 29 9e 3e ea 4f 3f be ba eb 3f 38 55 a8 0a 3e
       0.30890906 -0.18682829 4.5757486e-05 0.13540776
0000e0 02 8c 95 3e f3 d5 92 bd c4 dc 4f 3e c0 37 fd bb
       0.2920838 -0.07169714 0.20299059 -0.007727593
0000f0 ab 5b 76 be 6d df 07 bd d6 72 fe bd 75 1b f7 3c
       -0.24058406 -0.03317206 -0.12424247 0.03016446
000100 32 87 8b 3d 63 c4 26 3d 5f dc 0e 3e 4c 0a 92 be
       0.06812896 0.040714633 0.13951252 -0.2852348
000110 73 6f 20 bd 07 9a 8f be 0e 4d 47 3e bd eb 80 3e
       -0.039168786 -0.280472 0.19462988 0.25179854
000120 01 a5 d2 3d 1f 1d c9 bc 8d e7 66 3e 6b 28 6d 3e
       0.10285378 -0.024550019 0.22549267 0.2315995
000130 0a db cd 3d 6e 46 38 be 21 be 35 be cf 7a 4b 3d
       0.10051544 -0.17995617 -0.1774831 0.049677666
000140 cc 09 7e 3e ca 95 6a be b9 48 9b 3e 35 97 8e be
       0.24808425 -0.22908702 0.3032892 -0.27849737
000150 51 31 f6 bc 57 74 ab bd d4 cf b4 bd 08 f9 f6 bd
       -0.030052813 -0.083717994 -0.088287026 -0.12059218
000160 cc f1 a8 3d 30 8b 99 be b0 a5 35 3e 97 98 0c bc
       0.08249244 -0.29989004 0.17738986 -0.008581302
000170 7b f3 57 3d 3e d4 f8 3d 57 b3 ad 3e ab ac 6a 3d
       0.052722435 0.12149857 0.33925888 0.057293575
000180 44 8a cb bd d6 bf 14 3d 3b 5d ab be 1d b5 12 be
       -0.099384815 0.03631576 -0.33469567 -0.14326902
000190 11 fe 96 3d 3d dc 8a be e1 40 8e 3e 74 a2 39 be
       0.07372678 -0.27121153 0.27783874 -0.18128377
0001a0 a4 5a 9e 3e 90 af 70 3e 7d d5 8d be 89 32 7b be
       0.30928528 0.23504472 -0.2770194 -0.24530996
0001b0 0a fe 3e 3c c3 3f ab 3e 9d f5 1e be d4 81 75 bd
       0.011657247 0.33447084 -0.15523382 -0.059938267
0001c0 99 55 9b be d5 80 23 3c aa f5 b7 be 5b 9b 10 3e
       -0.30338743 0.009979446 -0.35929614 0.14121763
0001d0 64 31 9c be 6e 08 91 be 0f 3a 78 3e 08 77 fd bd
       -0.30506432 -0.28326744 0.24240898 -0.12376219
0001e0 4c e5 ba bd d3 f7 9a be 02 88 85 be dc a7 a8 3d
       -0.09125766 -0.302672 -0.26080328 0.08235142
0001f0 c4 fa 89 be 75 c3 36 3e 51 7e 74 3e 4f 9b a8 be
       -0.2694913 0.17847998 0.23876311 -0.3293099

linear2.weight f4 [128, 128]
000000 3a 78 78 3d d4 7d 42 bd 34 38 95 bd a3 c3 a8 bd
       0.060661532 -0.04748328 -0.072861105 -0.0824044
000010 7c 36 6b bb a3 7c 09 3d 54 96 9a 3d 00 fd 76 bd
       -0.003589063 0.03356613 0.07548204 -0.060299873
000020 32 be b1 bd 8c 8c a0 3c b7 a1 9f 3d e9 29 f0 bc
       -0.08678855 0.019598268 0.077945165 -0.02931686
000030 ff 9a 9f bd 82 af 65 3d 4e fa 24 bd b2 92 4f bd
       -0.07793235 0.05607558 -0.04027777 -0.05067701
000040 f2 94 46 bd 40 2e 8d bd 4f eb 00 3d 80 6d 87 bd
       -0.04848189 -0.06893587 0.031474408 -0.06612682
000050 b3 fb 4f bd f9 fe c0 bb c1 5a 15 bc da e7 d9 bc
       -0.05077715 -0.00588977 -0.009115876 -0.026599813
000060 cb 5d a6 bd 8d d6 43 3d 93 b3 06 3d 18 e2 cb bc
       -0.08123358 0.047812033 0.0328861 -0.024888083
000070 d6 02 1c bd b4 5d 4b bd 4a 2a c1 bb 0e ea 9f 3d
       -0.038088642 -0.04964991 -0.005894934 0.07808314
000080 1f 4c 93 bd 52 41 55 bd d0 7a f2 3c dc a7 86 bd
       -0.07192253 -0.052064247 0.029599577 -0.065749854
000090 9c 61 7a 3d 69 5a 16 3c 64 1e 8e 3d c1 fa 24 3d
       0.061128244 0.009176829 0.0693939 0.0402782
0000a0 b4 09 98 bd b7 48 49 3c 6a ed a0 3d 17 de eb 3c
       -0.07423726 0.012285403 0.07857783 0.028792424
0000b0 a1 ce 04 bd 7a f6 3a 3d 5a e4 36 bc fe 16 80 bd
       -0.03242362 0.045645215 -0.011162842 -0.062543854
0000c0 50 f3 e8 3b 55 1f 9a bd e0 35 a6 3d 7b 40 bb 3c
       0.0071090832 -0.07525507 0.081157446 0.022857895
0000d0 12 61 90 bd bd 66 7e 3d 58 e2 6d 3d 75 d1 35 bd
       -0.07049765 0.062109698 0.058077186 -0.044389207
0000e0 b6 00 8c 3c 04 d4 7e bd 8b 4f 43 bd 64 1a 6a 3c
       0.017090183 -0.062213913 -0.04768328 0.014288519
0000f0 ca d8 bc bc 70 26 61 3c 07 8f 4d bd 61 d6 3e 3d
       -0.023052592 0.013742074 -0.05018523 0.046591166
000100 45 70 3d bc 60 3b a8 bd 57 57 4e 3d 59 3a 95 3d
       -0.011562412 -0.0821445 0.050376263 0.072865196
000110 cf 4a 7f bd b5 45 f6 3b 6a 64 9e bd a3 82 80 bd
       -0.062327202 0.007515634 -0.07733996 -0.06274917
000120 73 b7 97 bd 8e 91 57 3d 4d 8a 24 3d 9b 53 0a bd
       -0.07408037 0.052629046 0.040170956 -0.03377114
000130 43 cb 1e bd df 6e a4 bd e1 83 28 3d 20 1d 89 bd
       -0.038768064 -0.080289595 0.041141395 -0.06695008
000140 12 bc 0f 3b a5 67 8c 3d 96 a1 ba 3c c8 ca 60 3d
       0.0021932167 0.06855706 0.022782128 0.054880887
000150 80 4b 87 bd 1f d5 96 bd 53 e7 6b bd 59 e6 1e 3d
       -0.06606197 -0.073648684 -0.057593655 0.038793895
000160 a4 49 1b 3d b2 8e a9 bd c1 5b b4 3c 71 c7 a2 bd
       0.037912026 -0.0827917 0.022016408 -0.07948197
000170 33 ed 9a 3d b5 30 6a 3d 04 8e 3e 3d 60 5a 05 bb
       0.075647734 0.057175357 0.046522155 -0.0020348057
000180 4e 6b 7f 3d 46 46 2a 3c 30 90 32 3d af ac d4 ba
       0.062358193 0.010392731 0.04359454 -0.001622578
000190 a7 08 5d 3d 6b 32 c5 bb c0 eb 5a bd 7b 01 b5 bc
       0.05396333 -0.006017973 -0.053447485 -0.022095433
0001a0 33 1f 44 3c 98 7f 8e 3d 0e 4a 06 3d 83 c8 59 3b
       0.011970329 0.0695793 0.032785468 0.0033231087
0001b0 66 d9 1f bd 6a b7 57 bd 8a 08 a5 bd 4e a2 24 3d
       -0.039025687 -0.05266515 -0.08058269 0.04019385
0001c0 69 03 25 bd 6e d6 a4 3d 4b cc 4c bd 72 d6 db 3b
       -0.040286455 0.08048712 -0.049999516 0.0067089135
0001d0 d4 ad ff 3c d6 1f 17 3c 3b 0c af 3d 92 b1 8c 3d
       0.031210817 0.009223899 0.08547255 0.06869806
0001e0 46 09 9e bc 9e 5b 5a 3d fa 36 60 3d 2f a7 19 bb
       -0.019291531 0.05331003 0.05473993 -0.0023445596
0001f0 ac 02 05 bc 65 c6 47 bd a1 8e 73 bd d6 1b 97 bd
       -0.008118313 -0.04877319 -0.059462193 -0.07378356
000200 f5 15 5c bd 4a f1 92 bc 63 8b de bd f8 5c 88 bd
       -0.053731877 -0.017937321 -0.1086643 -0.066583574
000210 4c ac da bc 2f 96 d0 bc ac df cb 3b 80 4c 96 3d
       -0.026693486 -0.025462238 0.006221732 0.0733881
000220 4e 09 b2 bc b2 dc 9e bd d2 12 b1 3d d0 a0 9b 3d
       -0.021732952 -0.07756938 0.08646168 0.07599032
000230 87 48 59 ba c4 ae b5 3c 2f cf a9 bd fa 71 ba bc
       -0.00082887005 0.022178061 -0.0829147 -0.022759426
000240 e2 6b ad bd fa b1 46 bb da 08 bc bd fb be 45 bc
       -0.08467843 -0.0030318485 -0.09181376 -0.012069459
000250 73 42 b9 3d 05 5e 93 bd 86 f7 0b 3c 15 31 50 bd
       0.09045877 -0.07195667 0.008542901 -0.05082806
000260 78 6a 2c 3c 0b 64 17 bc d0 b7 a6 bd 9b 87 46 3d
       0.010523431 -0.009240161 -0.08140528 0.048469167
000270 ce 93 4b 3d 66 c8 dc bc 86 29 ad bd 8d 9e 9e bd
       0.049701504 -0.026951026 -0.084551856 -0.07745085
000280 bd f3 0e bd 72 2d 98 bd 8e ad b9 bd 4f fe b0 3d
       -0.034900416 -0.07430543 -0.09066306 0.086422555
000290 b4 96 27 bd 38 63 1a bb 42 62 21 3d 01 1e 99 bd
       -0.040915206 -0.0023557674 0.039400347 -0.07476426
0002a0 3b 00 39 3d d5 c6 bd 3a 2d 86 1c bd 63 90 21 3d
       0.045166235 0.0014478812 -0.038213897 0.03944434
0002b0 10 09 bc 3d f7 fb de bc ae 7d ca bd 78 d5 49 3d
       0.09181416 -0.027219756 -0.09887253 0.049275845
0002c0 53 96 6f bd 6b 41 98 bc 82 58 49 3d b2 34 83 3d
       -0.05849297 -0.018585881 0.049156673 0.06406535
0002d0 1a 71 5e 3d ba 72 2b bd 74 d0 5a bd e9 cd 3b 3d
       0.05430708 -0.04185746 -0.053421453 0.045850668
0002e0 c5 cb 0e 3d 9b 27 1d 3d fe 08 6d bc 17 d0 16 bc
       0.0348623 0.03836785 -0.014467476 -0.009204886
0002f0 7a 9f 7a 3d 62 26 de bc c9 ad 77 bd 60 28 2e bc
       0.061187245 -0.027117912 -0.06046847 -0.010629743
000300 cd 77 a7 3d 8f cf 28 3b b7 c1 01 bd fc 13 ab bd
       0.08177147 0.002575848 -0.03167888 -0.08353421
000310 78 b2 17 bc 4f 2b 49 3d 34 18 9e 3d a5 d5 0b bd
       -0.009258859 0.049113568 0.0771946 -0.034139294
000320 47 cd b4 3d 61 9c 8f bd 72 6e 09 3d bd 34 97 bc
       0.08828216 -0.07012249 0.033552594 -0.018457765
000330 78 c5 1c bc ff 27 2e bd 4b 54 31 bd 28 8f 51 3d
       -0.009568565 -0.042518612 -0.04329328 0.051161915
000340 84 74 a4 bd e3 0a 3e 3d b0 4a c7 bd 62 53 99 3c
       -0.08030036 0.0463971 -0.097310424 0.018716518
000350 83 f0 01 3d 62 38 c3 bc d9 25 9b bd 0f 8c 50 bd
       0.03172351 -0.023830596 -0.07575578 -0.05091482
000360 af 1f fd bb 0a aa f0 3b a8 00 85 3d bd 43 f9 bc
       -0.0077247242 0.007344489 0.06494266 -0.030427808
000370 6c f2 c1 3c 0d d8 43 3d f7 88 eb 39 b1 ea 19 bc
       0.023675166 0.047813464 0.0004492474 -0.009394334
000380 49 0a 7e 3d b7 5a ac 3b ad 1d 5a 3c 81 a0 87 3d
       0.062021527 0.0052598375 0.013312739 0.066224106
000390 d5 5d 9e bd 82 b4 25 bd 47 7f 0e 3c 26 5a 14 bb
       -0.07732741 -0.04045535 0.0086973375 -0.002263674
0003a0 cd 90 b0 3b a8 0a 2a 3b 23 cf ad bd ed b6 8f bb
       0.0053883553 0.0025946293 -0.08486774 -0.00438582
0003b0 85 df b8 3c 0c 71 9a 3d 59 fb 1c bd 6d a1 82 bc
       0.02256752 0.07541093 -0.03832564 -0.015946114
0003c0 ee 18 5c bd 57 e4 a8 bc cc 6c 01 bd 7b 21 8d bd
       -0.053734712 -0.020616693 -0.031597897 -0.068911515
0003d0 a9 ed 9d bd b7 b8 9c 3d bf 61 c3 3c e1 c5 64 3d
       -0.07711346 0.07652419 0.02385032 0.055852775
0003e0 0e 61 f2 3c 38 8e 82 3d 49 78 aa bc 15 61 de bc
       0.029587295 0.06374782 -0.02080931 -0.027145902
0003f0 c4 e0 a0 3d ac 01 2a 3d d3 1e 38 bd 66 01 cb 3d
       0.07855371 0.0415055 -0.04495127 0.09912376

linear2.bias f4 [128]
000000 51 ce f9 3c 06 23 bd bc cc 43 27 be 26 aa 0e 3c
       0.030493887 -0.02308799 -0.16334456 0.008707559
000010 2e 43 47 3d b9 5b 89 3d 2f 8d fa bc 83 37 c7 bd
       0.048648052 0.06706948 -0.0305849 -0.09727385
000020 f4 f9 64 3d 33 26 9e bd f8 ba e1 bd 89 a1 2f bd
       0.055902436 -0.0772213 -0.110219896 -0.04287866
000030 f6 40 06 3c 21 a2 fa bc 25 7a 3b 3d e8 6e ed 3c
       0.008194199 -0.030594887 0.045770783 0.028983548
000040 5b d9 f0 3c 3c 44 ac 3d 8d 69 f1 bc 3c 01 43 3b
       0.029400518 0.08411452 -0.029469276 0.0029755374
000050 93 e0 e6 3c 00 ef 1d bd 9a c8 10 be 2b ec 6e 3d
       0.028183257 -0.038558006 -0.14139023 0.058330696
000060 e0 57 17 bd 5e f2 c5 bd 18 e8 a8 3d 31 f1 92 bd
       -0.03694904 -0.096653685 0.08247393 -0.0717491
000070 51 31 30 3b 98 0c fb 3c 01 2e 09 bd 54 f6 5f bc
       0.0026884864 0.030645654 -0.03349114 -0.013669569
000080 99 0d 5b 3b 46 2a a3 3d cc 4a a5 3c 1c 20 65 3d
       0.0033424853 0.079670474 0.020177267 0.055938825
000090 55 b6 a5 3d 27 30 d4 bc 79 7f a3 3c 41 1a 3e 3d
       0.08091418 -0.025901867 0.019958245 0.046411756
0000a0 c4 13 1f bd 5f 77 86 3c e6 ad 38 bc 96 54 a1 bc
       -0.03883721 0.016414342 -0.011271929 -0.019693654
0000b0 17 3b 3b 3c ed 23 f3 bb 56 0a 67 3d 00 18 4a 3d
       0.011427662 -0.007420054 0.05640634 0.049339294
0000c0 25 6e 74 bd a9 9e 7b 3d be 51 b2 3c b9 d4 29 bd
       -0.059675355 0.061430607 0.021767493 -0.041462634
0000d0 14 c8 69 3c 93 d5 9c bd 51 3f 99 bd 7a d7 2b bd
       0.014268894 -0.076579235 -0.0748278 -0.04195354
0000e0 58 a1 08 be b5 c8 83 bd 0b cc 9f bd 2c 31 a9 bd
       -0.13342798 -0.06434766 -0.0780259 -0.08261332
0000f0 9b b3 94 3d 23 f1 c2 3c a0 9f 8a 3c 2b a9 63 bd
       0.072608195 0.023796624 0.016921818 -0.055581253
000100 8b a4 3a bd 3c 3c 83 bd 1b 98 ae bd bb 37 1c 3d
       -0.045567077 -0.06407973 -0.085251056 0.038139086
000110 a1 60 46 bc e2 06 45 3d 0d c1 cd 3d 8f 2f c0 bd
       -0.012107999 0.048102267 0.10046587 -0.09384071
000120 a4 5f b3 3d d0 44 e5 bb 00 80 3b 3c 07 6c 13 bd
       0.087584764 -0.0069967285 0.011444092 -0.035991695
000130 cd d0 84 bd 55 ae 97 3d a5 b3 f4 3b e4 40 44 39
       -0.06485138 0.07406298 0.0074677044 0.0001871619
000140 7a 70 a7 bd 60 97 d4 bb 0a f6 6a 3c 7a 65 8a 3d
       -0.0817575 -0.006487772 0.014340887 0.06757636
000150 65 d7 db bc e0 fb c2 bd 92 94 57 3d 98 47 93 3d
       -0.026836107 -0.095206976 0.052631922 0.0719139
000160 08 d6 e6 3c 26 7a 00 3d c8 87 b5 3c 48 8f 88 bd
       0.02817823 0.03136649 0.022159472 -0.06667954
000170 e3 8c e0 bc 29 bc 74 3c d7 40 01 3c 00 82 d5 3c
       -0.02741093 0.014937439 0.007888994 0.026062965
000180 96 6b 6f bd 9a c6 eb 3c be 82 8f bc 8b 4b 90 3d
       -0.05845221 0.028781224 -0.017518397 0.07045659
000190 27 fd e8 bd d1 21 7d bc 0d 74 67 3d 08 0e a1 3d
       -0.1137641 -0.015449957 0.05650716 0.078640044
0001a0 d4 b2 6c 3d e1 9d 90 3d 0b 8c c1 3c fd d8 2f bc
       0.05778773 0.07061363 0.023626348 -0.010732886
0001b0 c4 2b cc bd d1 a8 2f 3d 76 2e 93 bd 20 e9 60 3d
       -0.09969285 0.042885605 -0.07186596 0.054909825
0001c0 fb a8 6e 3d 79 52 ab 3d bb aa 49 3d 90 a5 e3 bc
       0.05826662 0.0836534 0.049235087 -0.027788907
0001d0 ac 81 38 bc 73 2c 1f 3d 46 cc f0 bb 2f 00 3e bd
       -0.011261385 0.03886075 -0.00734857 -0.046386894
0001e0 3d 86 bb bd c5 3c 5f 3d b3 ce 91 bd 1e 11 ab bd
       -0.09156463 0.054501314 -0.07119503 -0.08352874
0001f0 14 5f 8b bd ad fd 63 bd 9f f2 30 bd 76 4a d1 3c
       -0.06805244 -0.055661846 -0.04320013 0.025548201

linear3.weight f4 [64, 128]
000000 af 98 43 3d 12 9d 5e bd 72 bb ed 3d 61 b4 33 3c
       0.047753032 -0.054349013 0.11608018 0.010968299
000010 13 af b5 bd b4 84 eb 3a d7 f6 44 3d 6f c6 0d bd
       -0.088712834 0.0017968626 0.048086967 -0.03461307
000020 12 ca b8 3d 98 ef e4 3c 7f ad 1d bc 82 ee 5d bd
       0.09022917 0.027946278 -0.009623884 -0.054182537
000030 37 3e 13 3d 13 ec c2 3c 54 75 8f 3d 87 df 93 3d
       0.035948005 0.02379421 0.070048004 0.07220369
000040 42 92 51 3d d7 2a 26 bd 1e b7 fc 3c 21 55 2a bd
       0.051164873 -0.0405682 0.030849036 -0.04158509
000050 94 2a ac 3d 4b bb fd bb d3 24 12 bd cb 71 bc 3d
       0.08406559 -0.0077432743 -0.03567965 0.09201392
000060 a3 e5 10 3d 51 cb b7 3d 53 7a 69 3d c3 3a ce 3c
       0.03537525 0.089743264 0.057001423 0.025174504
000070 36 cf 81 3d b4 7e 64 bd 17 7a 4a 3d f5 68 84 bd
       0.063383505 -0.055784896 0.04943284 -0.064653315
000080 89 2f a1 3d 35 ef 26 3d de c5 36 3d d6 a9 f8 bc
       0.07870395 0.04075547 0.044622295 -0.030354422
000090 10 6b c0 3c 72 97 3d bd 4b 6a 83 3c 23 9f a7 3d
       0.023488551 -0.046287008 0.016041895 0.0818465
0000a0 1f 93 fa bc 74 f0 77 3d 71 ea 85 3d 84 56 b7 3c
       -0.03058773 0.06053205 0.06538857 0.022380121
0000b0 74 f0 7d 3d de f1 22 bd b8 ad cb bc 0c b6 04 3d
       0.061996892 -0.039781444 -0.024863109 0.032400176
0000c0 2f 2f 7f bd 97 f2 b1 3d 12 85 0c bc 5b b8 9d 3d
       -0.062300857 0.086888485 -0.008576648 0.07701179
0000d0 3e f2 20 3d d7 1b b4 3d 34 a9 01 bd 0f 73 8b 3d
       0.03929352 0.087943725 -0.031655505 0.06809055
0000e0 af 9d 6d bd 44 46 42 3d 7f 30 6e bd 93 f0 b9 3c
       -0.058011707 0.04743029 -0.05815172 0.022697723
0000f0 03 09 35 3d e2 60 7c 3d 97 11 87 bd dc b0 57 3d
       0.044198047 0.061615832 -0.06595152 0.0526589
000100 30 56 94 bd 64 ee 5e bd 3e 41 ec 3c e0 6e 87 bc
       -0.072430015 -0.054426566 0.028839704 -0.016532362
000110 93 8d 8e 3d ad 76 93 bc d0 a3 9d 3d 44 4c 0a bd
       0.06960597 -0.018000925 0.076972604 -0.03376414
000120 10 3b a1 bd d9 af c5 3d 85 00 de 3c 35 ef 4f 3d
       -0.078725934 0.09652681 0.027099857 0.050765235
000130 01 ce e6 3c 1a d5 7c bb fa ce 14 ba 8b 31 65 bd
       0.028174402 -0.0038579167 -0.0005676594 -0.05595545
000140 f3 e9 0e bd 91 80 67 bd d5 dd cc bc e4 d8 7f 3d
       -0.03489108 -0.056519095 -0.025008122 0.062462702
000150 0f 5a be 3d a9 02 5d 3d 0f 4c 40 3c 57 f7 b7 bb
       0.09294521 0.053957615 0.011736884 -0.005614202
000160 4a 59 77 3d 12 c5 5b bd 43 e3 97 bd ef 9f 77 bd
       0.060387887 -0.053654738 -0.074163936 -0.06045526
000170 2a 7d 02 bd 64 9b 55 3d dc c2 10 bd a5 42 cb 3d
       -0.031857647 0.052150145 -0.035342082 0.09924821
000180 c0 e0 83 3c 1f f8 9b 3d 52 44 9a 3d 9f 56 18 3c
       0.01609838 0.07615685 0.07532562 0.009297996
000190 31 c9 5b 3d cf 9e 90 bc bb ea 94 3d f1 90 d2 3c
       0.053658668 -0.01765385 0.07271334 0.02570388
0001a0 77 f1 58 3d 72 29 a0 bd 94 28 af bd d7 ce 0f 3d
       0.052964654 -0.07820405 -0.085526615 0.035109367
0001b0 27 73 c8 3d 68 50 8d 3d c0 aa df 3a d9 06 69 bd
       0.097875886 0.06900102 0.0017064437 -0.056891296
0001c0 1e bf 81 3c c0 b4 80 bd 6a e7 15 3d 72 24 66 bd
       0.015838202 -0.06284475 0.036597647 -0.0561871
0001d0 dc be 27 3d 0b 1a de 3c 41 3d 73 bc 3d c8 34 3d
       0.040953502 0.027112028 -0.014846147 0.044136275
0001e0 ce bf 11 bc 95 5f 9a 3b bd 8a 82 3a 24 71 50 3d
       -0.008895827 0.0047111013 0.000995956 0.05088915
0001f0 aa 13 6f bd b9 86 40 3d 57 27 51 bd 9e e0 79 3d
       -0.058368362 0.04700348 -0.051062908 0.061005227
000200 df 5b 54 bd 17 71 aa 3b f3 a6 81 3d db 57 98 bd
       -0.051845428 0.0052014696 0.06330671 -0.07438632
000210 a5 98 8c 3d 9b 5d 60 bd fe 1c ad 3d 08 e8 68 3d
       0.06865052 -0.05477677 0.084527954 0.056861907
000220 fa 60 65 bd 30 18 20 3d 3d 9f 69 bd 3f ec 8e 3b
       -0.056000687 0.039085567 -0.057036627 0.004361659
000230 9c db 5a bd d6 f6 0b 3d 3f 4d 31 3c e5 a2 fd 3a
       -0.053432092 0.034170948 0.01082164 0.0019350915
000240 79 c3 c1 bd ce 62 11 3d 26 04 d0 3b 71 e4 7d bd
       -0.094611116 0.035494618 0.006348151 -0.061985437
000250 6a a3 9f bd 4f bd 9a bd 71 1d a5 3d b8 f2 4e 3d
       -0.07794841 -0.07555639 0.08062256 0.050524443
000260 60 b0 a1 bd 42 f2 90 bd f5 ba 27 3d 14 af a6 3c
       -0.07894969 -0.07077457 0.04094978 0.020347156
000270 0a 29 4a 3d d4 46 a0 bd 52 c2 a7 bd bb b0 48 3b
       0.049355544 -0.078260094 -0.081913605 0.0030622918
000280 7f 7f 08 bd e7 80 8c bd a3 8a 9d 3d 3e d2 a9 3d
       -0.033324715 -0.06860524 0.076924585 0.08292054
000290 db 96 8a bd 44 4f 80 bd e2 c3 e6 ba 59 f6 d1 bc
       -0.06767055 -0.06265119 -0.0017605985 -0.025630163
0002a0 59 c4 b5 bb eb 4f 85 3c f7 85 9a 3d f5 38 7c 3d
       -0.005547088 0.01627346 0.07545083 0.061577756
0002b0 b8 a1 75 bd 96 61 0a 3d 67 7b dd 3b b6 fa 47 3d
       -0.05996868 0.03378447 0.0067590955 0.04882308
0002c0 88 f4 75 3d 75 18 90 bd 01 0c 93 3d b9 29 f0 3c
       0.060047656 -0.07035915 0.07180024 0.02931677
0002d0 ed e1 03 bc c4 b3 b8 3c cb a3 67 bd 41 26 cd 3a
       -0.00804947 0.022546656 -0.05655269 0.0015651659
0002e0 8b 5b 24 3d bb 3f bf 3d 4f 81 4d bd 17 45 49 3d
       0.040126365 0.093383275 -0.050172146 0.049138155
0002f0 ec e5 8e bd bf 6c 69 3d 81 36 90 bd 61 00 5f 3d
       -0.06977448 0.056988474 -0.07041646 0.05444372
000300 da 89 63 bd 89 fc 8f bd 9f f7 53 bd 99 cb 8e 3d
       -0.055551387 -0.07030589 -0.05174982 0.06972427
000310 90 48 85 3d ac 1d 4e bd 10 6f 74 3d 53 8d 6b 3d
       0.06507981 -0.050321266 0.05967623 0.057507824
000320 bb 18 9b bd 24 8b 8a 3c 5e 06 14 3d cd 57 aa bd
       -0.07573076 0.01691205 0.036138885 -0.08317528
000330 18 f2 b1 3d de 3b 1c 3d 49 27 36 3d 8e 1b 35 bd
       0.08688754 0.03814303 0.04447106 -0.04421573
000340 9c 71 3f 3d 56 6c b0 3c 39 67 6c 3d 3d 20 e9 bc
       0.046739206 0.021536034 0.05771563 -0.028457755
000350 15 02 a1 bd 0f f5 19 bd 7e d6 b2 3b 2d 61 22 bd
       -0.07861725 -0.03758722 0.0054576984 -0.039643455
000360 0a 1b 8b 3d 1c b8 b6 3b f9 f4 2c bb 9e 71 9e bd
       0.06792267 0.0055761468 -0.0026391132 -0.077365145
000370 4e f1 16 ba 3a 26 77 3d 0e 59 09 3c 9e 5e 8f 3c
       -0.0005758003 0.06033919 0.008383049 0.017501172
000380 9c b4 97 3d f2 0c 9c 3d 78 e5 86 3d 7b d6 30 bd
       0.074074954 0.076196566 0.065867364 -0.043173295
000390 e8 26 ae 3d 99 61 8a 3c 37 a1 94 3b 70 6f b0 3b
       0.085035145 0.016892241 0.00453582 0.005384378
0003a0 50 a1 88 3d 18 d8 8f 3d 4b 97 83 bd c5 b7 19 3d
       0.06671393 0.070236385 -0.06425341 0.037528772
0003b0 1d cd 8e 3d af 8c 72 bd ee 9f 4a bd 14 58 49 3d
       0.06972716 -0.059216198 -0.049468927 0.049156263
0003c0 39 3a 61 3d 11 ac 96 bd 80 38 68 bd 29 7d c3 bc
       0.054987166 -0.07357038 -0.056694508 -0.023863392
0003d0 89 68 4a 3d 08 e0 11 bd 9f 87 70 3d 65 95 9c bc
       0.0494161 -0.035614043 0.05872309 -0.019114206
0003e0 14 3e 5c 3c 64 dd 3c bc 62 f4 a4 bc a8 b0 6a 3c
       0.013442535 -0.011527393 -0.020136062 0.014324345
0003f0 bb 62 52 bd be c7 81 bd ec 44 9c bb 19 34 6e 3d
       -0.051363688 -0.06336926 -0.0047689583 0.058155153

linear3.bias f4 [64]
000000 68 aa 50 3d da 2c b7 3c 02 7d 08 bd 76 11 b3 bd
       0.050943762 0.022360254 -0.03332234 -0.08743565
000010 20 a1 2c bd 4b a5 2a bd 26 cb 7d bd 96 ae 6f bd
       -0.04214585 -0.041661542 -0.061961316 -0.058516107
000020 21 00 23 3d 03 6a af ba 2a d5 93 bd cf df b9 bd
       0.039795045 -0.0013383034 -0.07218392 -0.09075891
000030 6f aa 0d 3d 7a d6 90 bd eb b6 41 ba a3 d9 07 3b
       0.034586366 -0.07072158 -0.00073896226 0.0020729087
000040 24 7b 5b 3d 30 31 b4 bd a9 93 53 bd 48 3c cb bc
       0.053584233 -0.08798444 -0.05165449 -0.024809018
000050 f7 92 2f 3d 48 44 2e bb 0b a2 c8 bc b1 b3 66 bc
       0.042864766 -0.0026590992 -0.02449133 -0.014080928
000060 36 0a fb bc be 82 5f bd fb 5d 30 3d e5 81 a5 bd
       -0.030644517 -0.054568045 0.043058377 -0.08081416
000070 2a f4 4c bd 4d 4c df bb 15 14 05 3c 8a 37 e4 3c
       -0.05003754 -0.0068145157 0.008122464 0.027858514
000080 12 ac 44 3d a5 f2 d6 bd 13 c5 2d bd 0b a3 de 3b
       0.04801566 -0.104954995 -0.042424273 0.0067943386
000090 59 df 53 bd 65 b7 b5 3c ff f1 71 bd ac cb 48 bc
       -0.051726673 0.022182176 -0.059068676 -0.01225559
0000a0 8f 41 3d 3d 36 1b 8a bb 5c f3 9d bd c8 a9 8e bd
       0.0462051 -0.0042146696 -0.07712433 -0.06965977
0000b0 cc ae d8 3c 5d 9a d8 3c ab 99 7a 3b eb 81 41 3d
       0.026450537 0.026440794 0.0038238566 0.04724304
0000c0 97 23 67 bd 3f f1 30 3d 5f 95 1c 3d b1 b3 1a bd
       -0.056430425 0.04319882 0.03822839 -0.037769023
0000d0 07 c3 4c bc 80 92 e5 3c 9e 76 3d 3d 29 b8 dc 3c
       -0.01249767 0.028023958 0.0462557 0.026943283
0000e0 11 ff 93 bc 74 2e 13 3d 99 5a 9e bd 30 de 2e bd
       -0.018065961 0.035932973 -0.07732124 -0.042692363
0000f0 1b 12 32 3d 54 28 33 bd 1e 24 bd bc 89 9d 51 bd
       0.043474298 -0.04373963 -0.023088511 -0.051175628

linear5.weight f4 [1, 64]
000000 ff b2 2e 3e 32 33 c7 3d f5 02 c0 bd 78 72 9b bb
       0.17060469 0.097265616 -0.09375564 -0.0047438703
000010 63 76 83 bd e5 2a 31 3c d8 1b 9b bd de bc ea 3d
       -0.06419065 0.0108134495 -0.0757367 0.11461805
000020 b1 4b 1a be d2 51 40 3e ee 47 b6 bc 82 b8 95 bd
       -0.15067936 0.18781212 -0.022251096 -0.07310583
000030 f0 e3 45 bd 1e da ab bd 7c 23 3b 3d 1b 6c c7 3e
       -0.04831308 -0.08391212 0.045688137 0.38949665
000040 68 10 9a 3e d3 4f 51 3d a3 cd 8b 3e 4d 33 df bc
       0.30090642 0.051101517 0.27305326 -0.027246142
000050 29 e6 b4 bd 0a 28 b0 3e 15 c8 a2 3d fe b9 1b 3d
       -0.08832962 0.34405547 0.07948319 0.038019173
000060 c7 24 be 3b 26 8f 8a bd b8 bc 0b 3e 67 98 9c bd
       0.005802724 -0.06765585 0.13646209 -0.07646256
000070 5e 65 b0 3e c8 4b e8 bb 0c 3f d0 3e 80 55 a1 3c
       0.34452337 -0.007089112 0.406731 0.01969409
000080 ff 79 87 bd e5 98 e6 3e 4e d9 e6 3d 83 5f 41 3e
       -0.06615066 0.45038524 0.11271916 0.18884091
000090 1c b5 66 bd 0b ec 59 3e 0c c1 9f bc 76 fd 37 bd
       -0.056325063 0.2128145 -0.019501232 -0.044919454
0000a0 71 a2 cb 3c 83 43 51 bd 51 b7 e4 bd 30 d0 97 bd
       0.024857732 -0.051089775 -0.11167777 -0.074127555
0000b0 ea 6c 06 3e c3 95 81 bd e5 f5 96 bc c1 e1 b7 3e
       0.13127485 -0.06327393 -0.018427799 0.35914424
0000c0 1f 94 bd 3e 5d 7a 96 bd 8d 81 00 3e a5 d4 3f bb
       0.3702707 -0.07347558 0.1254942 -0.0029271033
0000d0 8c 21 00 bd 13 7a a6 3e 1c ff 88 3d 3d 34 ac 3e
       -0.031281993 0.3251501 0.06689283 0.33633605
0000e0 b0 74 6f bd 18 f1 b6 3d 8b 5e 39 3d 0b c7 04 3e
       -0.05846089 0.08932704 0.04525618 0.12966554
0000f0 39 3e af 3d 55 7e ca 3e 3e 40 a1 3d a9 3d 75 3b
       0.0855679 0.3954951 0.07873581 0.0037420786

momentum_buffer f4 [1, 1, 4]
000000 93 52 ca b4 c5 d6 65 b4 55 db ad b3 7c 1b b3 34
       -3.7685513e-07 -2.140542e-07 -8.0958365e-08 3.3361346e-07

momentum_buffer f4 [1, 1, 4]
000000 1e ea f6 b2 2b cd 85 b2 98 0f e0 b1 06 6e d3 32
       -2.8744633e-08 -1.5576537e-08 -6.521031e-09 2.4613666e-08
