saved_models/tb_logs/version_6/checkpoints/epoch=49-step=950.ckpt (torch, 248945 bytes, 100 tensors)

conv_layers.0.att_src f4 [1, 1, 4]
0	0xbe739172	-0.23785952
1	0xbe054fd0	-0.13018727
2	0x3f6cddd2	0.9252597
3	0x3ec61a0a	0.3869174

conv_layers.0.att_dst f4 [1, 1, 4]
0	0x3cd15c05	0.025556574
1	0xbda737df	-0.081649534
2	0xbf51a21a	-0.8188797
3	0x3d4c85ce	0.049932294

conv_layers.0.att_edge f4 [1, 1, 4]
0	0x3de705ca	0.11280401
1	0xbf4008f5	-0.7501367
2	0xbf78b621	-0.97152907
3	0x3e2d1f85	0.16906555

conv_layers.0.bias f4 [4]
0	0xbba586eb	-0.005051484
1	0x3ab07d94	0.001346516
2	0xbb8bd54f	-0.0042673717
3	0xbb1eda52	-0.0024239016

conv_layers.0.lin_src.weight f4 [4, 4]
0	0x3dd60dc5	0.10451845
1	0xbef61f1f	-0.4807062
2	0xbdc66dfa	-0.09688945
3	0x3f16ac75	0.588569
4	0xbe7af268	-0.24506533
5	0xbdfa6ba4	-0.12227562
6	0x3f1a4cfd	0.60273725
7	0xbf4b4026	-0.7939476
8	0xbe7c1058	-0.2461561
9	0xbe195306	-0.14973077
10	0xbe3e3f64	-0.18578869
11	0xbf23350b	-0.6375281
12	0xbe8c737a	-0.27431852
13	0x3ef3e0fc	0.47632587
14	0x3e02ce2e	0.12773964
15	0x3f5d394a	0.8641554

conv_layers.0.lin_dst.weight f4 [4, 4]
0	0x3dd60dc5	0.10451845
1	0xbef61f1f	-0.4807062
2	0xbdc66dfa	-0.09688945
3	0x3f16ac75	0.588569
4	0xbe7af268	-0.24506533
5	0xbdfa6ba4	-0.12227562
6	0x3f1a4cfd	0.60273725
7	0xbf4b4026	-0.7939476
8	0xbe7c1058	-0.2461561
9	0xbe195306	-0.14973077
10	0xbe3e3f64	-0.18578869
11	0xbf23350b	-0.6375281
12	0xbe8c737a	-0.27431852
13	0x3ef3e0fc	0.47632587
14	0x3e02ce2e	0.12773964
15	0x3f5d394a	0.8641554

conv_layers.0.lin_edge.weight f4 [4, 12]
0	0xbea8a7c9	-0.3294051
1	0x3e443615	0.19161256
2	0xbe70a439	-0.23500146
3	0xbda2ed9f	-0.07955479
4	0x3f11ae81	0.56906897
5	0x3f000bca	0.5001799
6	0x3ef3a186	0.4758417
7	0x3dcb3120	0.09921479
8	0xbf0440de	-0.5166148
9	0xbed0e532	-0.40799862
10	0xbf0c35b3	-0.5476944
11	0xbf0ce80f	-0.55041593
12	0x3f039945	0.51405746
13	0x3f113bfe	0.56732166
14	0x3edbaaca	0.4290374
15	0xbe880f46	-0.26574153
16	0xbf018974	-0.5060036
17	0x3e5f6c2b	0.21818607
18	0xbea8274c	-0.3284248
19	0xbebaddbc	-0.36497295
20	0xbf1b540d	-0.60675126
21	0xbeb8abe4	-0.36068642
22	0x3f134a63	0.5753538
23	0x3e891462	0.26773363
24	0x3d92a49d	0.07160304
25	0x3f115dcb	0.5678374
26	0x3e31a547	0.17348205
27	0x3e282474	0.16420156
28	0xbedb0e69	-0.42784432
29	0x3e7fc635	0.24977954
30	0x3e19f958	0.15036523
31	0x3e1ff19c	0.1561951
32	0xbe589668	-0.21151125
33	0x3b8a1c80	0.0042148232
34	0x3e510c40	0.20414829
35	0x3ed360b2	0.4128471
36	0x3df0b124	0.11752537
37	0xbebf1560	-0.37320995
38	0xbdd8f34e	-0.10593282
39	0xbe333d1e	-0.17503783
40	0xbf16d99a	-0.58925784
41	0xbee6ea40	-0.45100594
42	0xbdc5ab38	-0.09651798
43	0x3ef90d36	0.48642892
44	0x3dd6f058	0.10495061
45	0x3df1d678	0.11808485
46	0xbf0afd9a	-0.54293215
47	0x3deb0bc8	0.114768565

conv_layers.1.att_src f4 [1, 1, 4]
0	0x3f48f9b7	0.78506035
1	0x3f1dd9c1	0.6166039
2	0xbeca2deb	-0.39488158
3	0xbf68ad3e	-0.90889347

conv_layers.1.att_dst f4 [1, 1, 4]
0	0x3f8058fc	1.0027156
1	0x3f09c6c4	0.5381892
2	0x3e3a2108	0.18176663
3	0x3f7c7e60	0.9863033

conv_layers.1.att_edge f4 [1, 1, 4]
0	0x3f2cfc62	0.67572606
1	0xbf0a8997	-0.54116195
2	0x3e8f4307	0.27980825
3	0x3f00cbb6	0.5031084

conv_layers.1.bias f4 [4]
0	0x3cc07309	0.023492353
1	0x3c4145c9	0.011796423
2	0x3a67411f	0.00088216545
3	0x3b286297	0.002569353

conv_layers.1.lin_src.weight f4 [4, 4]
0	0x3e5f50f2	0.21808222
1	0xbcd05532	-0.02543125
2	0xbde5e2d2	-0.11224903
3	0xbec4686e	-0.38360924
4	0x3efaea48	0.49006867
5	0x3e381330	0.1797607
6	0xbe8f6ba2	-0.28011805
7	0xbc63dbb3	-0.013907361
8	0xbdeb8aa7	-0.11501055
9	0xbf2d15f3	-0.67611617
10	0xbe408365	-0.18800123
11	0xbf2b239b	-0.66851205
12	0xbc914dac	-0.017737232
13	0x3eab2d45	0.33432975
14	0x3e4ac810	0.1980288
15	0x3e480c31	0.195359

conv_layers.1.lin_dst.weight f4 [4, 4]
0	0x3e5f50f2	0.21808222
1	0xbcd05532	-0.02543125
2	0xbde5e2d2	-0.11224903
3	0xbec4686e	-0.38360924
4	0x3efaea48	0.49006867
5	0x3e381330	0.1797607
6	0xbe8f6ba2	-0.28011805
7	0xbc63dbb3	-0.013907361
8	0xbdeb8aa7	-0.11501055
9	0xbf2d15f3	-0.67611617
10	0xbe408365	-0.18800123
11	0xbf2b239b	-0.66851205
12	0xbc914dac	-0.017737232
13	0x3eab2d45	0.33432975
14	0x3e4ac810	0.1980288
15	0x3e480c31	0.195359

conv_layers.1.lin_edge.weight f4 [4, 12]
0	0xbd9912f4	-0.07474318
1	0xbf01b75f	-0.5067043
2	0x3e0e9bb4	0.13926584
3	0xbeedda84	-0.46455777
4	0x3ebfd443	0.3746663
5	0x3f069b6d	0.5258091
6	0x3f0ca2c9	0.5493589
7	0x3e923a06	0.28559893
8	0x3eabb8a4	0.33539307
9	0x3cb2b3c0	0.021814227
10	0xbebb39bc	-0.36567485
11	0xbecb0797	-0.39654228
12	0xbe477074	-0.19476491
13	0x3ec693ae	0.38784546
14	0xbebb1991	-0.36542943
15	0xbeb5562c	-0.35417306
16	0x3e6b744e	0.22993585
17	0xbec0e70b	-0.37676272
18	0xbe93d23c	-0.28871334
19	0xbea99cd8	-0.33127475
20	0x3e5e4c38	0.21708763
21	0xbecace5a	-0.3961056
22	0xbf018102	-0.50587475
23	0xbdf61d18	-0.12017268
24	0x3eddaddc	0.43296707
25	0x3ee5e1d3	0.44898853
26	0xbe577997	-0.21042477
27	0xbe062b8c	-0.1310255
28	0xbdca5ae1	-0.09880615
29	0xbea306d7	-0.31841156
30	0x3e380478	0.17970455
31	0x3ede9f7a	0.43481046
32	0x3d94d308	0.072668135
33	0xbe5d87ee	-0.21633884
34	0xbedb225c	-0.42799652
35	0x3f057db5	0.5214494
36	0xbf1773de	-0.59161174
37	0x3e91886e	0.284244
38	0xbf0d18fc	-0.5511625
39	0xbef71e90	-0.48265505
40	0x3efb2f2b	0.49059424
41	0xbefa497c	-0.4888419
42	0x3ea8d900	0.32978058
43	0x3e778438	0.24171531
44	0x3f0b0259	0.5430046
45	0x3f0110bf	0.5041618
46	0xbeacf5f4	-0.33781397
47	0xbeaff8fb	-0.34369645

transf_layers.0.weight f4 [4, 4]
0	0xbec59417	-0.38589546
1	0xbe1bff39	-0.15234078
2	0x3b308e93	0.002694045
3	0x3ef72063	0.48266897
4	0x3e98735b	0.2977551
5	0xbe0fab21	-0.14030124
6	0x3ed3c72b	0.4136289
7	0x3e4650e6	0.19366798
8	0x3e7c9534	0.24666291
9	0xbefa1de9	-0.48850945
10	0x3d055fb4	0.032561973
11	0x3ed8caea	0.4234231
12	0xbd1ddd59	-0.03854117
13	0x3c7fb4ed	0.015607101
14	0x3ec08603	0.37602243
15	0x3ed5d218	0.4176185

transf_layers.0.bias f4 [4]
0	0xbbe3d7b8	-0.006953206
1	0xbee2b7de	-0.44280905
2	0xbd88828b	-0.06665524
3	0x3e5395d1	0.20662619

transf_layers.1.weight f4 [4, 4]
0	0x3e8a0c39	0.2696245
1	0x3d3f0a97	0.04664096
2	0x3e751008	0.23931897
3	0x3ee153ba	0.4400919
4	0xbea6b263	-0.32557973
5	0xbe26a8d8	-0.16275346
6	0xbab6893f	-0.00139264
7	0xbd3018e6	-0.042992495
8	0xbee3b3a0	-0.4447298
9	0xbe9ff655	-0.31242624
10	0xbd73969c	-0.059469804
11	0x3e8e20f8	0.27759528
12	0xbe75579c	-0.23959202
13	0xbdd67f4d	-0.104734994
14	0x3d8ef0b2	0.06979503
15	0xbd656483	-0.05600406

transf_layers.1.bias f4 [4]
0	0xbd843c67	-0.06456833
1	0xbd804e06	-0.06264882
2	0xbeb3b45f	-0.3509855
3	0xbeb2895e	-0.34870428

bn_layers.0.weight f4 [4]
0	0x3f800000	1.0
1	0x3f800000	1.0
2	0x3f800000	1.0
3	0x3f800000	1.0

bn_layers.0.bias f4 [4]
0	0x00000000	0.0
1	0x00000000	0.0
2	0x00000000	0.0
3	0x00000000	0.0

bn_layers.0.running_mean f4 [4]
0	0x00000000	0.0
1	0x00000000	0.0
2	0x00000000	0.0
3	0x00000000	0.0

bn_layers.0.running_var f4 [4]
0	0x3f800000	1.0
1	0x3f800000	1.0
2	0x3f800000	1.0
3	0x3f800000	1.0

bn_layers.1.weight f4 [4]
0	0x3f800000	1.0
1	0x3f800000	1.0
2	0x3f800000	1.0
3	0x3f800000	1.0

bn_layers.1.bias f4 [4]
0	0x00000000	0.0
1	0x00000000	0.0
2	0x00000000	0.0
3	0x00000000	0.0

bn_layers.1.running_mean f4 [4]
0	0x00000000	0.0
1	0x00000000	0.0
2	0x00000000	0.0
3	0x00000000	0.0

bn_layers.1.running_var f4 [4]
0	0x3f800000	1.0
1	0x3f800000	1.0
2	0x3f800000	1.0
3	0x3f800000	1.0

conv1.att_src f4 [1, 1, 4]
0	0x3cd2720e	0.025689151
1	0xbead966b	-0.33903822
2	0x3f831484	1.0240636
3	0xbf1baa59	-0.60806805

conv1.att_dst f4 [1, 1, 4]
0	0x3f3f0c7b	0.7462842
1	0x3f86a228	1.0518236
2	0x3f147946	0.5799755
3	0x3dcf2052	0.101135865

conv1.att_edge f4 [1, 1, 4]
0	0x3f2c3ed0	0.67283344
1	0x3df734df	0.12070631
2	0xbf8773da	-1.058223
3	0x3f852986	1.0403297

conv1.bias f4 [4]
0	0xb8ca3a0a	-9.642921e-05
1	0x3908b4be	0.00013037302
2	0xbab98721	-0.0014154651
3	0xbabab1e0	-0.0014243685

conv1.lin_src.weight f4 [4, 3]
0	0xbf39868a	-0.72470915
1	0xbe526df5	-0.20549758
2	0x3e76d2ed	0.241039
3	0xbe925226	-0.285783
4	0x3f25a1f6	0.6470026
5	0xbe0bdb02	-0.13657764
6	0x3e2cfbfb	0.16892998
7	0x3f3fbe77	0.749
8	0xbe2141d8	-0.15747774
9	0x3f5c3d9c	0.8603151
10	0x3edef4a9	0.43546036
11	0x3dc520e9	0.09625418

conv1.lin_dst.weight f4 [4, 3]
0	0xbf39868a	-0.72470915
1	0xbe526df5	-0.20549758
2	0x3e76d2ed	0.241039
3	0xbe925226	-0.285783
4	0x3f25a1f6	0.6470026
5	0xbe0bdb02	-0.13657764
6	0x3e2cfbfb	0.16892998
7	0x3f3fbe77	0.749
8	0xbe2141d8	-0.15747774
9	0x3f5c3d9c	0.8603151
10	0x3edef4a9	0.43546036
11	0x3dc520e9	0.09625418

conv1.lin_edge.weight f4 [4, 12]
0	0x3d0cc69b	0.034369092
1	0x3f089d57	0.5336508
2	0xbe89afe3	-0.26892003
3	0xbf128ef5	-0.57249385
4	0xbd3cca8b	-0.046091598
5	0xbe3efd6c	-0.1865136
6	0x3b114500	0.0022166371
7	0xbeca77a5	-0.39544407
8	0xbf17b611	-0.59262186
9	0x3df769b8	0.12080711
10	0xbd78a010	-0.060699522
11	0xbdf768d8	-0.12080544
12	0xbe913ebb	-0.28368172
13	0x3e85da27	0.26143
14	0x3e2c4739	0.16824044
15	0x3e9a1ecb	0.30101618
16	0x3f14beef	0.5810384
17	0x3f178645	0.59189254
18	0xbecf7614	-0.40519774
19	0xbe9779c2	-0.2958508
20	0xbeaf9a0b	-0.34297213
21	0xbea01463	-0.31265554
22	0x3ee57f82	0.44823843
23	0x3dc16170	0.09442413
24	0xbd48174a	-0.048850335
25	0xbeec88eb	-0.4619821
26	0xbe038f01	-0.1284752
27	0x3ecf0f82	0.4044152
28	0x3f0a969b	0.54136056
29	0x3e4e98da	0.20175496
30	0xbf0dc578	-0.5537944
31	0x3ef1f3f2	0.47256428
32	0xbf163304	-0.58671594
33	0x3ece401e	0.40283293
34	0x3e9a838a	0.3017848
35	0xbe0e6a22	-0.13907674
36	0xbf0709be	-0.5274924
37	0xbea97ecd	-0.33104554
38	0x3ebe4eb7	0.3716943
39	0x3dde0124	0.10840061
40	0xbddb2222	-0.1069987
41	0xbf13dc53	-0.57758063
42	0xbe8f57dd	-0.27996722
43	0xbc29b440	-0.010357916
44	0x3e49cf7c	0.19708055
45	0xbedb2048	-0.42798066
46	0x3e3f04b8	0.18654144
47	0x3f009369	0.5022493

transf1.weight f4 [4, 4]
0	0x3edd34c9	0.43204334
1	0xbed311e4	-0.41224587
2	0x3eb76554	0.35819495
3	0x3de648b6	0.11244337
4	0xbeeaea5b	-0.45881924
5	0xbe2f130a	-0.17097107
6	0xbec8fcc1	-0.39255336
7	0xbdf7ed5c	-0.121058196
8	0xbd9b00e4	-0.07568529
9	0x3eecd43a	0.46255666
10	0xbe68ca59	-0.2273344
11	0xbe05b3ba	-0.13056841
12	0xbcfe43de	-0.031038221
13	0x3dd5a6e5	0.10432223
14	0x3e9abdb4	0.30222857
15	0x3ebdeb8c	0.3709377

transf1.bias f4 [4]
0	0x3eddf1c0	0.43348503
1	0x3dc71772	0.09721269
2	0x3e5ab047	0.21356307
3	0x3e213562	0.1574302

bn1.weight f4 [4]
0	0x3f800000	1.0
1	0x3f800000	1.0
2	0x3f800000	1.0
3	0x3f800000	1.0

bn1.bias f4 [4]
0	0x00000000	0.0
1	0x00000000	0.0
2	0x00000000	0.0
3	0x00000000	0.0

bn1.running_mean f4 [4]
0	0x00000000	0.0
1	0x00000000	0.0
2	0x00000000	0.0
3	0x00000000	0.0

bn1.running_var f4 [4]
0	0x3f800000	1.0
1	0x3f800000	1.0
2	0x3f800000	1.0
3	0x3f800000	1.0

pool1.weight f4 [1, 4]
0	0x3e1434fc	0.14473337
1	0xbcde5580	-0.027140379
2	0xbdd1d4d8	-0.10245675
3	0xbe191340	-0.1494875

conv_fin.att_src f4 [1, 1, 8]
0	0xbd9dd288	-0.07706171
1	0x3ed3e93d	0.41388884
2	0xbf214802	-0.630005
3	0xbe8105c5	-0.25199714
4	0x3e51ac8b	0.20475976
5	0x3eec5958	0.46161914
6	0xbef061ca	-0.46949607
7	0xbf056370	-0.52104855

conv_fin.att_dst f4 [1, 1, 8]
0	0x3ee71e5f	0.4514036
1	0x3eb357a5	0.35027805
2	0x3dfa73af	0.12229096
3	0x3e4be5e0	0.19911909
4	0x3f37f133	0.71852416
5	0xbd6c5c76	-0.057705365
6	0xbd788996	-0.060678087
7	0x3f02f68e	0.5115746

conv_fin.att_edge f4 [1, 1, 8]
0	0x3ea8d49d	0.3297471
1	0xbf46e6e8	-0.77696085
2	0xbdd59c97	-0.10430258
3	0xbf14410e	-0.57911766
4	0xbe7a8630	-0.24465251
5	0x3d99527d	0.074864365
6	0xbf283afa	-0.6571499
7	0x3ef29fbb	0.4738749

conv_fin.bias f4 [8]
0	0x3bfab91c	0.0076514613
1	0xbc128736	-0.00894337
2	0xbba99861	-0.0051756357
3	0x3bb39ebb	0.0054815686
4	0x3c9baea9	0.019004183
5	0xbcabd4a3	-0.020975417
6	0xbbeb40d7	-0.0071793604
7	0xbb9bd98b	-0.0047561578

conv_fin.lin_src.weight f4 [8, 4]
0	0x3ea6d7a9	0.3258641
1	0x3eccaf8a	0.39977676
2	0xbe015214	-0.12628967
3	0x3d2d207a	0.0422673
4	0x3f155610	0.58334446
5	0x3f065bc8	0.524838
6	0x3e82328b	0.25429186
7	0x3e7796bf	0.24178599
8	0xbefa8fb5	-0.48937765
9	0xbed76fe6	-0.4207756
10	0x3f30aa0f	0.6900949
11	0x3f2620cc	0.64893794
12	0x3e004644	0.12526804
13	0x3ef0527d	0.46937934
14	0xbe373bb2	-0.17893866
15	0xbd746941	-0.05967069
16	0x3e6cf726	0.23141155
17	0xbebb1afe	-0.3654403
18	0x3e1916d3	0.14950113
19	0xbe3dd4ed	-0.18538256
20	0x3ee57164	0.44813073
21	0xbe49dac3	-0.19712357
22	0x3f0fb803	0.56140155
23	0x3e747886	0.23874101
24	0xbe12dfd4	-0.14343196
25	0x3f213e6d	0.6298588
26	0xbea5511e	-0.3228845
27	0x3eb30922	0.34967905
28	0xbde5e361	-0.1122501
29	0xbe77bacb	-0.2419235
30	0xbc56aedb	-0.013103212
31	0x3f16a413	0.5884411

conv_fin.lin_dst.weight f4 [8, 4]
0	0x3ea6d7a9	0.3258641
1	0x3eccaf8a	0.39977676
2	0xbe015214	-0.12628967
3	0x3d2d207a	0.0422673
4	0x3f155610	0.58334446
5	0x3f065bc8	0.524838
6	0x3e82328b	0.25429186
7	0x3e7796bf	0.24178599
8	0xbefa8fb5	-0.48937765
9	0xbed76fe6	-0.4207756
10	0x3f30aa0f	0.6900949
11	0x3f2620cc	0.64893794
12	0x3e004644	0.12526804
13	0x3ef0527d	0.46937934
14	0xbe373bb2	-0.17893866
15	0xbd746941	-0.05967069
16	0x3e6cf726	0.23141155
17	0xbebb1afe	-0.3654403
18	0x3e1916d3	0.14950113
19	0xbe3dd4ed	-0.18538256
20	0x3ee57164	0.44813073
21	0xbe49dac3	-0.19712357
22	0x3f0fb803	0.56140155
23	0x3e747886	0.23874101
24	0xbe12dfd4	-0.14343196
25	0x3f213e6d	0.6298588
26	0xbea5511e	-0.3228845
27	0x3eb30922	0.34967905
28	0xbde5e361	-0.1122501
29	0xbe77bacb	-0.2419235
30	0xbc56aedb	-0.013103212
31	0x3f16a413	0.5884411

conv_fin.lin_edge.weight f4 [8, 12]
0	0x3eebc2b9	0.46047
1	0xbdb2d07e	-0.08731173
2	0x3debf45c	0.11521217
3	0x3d8a6564	0.0675762
4	0xbe0b2388	-0.13587773
5	0xbe0749c6	-0.13211736
6	0x3f03a1d4	0.51418805
7	0xbea3d70c	-0.32000005
8	0x3ef5fc34	0.48043978
9	0xbef267bc	-0.47344768
10	0x3e9f5c64	0.31125176
11	0xbee593f8	-0.44839454
12	0x3e9d7189	0.30750683
13	0x3de0769d	0.10960124
14	0x3e2a0666	0.16604003
15	0xbe86330a	-0.26210815
16	0xbe4e5743	-0.20150475
17	0x3de02d17	0.109461
18	0xbf00fedd	-0.5038889
19	0xbc54be40	-0.012984812
20	0xbeb55db7	-0.3542306
21	0xbd40b850	-0.047050774
22	0xbedda853	-0.43292484
23	0xbf0adcdc	-0.54243255
24	0x3e9ad603	0.30241403
25	0xbe12b4af	-0.14326738
26	0xbf030313	-0.51176566
27	0xbe7eb54f	-0.24873851
28	0x3e8ead4d	0.27866593
29	0x3ea4aa2c	0.3216108
30	0x3ee9246c	0.455356
31	0xbe083a5a	-0.1330351
32	0x3c6ccf00	0.0144536495
33	0x3e3545f8	0.17702472
34	0xbebf4444	-0.3735677
35	0xbd587008	-0.052841216
36	0x3e15426a	0.14576116
37	0x3df39595	0.11893765
38	0x3e3824be	0.17982766
39	0xbeca9c2b	-0.39572272
40	0xbed520c1	-0.41626552
41	0x3dfd25b7	0.12360709
42	0xbed8df16	-0.423577
43	0xbec93a4b	-0.39302287
44	0x3eb589a6	0.3545658
45	0x3e719f08	0.23595822
46	0xbeb6d4d6	-0.35709256
47	0x3e66a6f4	0.22524625
48	0x3dabbf08	0.08386046
49	0x3e0b903b	0.13629238
50	0xbeb911c5	-0.3614637
51	0x3ea95cc8	0.330786
52	0x3ebad7c3	0.36492738
53	0xbecc8882	-0.39947897
54	0x3f057f06	0.5214695
55	0xbe3c3402	-0.18379214
56	0x3df01460	0.11722636
57	0x3e9f3e34	0.31102145
58	0xbe93626d	-0.2878603
59	0xbe012402	-0.12611392
60	0x3e9e733e	0.30947298
61	0x3daa6ef4	0.08321944
62	0x3e8a4548	0.27005982
63	0xbe57cf1e	-0.21075103
64	0x3f0a3945	0.53993636
65	0xbec170ac	-0.37781274
66	0x3ee0130a	0.43764526
67	0x3e10f694	0.14156562
68	0xbe7e6c00	-0.24845886
69	0x3eb4ecb6	0.35336846
70	0x3e010470	0.12599349
71	0x3d21e290	0.039522707
72	0xbe91f9cb	-0.2851089
73	0xbdc45cca	-0.095880106
74	0x3e34c544	0.17653376
75	0xbef78b59	-0.483485
76	0x3ea5e722	0.32402903
77	0xbea2d1e6	-0.31800765
78	0xbe74d89e	-0.23910758
79	0xbee92e99	-0.45543364
80	0xbef6a7db	-0.4817494
81	0xbe82be5c	-0.25535858
82	0x3e89eb72	0.26937443
83	0x3d7e8b20	0.0621444
84	0x3e9e9bbb	0.30978188
85	0xbf0a4598	-0.5401244
86	0x3e9a2b8e	0.30111355
87	0xbdbcc68e	-0.09217559
88	0xbdedf139	-0.11618275
89	0x3e8428fc	0.2581252
90	0xbe5cb0b6	-0.21551785
91	0x3e89d1e4	0.26917946
92	0xbe476990	-0.19473863
93	0x3dd10620	0.102062464
94	0x3f0bd3d2	0.5462009
95	0x3e2310b0	0.15924335

transf_fin.weight f4 [8, 8]
0	0xbe90698a	-0.2820552
1	0xbde1dec5	-0.11028818
2	0x3e8084da	0.25101358
3	0xbe60ff20	-0.21972322
4	0x3c8ae7da	0.016956259
5	0x3e98e7e9	0.29864433
6	0xbe38ce52	-0.18047455
7	0x3eb0a18c	0.3449825
8	0x3e6c4d14	0.23076278
9	0x3d3b032e	0.04565733
10	0xbe869690	-0.26286745
11	0x3d2a70b2	0.04161138
12	0xbea6ccfb	-0.32578263
13	0x3e11ae10	0.14226556
14	0x3dd92620	0.10602975
15	0xbe57879b	-0.21047823
16	0x3dd168bc	0.102250546
17	0xbd860fdb	-0.06545993
18	0xbde9b2d4	-0.11411062
19	0x3d1a9040	0.037735224
20	0x3e74a15e	0.23889682
21	0xbe8967fc	-0.26837146
22	0xbdc9ffd6	-0.0986325
23	0xbe4f1e57	-0.20226417
24	0xbd78f9d0	-0.060785115
25	0xbe975778	-0.2955892
26	0x3e24c154	0.16089374
27	0xbd82090f	-0.06349384
28	0xbe3b1f5c	-0.18273681
29	0x3d50cdcc	0.050977513
30	0x3e49fca8	0.19725287
31	0x3e7fb79d	0.24972387
32	0xbe2c8677	-0.1684817
33	0x3d75cb63	0.060008418
34	0xbe313772	-0.17306307
35	0xbe2a6b52	-0.16642502
36	0xbe871424	-0.26382554
37	0x3e3746b3	0.17898063
38	0x3cba35e4	0.022730775
39	0xbe359283	-0.17731671
40	0xbe6f3084	-0.23358351
41	0xbeb3f351	-0.35146573
42	0xbeb33031	-0.34997705
43	0xbbe6c1a5	-0.007042127
44	0x3e3158a6	0.17318973
45	0xba7af4fd	-0.0009573249
46	0xbea07c0f	-0.3134465
47	0x3e6f64f5	0.23378356
48	0xbdda8e86	-0.106717154
49	0x3e95e4cd	0.29276124
50	0x3e61c4d0	0.22047734
51	0x3e3cb702	0.18429187
52	0x3e7ad5c2	0.24495605
53	0xbe04eddd	-0.12981363
54	0x3e775bfe	0.24156186
55	0xbe4cf1f6	-0.20014176
56	0x3e889b84	0.2668115
57	0x3eb06e2d	0.34459057
58	0x3ea4bd64	0.32175744
59	0xbd83f2ef	-0.0644282
60	0xbc1875a9	-0.009305396
61	0x3eaead29	0.34116486
62	0x3b76febc	0.0037688455
63	0xbe079e55	-0.13243993

transf_fin.bias f4 [8]
0	0x3e5f6b1b	0.21818201
1	0xbe21ca94	-0.15799934
2	0x3ed9a14b	0.4250587
3	0xbda97a32	-0.0827526
4	0x3e6a73cd	0.22895737
5	0xbe958662	-0.29204088
6	0xbe8a7e45	-0.2704946
7	0xbe33ea44	-0.17569834

bn_fin.weight f4 [8]
0	0x3f800000	1.0
1	0x3f800000	1.0
2	0x3f800000	1.0
3	0x3f800000	1.0
4	0x3f800000	1.0
5	0x3f800000	1.0
6	0x3f800000	1.0
7	0x3f800000	1.0

bn_fin.bias f4 [8]
0	0x00000000	0.0
1	0x00000000	0.0
2	0x00000000	0.0
3	0x00000000	0.0
4	0x00000000	0.0
5	0x00000000	0.0
6	0x00000000	0.0
7	0x00000000	0.0

bn_fin.running_mean f4 [8]
0	0x00000000	0.0
1	0x00000000	0.0
2	0x00000000	0.0
3	0x00000000	0.0
4	0x00000000	0.0
5	0x00000000	0.0
6	0x00000000	0.0
7	0x00000000	0.0

bn_fin.running_var f4 [8]
0	0x3f800000	1.0
1	0x3f800000	1.0
2	0x3f800000	1.0
3	0x3f800000	1.0
4	0x3f800000	1.0
5	0x3f800000	1.0
6	0x3f800000	1.0
7	0x3f800000	1.0

pool_fin.weight f4 [1, 8]
0	0x3e32118e	0.17389509
1	0xbd42d270	-0.04756397
2	0xbea4b36e	-0.32168144
3	0xbdc2b6ac	-0.09507498
4	0xbe35e7b3	-0.17764167
5	0xbe4d0da9	-0.20024742
6	0xbcc3a660	-0.023883045
7	0xbe859d9b	-0.26096806

linear0.weight f4 [128, 10]
0	0xbdcd1eab	-0.10015615
1	0x3c9dcf81	0.019263985
2	0xbc85711e	-0.01628929
3	0xbde4564e	-0.11149274
4	0x3dba7b29	0.09105522
5	0xbe07ec81	-0.13273813
6	0x3e1cb048	0.15301621
7	0xbe6f3f10	-0.233639
8	0x3b359e28	0.0027712677
9	0xbd8d2264	-0.06891325
10	0x3e2ffbd9	0.17185916
11	0xbe35b661	-0.17745353
12	0x3cda109e	0.026619252
13	0xbd8582bd	-0.06519077
14	0xbea29ae4	-0.31758797
15	0x3e6dec45	0.23234661
16	0xbe452f4c	-0.19256324
17	0x3dbaed2f	0.091272704
18	0xbd9a495a	-0.07533522
19	0x3eb02726	0.34404868
20	0x3dcb9414	0.09940353
21	0x3e9046fb	0.28179154
22	0xbe49a84f	-0.19693111
23	0x3e5bc1f1	0.21460702
24	0x3c13d7f1	0.009023652
25	0xbbd3553b	-0.0064493692
26	0xbd62659f	-0.055272695
27	0xbe8210ce	-0.25403446
28	0x3e1e0c5e	0.15434405
29	0xbe11ba7f	-0.14231299
30	0x3e40226e	0.18763134
31	0xbe90d56a	-0.28287822
32	0x3d6ce908	0.057839423
33	0xbdf078ab	-0.117417656
34	0x3db9febd	0.090817906
35	0xbe133110	-0.14374185
36	0x3d068160	0.032838225
37	0xbdfa4c09	-0.12221534
38	0xbdb02965	-0.086016454
39	0xbc9fc179	-0.019501435
40	0xbdef4f6d	-0.11685071
41	0x3e9edd37	0.3102815
42	0xbe6151c9	-0.22003855
43	0xbe492b04	-0.19645315
44	0x3de90367	0.11377602
45	0xbd356f7c	-0.044295773
46	0xbe80abe3	-0.2513114
47	0xbe0cb828	-0.13742125
48	0xbce3b889	-0.027797954
49	0xbddab52a	-0.106790856
50	0xbe2b7398	-0.16743314
51	0xbe7ef939	-0.24899758
52	0xbdd5d444	-0.10440877
53	0x3ca08358	0.01959388
54	0xbe771dab	-0.24132411
55	0x3e6f4247	0.23365127
56	0x3ddef8e1	0.10887314
57	0xbe3f3d6d	-0.18675776
58	0xbe6f86a3	-0.23391204
59	0x3ed02599	0.40653685
60	0x3c916439	0.017747985
61	0xbde952b3	-0.11392727
62	0xbe806731	-0.2507873
63	0x3de116be	0.10990666
64	0x3cabdb40	0.02097857
65	0xbda124ab	-0.07868322
66	0x3da42c73	0.080162905
67	0xbe9f35a1	-0.31095603
68	0x3e134c95	0.14384682
69	0xbe0e27cb	-0.13882367
70	0xbd5de081	-0.05416918
71	0xbe0bdee0	-0.13659239
72	0xbcd83c3a	-0.026395906
73	0xbd048e93	-0.032362532
74	0xbe5ea63d	-0.21743102
75	0xbe0ddcd8	-0.13853776
76	0x3e9ddfca	0.308348
77	0x3e92ac1e	0.2864694
78	0x3e0322a8	0.12806189
79	0xbe0a0613	-0.1347888
80	0xbe8cbf66	-0.27489775
81	0x3c6bc832	0.014390992
82	0x3dbde16d	0.09271512
83	0x3d293184	0.041306987
84	0x3c8410d1	0.0161213
85	0x3e9e2cc0	0.30893517
86	0xbd58e7a7	-0.052955296
87	0x3d92bfc0	0.0716548
88	0x3e59d16e	0.21271297
89	0x3c1d7833	0.009611177
90	0x3e079dbc	0.13243765
91	0xbe0955ca	-0.13411632
92	0xbe894fef	-0.26818797
93	0xbdd9fa50	-0.106434464
94	0xbe6245a4	-0.22096878
95	0x3e2989a7	0.16556416
96	0x3e96f278	0.29481864
97	0xbe2d7be0	-0.16941786
98	0xbd98ae0d	-0.074550726
99	0x3e88abeb	0.26693663
100	0xbe9141c5	-0.2837049
101	0x3e12717c	0.14301103
102	0xbd3808a9	-0.044930134
103	0x3cda3a9b	0.026639273
104	0x3d6bebe9	0.05759803
105	0x3e4831a9	0.19550194
106	0x3e5e09b9	0.21683396
107	0x3ddbe7e4	0.10737589
108	0x3d803927	0.06260901
109	0xbddfea16	-0.1093332
110	0xbcc230f3	-0.023704981
111	0xbe84ebf7	-0.25961277
112	0xbe8601ed	-0.26173344
113	0xbd0df95c	-0.034661636
114	0x3e2bd2df	0.1677966
115	0x3df7d5a3	0.12101295
116	0xbdf057eb	-0.11735519
117	0x3d9ed1c0	0.077548504
118	0x3c92d1a2	0.017922226
119	0xbdd16592	-0.10224451
120	0xbdf8a4be	-0.12140797
121	0xbe2db569	-0.16963734
122	0xbd14e266	-0.036348723
123	0x3cf05043	0.029335147
124	0xbe804047	-0.2504904
125	0xbe3d3f58	-0.18481195
126	0xbe6fbeeb	-0.23412673
127	0x3e9197b5	0.28436056
128	0x3d34414b	0.04400758
129	0x3ed89ed8	0.42308688
130	0xbd76c4a5	-0.06024613
131	0x3e972576	0.29520768
132	0xbccce462	-0.025011245
133	0xbdd5dda3	-0.104426645
134	0x3cb82d66	0.022482585
135	0xbe52c1fe	-0.20581815
136	0x3e878136	0.26465768
137	0xbe20fd8f	-0.15721725
138	0x3e8a870f	0.27056167
139	0xbd35c7c3	-0.04437996
140	0x3e65b92c	0.22433919
141	0x3e6e0609	0.2324449
142	0xbd138ae8	-0.036021143
143	0xbd6504a8	-0.055912644
144	0xbd945342	-0.07242443
145	0xbe4019a0	-0.18759775
146	0x3c9f0732	0.01941261
147	0xbe505131	-0.20343472
148	0x3e1273dc	0.1430201
149	0x3e9ba54f	0.30399558
150	0xbe9f0e4c	-0.31065595
151	0x3e2de42f	0.16981576
152	0xbd8d199d	-0.06889651
153	0xbdd2a791	-0.10285867
154	0xbe94151b	-0.28922352
155	0xbd4a7e72	-0.049436994
156	0xbe83df0b	-0.25756106
157	0xbe281652	-0.16414765
158	0xbe9589c6	-0.29206675
159	0xbe710ed4	-0.23540813
160	0xbe7f6b7b	-0.24943344
161	0xbe58a3f0	-0.21156287
162	0x3e276bc5	0.16349705
163	0x3dbc465b	0.09193107
164	0x3de233be	0.11045025
165	0x3dd37dcd	0.10326729
166	0xbe2e75e7	-0.17037164
167	0xbdcd9c81	-0.100396164
168	0x3e9efbe6	0.31051558
169	0xbf01ce7b	-0.5070569
170	0x3e3d854f	0.18507884
171	0x3c6766ff	0.014123677
172	0x3e6acdf1	0.22930123
173	0xbbff2046	-0.0077858297
174	0xbe80ae02	-0.25132757
175	0x3e2f45bd	0.17116447
176	0x3e589965	0.21152265
177	0xbe9c3c56	-0.30514783
178	0xbe3b0075	-0.18261893
179	0xbe9c540c	-0.30532873
180	0xbe677863	-0.22604518
181	0x3d5c4506	0.053776763
182	0x3d8220e1	0.063539274
183	0xbd3823cc	-0.044956014
184	0xbde81bd0	-0.1133343
185	0xbcae38f7	-0.021267397
186	0xbe21dfa1	-0.15807964
187	0xbdc3b99d	-0.09556887
188	0xbd0cda70	-0.034388006
189	0xbe655815	-0.22396882
190	0x3decf893	0.11570849
191	0xbe99785e	-0.29974645
192	0x3e2803d3	0.16407709
193	0x3e91563b	0.283861
194	0xbdd36224	-0.10321453
195	0xbe63da0b	-0.22251146
196	0x3d44587a	0.04793594
197	0x3e678876	0.2261065
198	0xbe74d964	-0.23911053
199	0xbf0bf69f	-0.5467319
200	0xbe08c335	-0.13355716
201	0xbe9ce05b	-0.3063992
202	0xbe53c3b8	-0.2068013
203	0xbe93d920	-0.2887659
204	0x3e4ab1c3	0.19794373
205	0x3d837a18	0.06419772
206	0x3e6b3e9e	0.22973105
207	0x3e237fe4	0.15966755
208	0xbd8b5e3d	-0.06805084
209	0xbe4550da	-0.19269124
210	0xbd999dce	-0.07500802
211	0x3e1b6f34	0.1517914
212	0xbe6b8980	-0.23001671
213	0xbe0a48aa	-0.13504282
214	0xbe2cad6c	-0.1686303
215	0x3e5576d9	0.20846118
216	0xbd8cb80e	-0.06871043
217	0xbe3bb263	-0.18329768
218	0xbe7de655	-0.24794896
219	0x3e2c5e69	0.1683289
220	0xbdb6b208	-0.089206755
221	0x3da511a8	0.08060008
222	0x3c95787c	0.018245928
223	0xbe00cc8a	-0.12578025
224	0x3b83616a	0.0040094154
225	0x3e7c9074	0.2466448
226	0x3e330ab5	0.17484553
227	0x3e93b980	0.28852463
228	0xbdaa3107	-0.083101325
229	0x3d8a4478	0.06751341
230	0xbdca2d79	-0.098719545
231	0xbde9001a	-0.113769725
232	0x3e301b5f	0.17197941
233	0xbe844f79	-0.25841883
234	0xbe1bba79	-0.15207852
235	0x3ce5e11d	0.028061444
236	0xbd774fc1	-0.060378794
237	0xbd7ce256	-0.06173929
238	0x3de76ae4	0.11299685
239	0xbe00355b	-0.12520353
240	0xbd94cc95	-0.072655834
241	0xbd57f4bd	-0.052723635
242	0xbe1df6bd	-0.15426154
243	0x3e7fe1a5	0.2498842
244	0x3dd2b811	0.10289014
245	0xbe3289e9	-0.17435421
246	0xbe92fbff	-0.28707883
247	0xbe82c749	-0.25542668
248	0xbe6201bc	-0.22070974
249	0xbe96dfa8	-0.2946751
250	0x3e073c84	0.13206679
251	0x3e552dcc	0.20818251
252	0xbe9a6950	-0.30158472
253	0x3e256290	0.1615088
254	0xbe9f4a65	-0.31111446
255	0xbe83bc2a	-0.25729495

linear0.bias f4 [128]
0	0x3e83e6dc	0.2576207
1	0x3e016be0	0.12638807
2	0xbe952b57	-0.29134628
3	0xbe38e6f7	-0.18056856
4	0x3cbebdbc	0.023283832
5	0x3e412aaa	0.18863931
6	0xbd028eff	-0.031874653
7	0xbd275cee	-0.04086011
8	0xbe718aa7	-0.23588048
9	0x3dc10345	0.09424452
10	0x3e5ff370	0.21870208
11	0x3d6fdf6a	0.058562674
12	0xbdd0e12b	-0.101991974
13	0x3dbd802d	0.09252963
14	0xbe93016e	-0.28712028
15	0x3e15511f	0.14581726
16	0x3d56a787	0.05240586
17	0xbe929c32	-0.28634793
18	0xbe004ea7	-0.12530003
19	0x3e1b241e	0.15150496
20	0x3d876bb7	0.06612342
21	0x3e701128	0.23444045
22	0xbe036769	-0.12832417
23	0xbd8fc3e4	-0.07019785
24	0xbdc8239c	-0.09772417
25	0x3e74effd	0.23919673
26	0x3e5b4d75	0.21416266
27	0xbe308556	-0.17238364
28	0xbe2fdc48	-0.17173874
29	0xbe81d95e	-0.2536115
30	0xbe93a1a6	-0.28834265
31	0x3e65b0aa	0.22430673
32	0x3c6afa1b	0.014341856
33	0x3e6bc40a	0.23024002
34	0xbc868237	-0.016419513
35	0x3dd58352	0.10425438
36	0x3e84d290	0.25941896
37	0xbd22e5e3	-0.03977002
38	0xbe4c3a66	-0.19944152
39	0x3e237564	0.1596275
40	0xbecb092a	-0.3965543
41	0xbed23518	-0.41056132
42	0xbe6a1c9e	-0.22862479
43	0x3d7cff0b	0.061766665
44	0xbe0225a3	-0.1270967
45	0xbe390272	-0.18067339
46	0x3de2c8ba	0.11073442
47	0x3e8f5617	0.2799537
48	0xbe918dc6	-0.28428477
49	0xbd820713	-0.063490056
50	0xbc60569d	-0.013692525
51	0xbdefbffd	-0.11706541
52	0xbe890f05	-0.26769271
53	0xbe807dd7	-0.25096008
54	0x3e8465aa	0.25858814
55	0x3d312f83	0.0432582
56	0x3e75e238	0.24012077
57	0xbe430b3f	-0.19047259
58	0xbe666d5e	-0.22502658
59	0x3c815874	0.015789248
60	0xbe192c13	-0.14958219
61	0x3e366bcf	0.17814563
62	0xbdcda1fd	-0.100406624
63	0x3e72b374	0.23701268
64	0xbce4179e	-0.027843293
65	0xbd024f8a	-0.031814136
66	0x3cbb4337	0.022859199
67	0xbeda8c97	-0.42685387
68	0xbda5b9af	-0.08092057
69	0xbe9c35ee	-0.30509895
70	0x3e97c405	0.2964174
71	0xbe0f49dd	-0.1399302
72	0x3eaf13ad	0.341947
73	0x3dfcda6f	0.123463504
74	0xbe6551be	-0.22394463
75	0xbd5a93d0	-0.05336362
76	0x3d907b91	0.070548184
77	0xbd444c9a	-0.047924615
78	0xbe9d629c	-0.30739295
79	0x3e87b7c8	0.265074
80	0xbd14183c	-0.036155924
81	0xbe379857	-0.17929207
82	0x3e19b84b	0.15011708
83	0x3ecc10ca	0.3985656
84	0x3e7a1dd9	0.24425448
85	0xbd970080	-0.07373142
86	0xbd9f8995	-0.077899136
87	0x3d954b35	0.07289735
88	0xbe25317a	-0.16132155
89	0xbea86ba7	-0.32894632
90	0xbe18e145	-0.14929684
91	0xbd75466c	-0.059881613
92	0x3e659211	0.22419001
93	0xbe7f7342	-0.24946311
94	0xbdf162c4	-0.11786416
95	0xbe26e8fb	-0.16299812
96	0x3d88aa6c	0.066731304
97	0x3c779e8e	0.015113486
98	0x3dfeb006	0.124359176
99	0x3d974155	0.07385508
100	0xbe01c14c	-0.12671393
101	0xbcc21601	-0.023692133
102	0xbe876fa6	-0.26452368
103	0xbd4e456a	-0.050359167
104	0xbe002a12	-0.12516049
105	0x3dbb33a9	0.09140713
106	0x3eb3439f	0.35012528
107	0xbe43973c	-0.1910066
108	0x3e6f16eb	0.23348586
109	0xbe827e85	-0.25487152
110	0xbcaa95ed	-0.020823443
111	0x3d19809a	0.03747616
112	0xbe9609de	-0.29304403
113	0xbe1b69c2	-0.15177062
114	0x3e2872f3	0.164501
115	0x3d868c5c	0.0656974
116	0xbe9af874	-0.3026768
117	0x3c8ef45b	0.017450502
118	0xbda7c383	-0.08191588
119	0x3dadac5e	0.08480142
120	0xbe8132d9	-0.25234106
121	0x3e20dd3f	0.15709399
122	0xbeb12b42	-0.34603316
123	0xbe1ea78e	-0.15493605
124	0xbe813ca9	-0.25241593
125	0x3d780b68	0.060557753
126	0x3e75f671	0.24019791
127	0xbe120e33	-0.14263229

linear2.weight f4 [128, 128]
0	0xbd8a5c80	-0.06755924
1	0x3d0982b9	0.033571932
2	0x3c96364e	0.018336441
3	0xbd72627b	-0.05917595
4	0xbd1700c0	-0.03686595
5	0x3dc73faa	0.0972894
6	0x3d9b74c7	0.07590633
7	0x3d4e247a	0.050327756
8	0x3d130e17	0.03590211
9	0xbd2107a7	-0.03931394
10	0x3baf4f79	0.00535005
11	0x3c50032e	0.012696071
12	0x3c5869d5	0.013208826
13	0xbd18462a	-0.03717629
14	0xbd31b8d3	-0.043389153
15	0x3d96a5e1	0.07355858
16	0x3c391303	0.011296037
17	0xbda46c3b	-0.08028456
18	0x3d97d1c2	0.07413055
19	0x3dc7c533	0.0975441
20	0x3d99f4d0	0.075173974
21	0x3c96e228	0.018418387
22	0x3d97938d	0.0740119
23	0x3dae06f9	0.08497424
24	0xbcdafd0e	-0.026731994
25	0xbce34169	-0.02774115
26	0x3d92586a	0.0714577
27	0xbd2af618	-0.0417386
28	0x3d637af4	0.05553718
29	0xbc813046	-0.015770089
30	0x3d5b583b	0.05355094
31	0xbc01f3f2	-0.007931696
32	0xbdb1d2ef	-0.086828105
33	0xbbeb544c	-0.00718168
34	0x3bd5c05e	0.006523176
35	0xbc59c64b	-0.013291906
36	0x3da5f671	0.081036456
37	0x3d8c4447	0.0684896
38	0xbd667543	-0.056264173
39	0xbd962634	-0.073315054
40	0xbcf4858c	-0.029848836
41	0x3db5225b	0.088444434
42	0x3d3f5bea	0.046718515
43	0xbc6aeb05	-0.01433826
44	0xbd93058d	-0.07178793
45	0xbcef865e	-0.029238876
46	0x3dac4063	0.08410718
47	0xbd372705	-0.044714946
48	0xbd9f642d	-0.07782779
49	0x3dac4694	0.08411899
50	0xbd732b46	-0.05936744
51	0x3d8f9c64	0.07012251
52	0x3d0ace9c	0.033888444
53	0x3c973477	0.018457634
54	0x3d9c23ee	0.076240405
55	0xbd2387df	-0.0399245
56	0x3d975363	0.07388952
57	0x3cb8dcf2	0.022566292
58	0x3d4159de	0.047204845
59	0xbd5861e2	-0.052827723
60	0xbd8ebe09	-0.0696984
61	0x3d9a176a	0.07523997
62	0xbd80d8f3	-0.0629138
63	0xbdabd8df	-0.08390974
64	0x3d2e624e	0.04257422
65	0xbd7d2741	-0.061805014
66	0xbda6fe22	-0.08153941
67	0x3d8a1c5a	0.06743689
68	0xbd931013	-0.071808
69	0x3db3202a	0.08746369
70	0x3d02aedd	0.031905044
71	0x3d5e9a37	0.05434629
72	0xbd8f4b9e	-0.06996845
73	0xbbde2b5f	-0.0067800726
74	0x3dad08c0	0.084489346
75	0x3da70148	0.08154541
76	0x3d69d1ab	0.05708472
77	0x3d01cfc8	0.031692296
78	0x3cb6292c	0.02223643
79	0x3da2b326	0.07944326
80	0x3b93c65e	0.004509731
81	0x3c6517c7	0.01398272
82	0x3d835ba5	0.06413964
83	0xbc673c83	-0.014113548
84	0xbca1c814	-0.019748725
85	0x3cb1f27b	0.021722069
86	0xbd57c56f	-0.05267852
87	0x3d891afb	0.06694599
88	0x3d80926d	0.062779285
89	0x3c9f4ee6	0.019446801
90	0xbb7e25b6	-0.0038779802
91	0x3d3d20ea	0.046173967
92	0xbd84e462	-0.06488873
93	0xbae90111	-0.0017776807
94	0x3d770cc4	0.06031491
95	0x3d92e5a3	0.07172706
96	0xbbe6ecc0	-0.007047266
97	0x3c8652c2	0.016396884
98	0xbaa7522c	-0.0012765578
99	0xbdb6fe4e	-0.089352235
100	0xbc0bf019	-0.00854113
101	0xbd289263	-0.04115523
102	0xbd684f7d	-0.05671643
103	0xbd42a054	-0.047516182
104	0x3dac44a9	0.084115334
105	0xbd47b57d	-0.048757065
106	0xbc91d6c9	-0.017802613
107	0xbceebbf6	-0.029142361
108	0x3d88f2b0	0.06686914
109	0x3d1456f4	0.036215737
110	0xbd246550	-0.04013568
111	0x3d49d8e7	0.04927912
112	0x3d1f57ae	0.038901977
113	0xbb0f32be	-0.0021850313
114	0x3c161f13	0.009162682
115	0xbd5b5168	-0.053544432
116	0xbda76f08	-0.081754744
117	0xbd9646d0	-0.07337725
118	0xbd059618	-0.032613844
119	0x3cc49160	0.023995101
120	0xbce596c0	-0.028025985
121	0x3d73a978	0.05948779
122	0x3cac21a4	0.021012135
123	0x3d987f57	0.07446163
124	0x3d91f845	0.07127432
125	0x3db3f6ee	0.087873325
126	0x3d1f58ec	0.038903162
127	0x3c525428	0.012837447
128	0x3d6af374	0.05736108
129	0x3cd602ca	0.026124377
130	0xbbf62430	-0.007511638
131	0x3cd22207	0.025650991
132	0xbb66024c	-0.0035096584
133	0xbd3ef6c6	-0.04662206
134	0xbd06af08	-0.032881767
135	0xbd9aaf1a	-0.07552929
136	0x3d998938	0.074968755
137	0x3d29931d	0.041400064
138	0xbda6e16d	-0.08148465
139	0xbd882d31	-0.066492446
140	0xbdab3091	-0.08358873
141	0xbcb7848c	-0.02240207
142	0xbd3dd2ad	-0.046343494
143	0xbdad3af3	-0.08458509
144	0x3d92b261	0.07162929
145	0x3d99b585	0.07505325
146	0x3d8d59ea	0.06901915
147	0x3d22e62c	0.03977029
148	0xbd28e12e	-0.041230373
149	0xbcfc7c18	-0.030820891
150	0xbcef6728	-0.029223993
151	0xbd9e6eae	-0.07735954
152	0xbd943c69	-0.07238085
153	0xbd96ca7a	-0.07362838
154	0x3ccb5024	0.024818487
155	0x3d3d1072	0.04615826
156	0xbc099918	-0.008398317
157	0xbd0e5048	-0.03474453
158	0xbb2b548d	-0.0026142925
159	0xbd1cc522	-0.038273938
160	0x3d80542c	0.062660545
161	0x3c866871	0.016407223
162	0xbaa42b4e	-0.0012525113
163	0x3c762429	0.01502327
164	0xbca61bcd	-0.020276928
165	0xbc48055d	-0.01220831
166	0xbd5c3e62	-0.05377043
167	0xbd7c24e7	-0.06155863
168	0x3d3fed7f	0.046857353
169	0x3dad2c54	0.084557205
170	0x3d85cbfa	0.06533046
171	0xbd2bbbe4	-0.041927233
172	0xbc47c746	-0.012193507
173	0x3c6a26c7	0.014291472
174	0x3d3f1512	0.046650954
175	0x3d44f6b9	0.048086856
176	0xbd280976	-0.041024648
177	0xbcd2fdb9	-0.02575575
178	0x3d05d44b	0.03267316
179	0x3d46f818	0.048576444
180	0x3d94637a	0.07245536
181	0x3d2359fe	0.039880745
182	0x3d8041b3	0.06262531
183	0x3d83c860	0.06434703
184	0xbda31eeb	-0.079648815
185	0x3db464e3	0.08808305
186	0xbcbdc3b1	-0.023164602
187	0x3d418ce9	0.047253523
188	0xbda0c592	-0.078501835
189	0xbdad8b35	-0.08473817
190	0xbd883342	-0.06650402
191	0xbd97a450	-0.07404387
192	0xbc2aab75	-0.010416855
193	0x3b3c5bad	0.0028741166
194	0xbd1b7bd6	-0.037959896
195	0xbd41624b	-0.04721288
196	0xbdb1ef08	-0.0868817
197	0x3d99b87c	0.07505891
198	0x3d85119c	0.06497499
199	0x3d0821bd	0.0332353
200	0xbd589d94	-0.052884653
201	0x39d36470	0.00040319888
202	0x3cc822e9	0.024430709
203	0x3c9edc54	0.01939217
204	0xbdb37655	-0.087628044
205	0xbc1f4908	-0.009722002
206	0xbdb17959	-0.08665723
207	0xbd9585ab	-0.07300886
208	0x3c73d678	0.014882676
209	0xbd6c69d2	-0.057718106
210	0xbcb5988d	-0.022167468
211	0x3d7aa18f	0.06118923
212	0x3cff7428	0.031183317
213	0x3d352fc6	0.044235013
214	0xbd2f6704	-0.042822853
215	0x3d02fbe3	0.0319785
216	0x3d6ae51e	0.05734741
217	0xbd6d397a	-0.057916142
218	0x3c8c4eeb	0.017127475
219	0xbdbbee9e	-0.09176372
220	0xbdccf19a	-0.10007019
221	0xbd84d120	-0.064852
222	0x3d62d836	0.055381976
223	0xbdac25e4	-0.084056646
224	0x3bb5d307	0.005548838
225	0x3d632688	0.05545667
226	0xbb747828	-0.0037303064
227	0xbd5c005f	-0.05371129
228	0xbcd4412b	-0.02590998
229	0xbb91c5e2	-0.0044486383
230	0x3d003be8	0.03130713
231	0xbd8dd0f8	-0.06924623
232	0x3d6e8c16	0.058239065
233	0x3d8df42c	0.06931338
234	0xbc8b210c	-0.016983531
235	0x3d77f3eb	0.060535353
236	0xbd8fef0f	-0.07028019
237	0xbd905d05	-0.07048992
238	0x3aaaa3cf	0.001301879
239	0x3c3545ed	0.011064035
240	0x3b980fb9	0.004640546
241	0x3d618fc2	0.05506874
242	0xbd04e824	-0.03244795
243	0x3c8e3187	0.0173576
244	0xbd2a23ac	-0.041537926
245	0x3da9adb7	0.082850866
246	0xbb91ce88	-0.0044496693
247	0xbdb554e2	-0.08854081
248	0xbd975699	-0.07389564
249	0xbbb9353b	-0.0056520975
250	0x3d95ab62	0.07308079
251	0xbd730ba7	-0.059337284
252	0xbd077247	-0.033067968
253	0x3d94a7d0	0.0725857
254	0x3cd1f1f0	0.02562806
255	0x3d26649d	0.040623296

linear2.bias f4 [128]
0	0xbd2fbc2b	-0.04290406
1	0x3d52bb9d	0.051448453
2	0x3d955c20	0.07292962
3	0x3d253fa4	0.040343896
4	0xbcea4043	-0.028595096
5	0xbd086c10	-0.03330618
6	0x3d3335dc	0.043752536
7	0x3b3d2d19	0.0028865992
8	0x3dc1a1de	0.09454702
9	0x39b409e0	0.00034339633
10	0xbd30f599	-0.04320297
11	0xbda67d10	-0.081293225
12	0x3d7aaa1a	0.061197378
13	0xbb496a4e	-0.0030733529
14	0xbcab58a3	-0.020916289
15	0xbbb8c044	-0.005638154
16	0xbdce10e4	-0.100618154
17	0xbe158088	-0.14599812
18	0x3d896814	0.067093045
19	0x3c9b470c	0.018954776
20	0xbd68d15c	-0.056840286
21	0xbd26c595	-0.040715773
22	0x3c9e9232	0.01935682
23	0xbd6ace58	-0.05732569
24	0x3d8961fc	0.06708142
25	0xbd73696f	-0.05942672
26	0xbca267d7	-0.019824905
27	0xbd90d6a9	-0.07072193
28	0x3b290bcf	0.0025794392
29	0x3cd5bc18	0.026090667
30	0x3ca25e44	0.01982034
31	0x3c819d47	0.015822066
32	0x3e093052	0.13397339
33	0xb9e67e0c	-0.0004396293
34	0xbd9cefd1	-0.07662929
35	0x3cb1e167	0.021713926
36	0x3d91569c	0.070965976
37	0xbd84ff5e	-0.0649402
38	0xbc73a873	-0.014871704
39	0x3cb568da	0.022144724
40	0x3dc78932	0.09742965
41	0xbdb1016b	-0.086428486
42	0x3d4927ce	0.049110226
43	0xbd140dba	-0.036145903
44	0x3d822951	0.06355537
45	0xbdb696df	-0.08915495
46	0xbd99932c	-0.07498774
47	0x3d67a1eb	0.0565509
48	0x3dc048de	0.09388898
49	0xbd3ebe1e	-0.04656803
50	0xbce378e0	-0.027767599
51	0x3d939c33	0.07207527
52	0x3d916cbe	0.07100819
53	0x3bc8bf13	0.0061262934
54	0xbd80623a	-0.06268735
55	0x3d766c67	0.060161974
56	0xbe0df1c3	-0.13861756
57	0xbcc2084e	-0.0236856
58	0x3d81464f	0.063122384
59	0x3d4cf6be	0.05004
60	0x3d5705f7	0.052495923
61	0xbd2d1f15	-0.04226597
62	0x3d515ad6	0.05111202
63	0xbdc095f0	-0.09403598
64	0xbcb64575	-0.022249917
65	0x3d3f9130	0.04676932
66	0xbc260184	-0.010132197
67	0x3ca560a1	0.020187678
68	0xbb946e2d	-0.0045297355
69	0xbd846a72	-0.06465615
70	0x3d9b736b	0.075903736
71	0x3cbcb36b	0.023034772
72	0x3b1ab712	0.0023607654
73	0x3cb3461f	0.021884022
74	0x3d769732	0.060202785
75	0xbdae1447	-0.08499961
76	0x3d9751fb	0.073886834
77	0xbe1557a6	-0.14584216
78	0x3d40b91f	0.047051545
79	0x3d529bb5	0.051418025
80	0x3cd0f5ab	0.025507769
81	0xbb3f8991	-0.0029226283
82	0x3d18cd0b	0.03730492
83	0x3dc3fcbf	0.09569692
84	0x3cecdd07	0.028913988
85	0x3dddf53f	0.108377926
86	0xbda7483a	-0.08168073
87	0xbc3a1f01	-0.011359931
88	0xbd9fc5b1	-0.078013785
89	0x3d1a76dd	0.037711013
90	0xba452b24	-0.0007521382
91	0xbc0347f2	-0.008012759
92	0x3de83625	0.11338452
93	0x3d1e128f	0.038591918
94	0xbcef609a	-0.029220868
95	0xbd78b240	-0.060716867
96	0xbbe43c1f	-0.006965175
97	0xbd14117c	-0.036149487
98	0xbd8e43b8	-0.0694651
99	0x3c084a7a	0.008318538
100	0x3d9744f3	0.07386198
101	0x3d7f5204	0.062334076
102	0xbd34385f	-0.043999072
103	0x3e0e998a	0.13925758
104	0x3c249bba	0.010046894
105	0x3b03191f	0.0020003987
106	0xbd8a46ee	-0.0675181
107	0xbc8043d7	-0.015657349
108	0x3dbf0f1d	0.093290545
109	0xbd874234	-0.06604424
110	0xbd946808	-0.07246405
111	0x3bc9e626	0.006161469
112	0xbd7bea1e	-0.06150257
113	0xbd3e9f4a	-0.04653863
114	0x3c1a9da2	0.009436997
115	0x3cbfb83a	0.023403276
116	0xbc403357	-0.01173099
117	0xbcb3ea0d	-0.02196219
118	0xbda0ca4b	-0.07851084
119	0xbd1bc7e2	-0.03803242
120	0x3c2c71e3	0.0105252
121	0x3cd07e09	0.025450723
122	0xbd817c8d	-0.06322584
123	0x3d07c3db	0.033145767
124	0x3daa4861	0.083145864
125	0x3c97a7ba	0.018512595
126	0xbe72284a	-0.23648182
127	0x3db2e47e	0.08734988

linear3.weight f4 [64, 128]
0	0xbd9347aa	-0.07191403
1	0x3be440f0	0.006965749
2	0x3d9a36be	0.075299725
3	0x3c62ee6b	0.013850789
4	0xbd3f6507	-0.046727207
5	0x3c9fa229	0.019486504
6	0xbd5730dc	-0.05253683
7	0xbc4b4c62	-0.012408348
8	0xbc9810a4	-0.018562622
9	0xbda854d9	-0.082193084
10	0x3d88643e	0.06659745
11	0xbda596c3	-0.08085396
12	0xbd60d056	-0.054886185
13	0x3d8e5864	0.06950453
14	0xbda003a1	-0.07813192
15	0xbd6e07a9	-0.058112774
16	0x3ccfc06a	0.025360305
17	0xbd91fd7b	-0.07128426
18	0xbd54694e	-0.05185824
19	0x3dcfa6ba	0.101392224
20	0xbd436549	-0.047704015
21	0xbd3e6a5b	-0.046488147
22	0x3d7c3000	0.061569214
23	0x3d03ce29	0.03217903
24	0x3d10e96b	0.035378855
25	0xbd6a7d33	-0.057248306
26	0xbcff2db1	-0.031149717
27	0xbc9ffd57	-0.019529982
28	0xbd6905d2	-0.056890316
29	0x3d07eeab	0.033186596
30	0xbcfad4ac	-0.030618988
31	0x3d901d37	0.07036822
32	0x3bfcceb7	0.007715072
33	0x3d9c5b35	0.07634584
34	0xbd76c4ca	-0.060246266
35	0xbb249cfd	-0.0025117986
36	0xbc925a03	-0.017865187
37	0xbbfe27f3	-0.007756227
38	0x3d666da2	0.056256898
39	0x3da4bf6a	0.08044322
40	0xbcaf8724	-0.021426745
41	0x3d78f018	0.060775846
42	0x3db22bd5	0.086997665
43	0x3da7e649	0.0819822
44	0xbdad3718	-0.08457774
45	0x3daf412d	0.08557353
46	0xbd032fd4	-0.032028034
47	0x3d83d04d	0.064362146
48	0xbcc107c9	-0.023563283
49	0xbd9765d4	-0.07392469
50	0x3b2ab704	0.0026049027
51	0xbd17333f	-0.036914106
52	0xbc53d05f	-0.0129280975
53	0xbcc1c098	-0.023651406
54	0xbc8a898a	-0.016911287
55	0xbd0ad271	-0.0338921
56	0xbc09960b	-0.008397589
57	0xbc926177	-0.01786874
58	0x3cbbcfca	0.02292623
59	0x3bd1d576	0.0064036204
60	0xbd2a1130	-0.041520298
61	0xbd9c3806	-0.07627873
62	0xbbd591ad	-0.00651761
63	0x3d060c62	0.032726653
64	0xbd7270ad	-0.059189487
65	0xbd1678a9	-0.036736164
66	0x3b0708b0	0.0020604543
67	0x3d8ac0b0	0.067750335
68	0xbc22defe	-0.009940861
69	0xbd473344	-0.048632875
70	0x3c7b4372	0.015335904
71	0x3d55fba8	0.05224195
72	0x3cfe64eb	0.03105398
73	0x3d4bf68c	0.049795672
74	0x3c8055b2	0.015665863
75	0xbd34ff25	-0.044188637
76	0xbdab740b	-0.08371743
77	0xbd774d2a	-0.060376324
78	0x3c9d50fe	0.01920366
79	0xbcaa6716	-0.020801108
80	0x3d88e193	0.0668365
81	0xbd442698	-0.04788837
82	0xbcd78238	-0.02630721
83	0x3dc431c3	0.09579804
84	0x3d8f765d	0.07004998
85	0x3d797d19	0.060910318
86	0xbd4ddbe7	-0.050258543
87	0xbcb2f676	-0.021846037
88	0x3d9a5014	0.07534805
89	0xbd131dde	-0.035917155
90	0x3dbc6622	0.09199168
91	0x3db0c3bb	0.086310826
92	0xbd721f37	-0.0591118
93	0x3d9240e1	0.07141281
94	0xbd82df17	-0.06390207
95	0xbb01422f	-0.0019723286
96	0xbcd10223	-0.025513714
97	0x3b3cc279	0.0028802438
98	0xbd473cac	-0.048641846
99	0xbd4f35de	-0.05058848
100	0x3d2d395e	0.042291038
101	0x3c947927	0.018124176
102	0xbd1dd90d	-0.038537074
103	0x3d25e93e	0.04050564
104	0x3d8104e1	0.06299759
105	0x38d1f027	0.000100106285
106	0x3d30963a	0.043112017
107	0x3cb548d6	0.022129457
108	0xbd4f477b	-0.05060528
109	0xbd20b1d7	-0.0392321
110	0x3da27b22	0.07933642
111	0x3cf02441	0.029314162
112	0xbc30c323	-0.010788712
113	0x3cbb7ebb	0.022887578
114	0xbcb1e136	-0.021713834
115	0x3d3a786d	0.045525003
116	0xbb4d38a7	-0.0031314285
117	0x3d29ced6	0.04145702
118	0x3d971a7c	0.07378098
119	0xbd9b4055	-0.0758063
120	0x3d257957	0.04039892
121	0xbd92dc76	-0.07170956
122	0x3d81b992	0.06334223
123	0xbcf43573	-0.029810643
124	0xbc1bdc92	-0.009513037
125	0x3afb7713	0.0019185267
126	0x3c9180f3	0.017761683
127	0x3dc0c5ca	0.09412725
128	0x3b6bc6a4	0.0035976553
129	0xbd1fef0c	-0.039046332
130	0x3d727522	0.059193738
131	0x3d4cc58c	0.049993083
132	0x3ca43a6a	0.020047385
133	0xbd3e3d4c	-0.046445176
134	0xbd9b0ff7	-0.075714044
135	0xbd1b4f42	-0.037917383
136	0x3d8d85cf	0.069102876
137	0xbd6cb1a6	-0.057786606
138	0x3d1104d7	0.035405006
139	0x3d01d2fa	0.031695344
140	0xbbad18f5	-0.005282516
141	0xbd951ac2	-0.07280494
142	0xbc1d3f94	-0.009597678
143	0x3ce94778	0.028476462
144	0x3d5c3374	0.053760007
145	0xbab74ba5	-0.0013984336
146	0xbd122ed9	-0.03568921
147	0xbdadebdb	-0.084922515
148	0x3d3f4a99	0.046702
149	0x3d8ca188	0.06866747
150	0x3db7cf58	0.089750946
151	0x3cc1b5c0	0.023646235
152	0x3d1ae220	0.037813306
153	0xbd9e52d9	-0.07730646
154	0x3c401b17	0.011725209
155	0x3d0aa282	0.033846386
156	0xbcaa9c75	-0.020826558
157	0x3cf47bf0	0.029844254
158	0xbdbffc1e	-0.093742594
159	0x3c3d1989	0.011541733
160	0x3d3e8e50	0.04652244
161	0xbdaf483a	-0.08558698
162	0xbdbd3fb8	-0.09240669
163	0x3a12d44c	0.00056010927
164	0xbc8141a5	-0.015778372
165	0xbd9bafc9	-0.07601888
166	0xbd286178	-0.04110858
167	0xbc0be52e	-0.008538527
168	0xbd51a4e2	-0.051182635
169	0x3d3b5c22	0.04574216
170	0xbc8f199d	-0.017468268
171	0xbda6c755	-0.08143488
172	0x3d5c1760	0.05373323
173	0x3b8e9e50	0.0043523684
174	0xbd86527b	-0.06558701
175	0xbd413ec2	-0.04717899
176	0xbd61836c	-0.055056974
177	0x3d65d319	0.05610952
178	0xbc905c40	-0.017622113
179	0xbdb733ee	-0.08945452
180	0x3d93d026	0.072174355
181	0x3d281867	0.041038897
182	0x3cc7effc	0.024406426
183	0xbda4a7f1	-0.08039845
184	0xbdaa3532	-0.083109275
185	0xbb98471d	-0.0046471492
186	0xbcfb28cc	-0.030659102
187	0x3d42f928	0.047600895
188	0xbd654057	-0.055969562
189	0x3d313af1	0.0432691
190	0xbdaba99d	-0.083819605
191	0x3d4968bb	0.049172144
192	0xbd8836e3	-0.06651094
193	0x3c82d387	0.015970005
194	0xbd8220d1	-0.063539155
195	0x3d28e748	0.041236192
196	0xbd80a956	-0.06282298
197	0xbd6df24d	-0.058092404
198	0xbd5f1197	-0.054460134
199	0xbd3bbc2d	-0.045833755
200	0x3b6cfedc	0.003616265
201	0x3d9b19f5	0.0757331
202	0xbc2c9b05	-0.010535006
203	0x3d165b9f	0.03670847
204	0x3d9dab10	0.07698643
205	0xbd0e51ad	-0.03474586
206	0xbda6be5a	-0.081417754
207	0x3d87452a	0.06604989
208	0x3d45e109	0.048310313
209	0xbda17228	-0.07883102
210	0x3d430677	0.047613587
211	0xbda501bc	-0.080569714
212	0xbd73e6c6	-0.059546255
213	0xbdb8ba71	-0.09019936
214	0x3d945c03	0.07244112
215	0xbd141d79	-0.03616092
216	0xbd5bcd2d	-0.053662468
217	0x3d638ef3	0.05555625
218	0x3ce02c13	0.027364766
219	0xbdacfc93	-0.08446612
220	0xbdb70031	-0.089355834
221	0x3c37e70f	0.011224522
222	0xbb4926a9	-0.003069321
223	0xbd6829b7	-0.056680407
224	0x3d532c29	0.051555786
225	0xbb49fba6	-0.003082016
226	0x3d422e3c	0.047407374
227	0x3c06f388	0.008236773
228	0x3d929ddd	0.07159016
229	0x3d33753b	0.04381297
230	0xbcae5acf	-0.021283535
231	0xbd67e901	-0.056618694
232	0xbd9fb230	-0.077976584
233	0xbc9c2f70	-0.019065589
234	0x3c9093c0	0.017648578
235	0xbc34e918	-0.011041902
236	0xbd5028b7	-0.05082008
237	0x3d916679	0.07099623
238	0xbd85cd9d	-0.06533358
239	0x3d5fc63a	0.054632403
240	0x3daa91e2	0.08328606
241	0xbd4922fb	-0.049105626
242	0xbca3fbf1	-0.020017596
243	0x3cfb0748	0.03064312
244	0xbd9d4258	-0.0767867
245	0x3d45d2e5	0.048296828
246	0x3d5d5408	0.054035217
247	0xbd37e012	-0.044891424
248	0xbccb1483	-0.024790054
249	0x3d95fe10	0.07323849
250	0xba861a94	-0.001023131
251	0xbd564c98	-0.05231914
252	0x3d66e199	0.05636749
253	0xbd543b44	-0.051814333
254	0x3d6e3062	0.05815161
255	0x3d929de0	0.071590185

linear3.bias f4 [64]
0	0x3d45ff24	0.048339024
1	0x3de7e698	0.11323279
2	0x3dc2684b	0.094925486
3	0xbd6c5347	-0.057696607
4	0x3d3524aa	0.04422442
5	0x3cfa9b86	0.030591737
6	0xbd3f872f	-0.04675978
7	0xbdab9fce	-0.0838009
8	0x3debe398	0.115180194
9	0xbda3c471	-0.079964526
10	0x3d58e89f	0.05295622
11	0xbd59e661	-0.053198222
12	0xbd2521dc	-0.040315494
13	0xbb83f2f2	-0.004026764
14	0x3cc24f78	0.023719534
15	0x3d89dc6f	0.067314975
16	0xbc13326e	-0.008984191
17	0xbd04cc74	-0.032421544
18	0xbd48a4a5	-0.048985142
19	0x3d53fc51	0.0517543
20	0xbd94524a	-0.07242258
21	0xbc44f300	-0.012020826
22	0xbc1875e2	-0.009305449
23	0xbcb089ea	-0.021550138
24	0xbd9de2b1	-0.077092536
25	0xbce4c6f8	-0.027926907
26	0x3ddbc033	0.107300185
27	0xbd138bc8	-0.036021978
28	0xbe0d473b	-0.13796704
29	0x3d893ee2	0.06701447
30	0xbc8dc0db	-0.017303875
31	0x3d85d016	0.0653383
32	0xbd713a3c	-0.058893427
33	0x3a25f32a	0.0006330485
34	0x3d2be00a	0.041961707
35	0xbd122fb9	-0.035690043
36	0xbdada2f4	-0.084783465
37	0xbc92c766	-0.017917346
38	0xbcbe0b2b	-0.023198685
39	0xbca11d95	-0.019667426
40	0xbe0c9dbc	-0.13732046
41	0x3c86d4d4	0.016458906
42	0xbd3d8e46	-0.04627826
43	0xbd3e05d5	-0.04639228
44	0xbd028ed8	-0.031874508
45	0xbdbcf846	-0.09227042
46	0xbafca5f2	-0.001927553
47	0x3d827958	0.06370801
48	0xbc95c914	-0.018284358
49	0xbce83b1e	-0.028348502
50	0xbdaaf0e5	-0.08346728
51	0x3c53e094	0.012931962
52	0xbd87fc74	-0.066399485
53	0x3d81cbfa	0.063377336
54	0x3d1ada4b	0.037805837
55	0xbcaefcb3	-0.02136073
56	0x3d6cdb9b	0.05782662
57	0xbca97b5a	-0.020688701
58	0xbca45570	-0.020060271
59	0x3debaa53	0.11507096
60	0x3ca687e8	0.020328477
61	0x3c7c3952	0.015394526
62	0xbce52104	-0.027969845
63	0x3ce89bd0	0.02839461

linear5.weight f4 [1, 64]
0	0x3df8abc9	0.121421404
1	0xbdd08761	-0.101820715
2	0xbe02a753	-0.12759142
3	0xba9300d7	-0.001121546
4	0x3e0e8525	0.13917978
5	0xbdccd065	-0.100006856
6	0x3e2bed62	0.16789773
7	0xbcc642df	-0.024201808
8	0xbdb446ac	-0.08802542
9	0x3cbd6106	0.023117553
10	0xbd20d36d	-0.03926413
11	0xbdd30eba	-0.10305543
12	0xbdaa8b71	-0.083273776
13	0x3e850999	0.25983885
14	0x3edd4c6d	0.4322237
15	0x3e765a5f	0.24057911
16	0x3d84f02e	0.06491123
17	0x3e9054fb	0.28189835
18	0xbd18f7de	-0.03734576
19	0x3dd054ee	0.10172449
20	0xbda1fb52	-0.07909264
21	0x3ead2b8b	0.33822283
22	0xbd8e371a	-0.069441035
23	0xbda8aaff	-0.0823574
24	0xbd53ad48	-0.051678926
25	0xbdbb35b3	-0.09141102
26	0xbe2de36a	-0.16981283
27	0xbc2e7675	-0.01064836
28	0x3efc372e	0.4926085
29	0x3d9d4411	0.07678998
30	0xbdf31e58	-0.11871022
31	0x3ee05655	0.43815866
32	0xbd00b19d	-0.031419385
33	0x3d5ace4a	0.05341939
34	0xbd6b296e	-0.057412557
35	0xbdbe3681	-0.092877395
36	0xbcbf569d	-0.02335673
37	0xbd7983c3	-0.060916673
38	0x3eca6458	0.3952968
39	0x3e6e9996	0.23300776
40	0x3ebdb85f	0.37054726
41	0x3eb1d52b	0.34732947
42	0x3ea9d08d	0.33166924
43	0x3e22710e	0.1586344
44	0xbd42cac5	-0.047556657
45	0xbdb450c8	-0.0880447
46	0x3d4440c4	0.047913328
47	0x3ec4c297	0.3842971
48	0xbd38c52d	-0.045109916
49	0x3b96397f	0.004584491
50	0xbbf694df	-0.007525071
51	0x3e8a5836	0.27020425
52	0x3d3a3005	0.04545595
53	0xbd861eb4	-0.06548825
54	0x3eb1a747	0.34697935
55	0xbdee6d51	-0.11641944
56	0xbd286996	-0.04111632
57	0x3cea8932	0.028629873
58	0xbdc8f4d8	-0.09812325
59	0xbe4c1807	-0.1993104
60	0xbd6782eb	-0.056521337
61	0xbdedef8a	-0.11617954
62	0x3dfa6b17	0.12227457
63	0x3daf54cc	0.085610956

momentum_buffer f4 [1, 1, 4]
0	0xb28aa206	-1.6138994e-08
1	0x31da9ebe	6.362682e-09
2	0x323c3504	1.0955095e-08
3	0xb27cf57c	-1.4724147e-08

momentum_buffer f4 [1, 1, 4]
0	0x30870440	9.823751e-10
1	0x2f1b0cf0	1.4101764e-10
2	0xb0fdca88	-1.8465736e-09
3	0xb0f438f3	-1.7769523e-09

momentum_buffer f4 [1, 1, 4]
0	0x32d0fe84	2.4330127e-08
1	0x2f5f24f5	2.0294862e-10
2	0x3285fedf	1.559914e-08
3	0xb31050c5	-3.3601072e-08

momentum_buffer f4 [4]
0	0xb63c2f6c	-2.8041786e-06
1	0x349a743e	2.8769313e-07
2	0xb5bde866	-1.4149234e-06
3	0x34a089c0	2.990255e-07

momentum_buffer f4 [4, 4]
0	0xb5d95d52	-1.619492e-06
1	0xb4c63b55	-3.6923544e-07
2	0xb52d8c97	-6.465211e-07
3	0xb5ee693e	-1.7763011e-06
4	0x34354f3e	1.6885767e-07
5	0x332664ab	3.8741444e-08
6	0x33946b13	6.911264e-08
7	0x345b867e	2.0444892e-07
8	0xb559e024	-8.1164967e-07
9	0xb43ae2c7	-1.7405101e-07
10	0xb4b55399	-3.3774703e-07
11	0xb57b679e	-9.365557e-07
12	0x343a2488	1.733589e-07
13	0x3325a701	3.8568945e-08
14	0x338be6c0	6.514665e-08
15	0x341512e8	1.3883584e-07

momentum_buffer f4 [4, 12]
0	0x2cc60c80	5.6288862e-12
1	0xb0f4a475	-1.7800078e-09
2	0x30ec4a2e	1.7192343e-09
3	0x3199e15b	4.478506e-09
4	0x2f8ef113	2.6000943e-10
5	0x31fe2853	7.3969573e-09
6	0x00000000	0.0
7	0x00000000	0.0
8	0x00000000	0.0
9	0x00000000	0.0
10	0x00000000	0.0
11	0x00000000	0.0
12	0xae24a020	-3.7431502e-11
13	0x324b5b39	1.1836897e-08
14	0xb24469c6	-1.1432752e-08
15	0xb2ffd28c	-2.9781653e-08
16	0xb0eda32e	-1.7290398e-09
17	0xb35343f4	-4.918907e-08
18	0x00000000	0.0
19	0x00000000	0.0
20	0x00000000	0.0
21	0x00000000	0.0
22	0x00000000	0.0
23	0x00000000	0.0
24	0xae5535c0	-4.8478332e-11
25	0x3283afe2	1.533039e-08
26	0xb27e61c3	-1.4806974e-08
27	0xb325a998	-3.85713e-08
28	0xb119e2e9	-2.2393414e-09
29	0xb388cf0e	-6.3706565e-08
30	0x00000000	0.0
31	0x00000000	0.0
32	0x00000000	0.0
33	0x00000000	0.0
34	0x00000000	0.0
35	0x00000000	0.0
36	0x2d146880	8.43603e-12
37	0xb137545b	-2.6677955e-09
38	0x313111f5	2.5767097e-09
39	0x31e6a0f8	6.712181e-09
40	0x2fd63c06	3.8969022e-10
41	0x323e75b4	1.1086218e-08
42	0x00000000	0.0
43	0x00000000	0.0
44	0x00000000	0.0
45	0x00000000	0.0
46	0x00000000	0.0
47	0x00000000	0.0

momentum_buffer f4 [1, 1, 4]
0	0x2f9ca68b	2.849457e-10
1	0x3088defe	9.95868e-10
2	0x30dc4d1b	1.6029021e-09
3	0xb0c6c4df	-1.446235e-09

momentum_buffer f4 [1, 1, 4]
0	0x248fca19	6.235873e-17
1	0x24da80b2	9.476045e-17
2	0x24913478	6.297261e-17
3	0xa4604d8c	-4.8637942e-17

momentum_buffer f4 [1, 1, 4]
0	0x32379277	1.0685304e-08
1	0xb2c34fcc	-2.2737275e-08
2	0xb2e4cb76	-2.6635217e-08
3	0xb2c02974	-2.2370592e-08

momentum_buffer f4 [4]
0	0x3742a80b	1.1602427e-05
1	0x36c390d0	5.8283113e-06
2	0xb5aee894	-1.3031699e-06
3	0x353b3df5	6.975309e-07

momentum_buffer f4 [4, 4]
0	0x360fc7e1	2.1425005e-06
1	0xb3679d62	-5.3927018e-08
2	0x36c1695a	5.7641128e-06
3	0x36034167	1.955859e-06
4	0x358e017c	1.0580256e-06
5	0xb2e4741e	-2.6595497e-08
6	0x363ebfe1	2.8423894e-06
7	0x3581ac6f	9.661434e-07
8	0xb487a9e0	-2.526931e-07
9	0x31f3c96e	7.0951307e-09
10	0xb537276f	-6.8230196e-07
11	0xb483f71d	-2.458045e-07
12	0x34534ccd	1.9678846e-07
13	0xb1a947a0	-4.92669e-09
14	0x35123a32	5.4473924e-07
15	0x343bfdee	1.7508111e-07
