saved_models/tb_logs/version_7/checkpoints/epoch=49-step=950.ckpt (torch, 249634 bytes, 100 tensors)

conv_layers.0.att_src f4 [1, 1, 4]
-0.6851155 -0.85089344 0.4083509 0.2823622
00000000: bb63 2fbf 27d4 59bf 5f13 d13e c791 903e

conv_layers.0.att_dst f4 [1, 1, 4]
-0.9979905 -0.2890124 0.6788263 -0.42920148
00000000: 4e7c 7fbf 6ff9 93be 8fc7 2d3f 4cc0 dbbe

conv_layers.0.att_edge f4 [1, 1, 4]
-0.15074544 0.12828378 0.38166943 0.24066588
00000000: 035d 1abe d35c 033e 2d6a c33e 1e71 763e

conv_layers.0.bias f4 [4]
0.0033112692 0.053171117 -0.017957993 -0.0037386755
00000000: e101 593b f5c9 593d a41c 93bc 9104 75bb

conv_layers.0.lin_src.weight f4 [4, 4]
-0.4866135 0.8488798 -0.32256773 0.7016837 0.11971428 -0.16588372 0.7324572 0.38854438
-0.25776222 0.561584 0.0113290455 0.1527971 0.23814377 -0.11374943 -0.7343757 -0.6117805
00000000: 6825 f9be 3050 593f 9927 a5be 8ba1 333f
00000010: c32c f53d 6cdd 29be 5182 3b3f 4aef c63e
00000020: 69f9 83be f8c3 0f3f 769d 393c d876 1c3e
00000030: f6db 733e 76f5 e8bd 0c00 3cbf a69d 1cbf

conv_layers.0.lin_dst.weight f4 [4, 4]
-0.4866135 0.8488798 -0.32256773 0.7016837 0.11971428 -0.16588372 0.7324572 0.38854438
-0.25776222 0.561584 0.0113290455 0.1527971 0.23814377 -0.11374943 -0.7343757 -0.6117805
00000000: 6825 f9be 3050 593f 9927 a5be 8ba1 333f
00000010: c32c f53d 6cdd 29be 5182 3b3f 4aef c63e
00000020: 69f9 83be f8c3 0f3f 769d 393c d876 1c3e
00000030: f6db 733e 76f5 e8bd 0c00 3cbf a69d 1cbf

conv_layers.0.lin_edge.weight f4 [4, 12]
0.3515476 0.53218275 -0.10875244 0.014893039 -0.21553902 -0.5060082 -0.4252258 -0.50441986
-0.19289911 -0.28930217 -0.29869032 0.38351703 0.39198327 0.5294649 0.40543354 -0.19074567
0.2811935 0.5585597 0.58813924 0.16934967 -0.38429222 -0.50624734 0.37844437 -0.2600695
-0.31822777 -0.10313042 -0.4172782 -0.28161794 0.20022452 -0.15602551 0.2028909 -0.29851258
0.5147452 -0.25445494 -0.5277086 0.20663153 0.34136102 0.45606092 0.1573766 -0.5814742
-0.586313 -0.051540527 -0.15292302 -0.47686785 -0.41880575 -0.4629682 -0.13857208 -0.08674823
00000000: 0cfe b33e 213d 083f 99b9 debd ef01 743c
00000010: 43b6 5cbe c189 01bf 32b7 d9be a921 01bf
00000020: 5887 45be 6a1f 94be f0ed 98be 585c c43e
00000030: 08b2 c83e 038b 073f fc94 cf3e d552 43be
00000040: 98f8 8f3e c5fd 0e3f 4b90 163f 006a 2d3e
00000050: f3c1 c4be 6d99 01bf 76c3 c13e d427 85be
00000060: c0ee a2be 0b36 d3bd 7da5 d5be 3a30 90be
00000070: a807 4d3e 27c5 1fbe a2c2 4f3e a4d6 98be
00000080: 57c6 033f eb47 82be e917 07bf 3797 533e
00000090: dfc6 ae3e d180 e93e 5527 213e 7edb 14bf
000000a0: 9c18 16bf 291c 53bd da97 1cbe 0628 f4be
000000b0: b56d d6be 2b0a edbe d7e5 0dbe 0ea9 b1bd

conv_layers.1.att_src f4 [1, 1, 4]
1.0063212 -0.13293636 0.89417416 0.37423617
00000000: 22cf 803f 7820 08be 99e8 643f e29b bf3e

conv_layers.1.att_dst f4 [1, 1, 4]
-0.07902523 0.66584617 0.66065854 0.5222172
00000000: fbd7 a1bd e574 2a3f eb20 293f 07b0 053f

conv_layers.1.att_edge f4 [1, 1, 4]
-0.7792078 0.20558372 -1.0615345 0.346897
00000000: 2a7a 47bf 8a84 523e 5de0 87bf 7c9c b13e

conv_layers.1.bias f4 [4]
0.03400378 0.0007197492 0.056064177 0.023634635
00000000: 8c47 0b3d 8dad 3c3a 8da3 653d 6c9d c13c

conv_layers.1.lin_src.weight f4 [4, 4]
0.69496226 -0.8420741 0.31736377 -0.1168871 -0.24510969 0.15674736 -0.25103042 -0.46422237
-0.67879397 -0.47957343 -0.75342715 0.72952396 -0.3487774 -0.7642706 0.5383279 0.22327924
00000000: 0ce9 313f 2b92 57bf 817d a23e 8162 efbd
00000010: 09fe 7abe 6182 203e 0f87 80be 8eae edbe
00000020: 71c5 2dbf a68a f5be 9ae0 40bf 15c2 3a3f
00000030: f492 b2be 3da7 43bf dbcf 093f 50a3 643e

conv_layers.1.lin_dst.weight f4 [4, 4]
0.69496226 -0.8420741 0.31736377 -0.1168871 -0.24510969 0.15674736 -0.25103042 -0.46422237
-0.67879397 -0.47957343 -0.75342715 0.72952396 -0.3487774 -0.7642706 0.5383279 0.22327924
00000000: 0ce9 313f 2b92 57bf 817d a23e 8162 efbd
00000010: 09fe 7abe 6182 203e 0f87 80be 8eae edbe
00000020: 71c5 2dbf a68a f5be 9ae0 40bf 15c2 3a3f
00000030: f492 b2be 3da7 43bf dbcf 093f 50a3 643e

conv_layers.1.lin_edge.weight f4 [4, 12]
-0.1034821 -0.07886549 -0.2566401 0.030147988 -0.09198453 0.36749983 0.5528138 -0.19842167
-0.37494656 0.56306976 -0.218008 -0.08295257 -0.08997153 -0.07768095 0.0656141 0.31049794
-0.46318278 0.57433563 -0.17905866 -0.59983104 -0.0117970975 -0.02377531 -0.46065167 0.13718791
-0.22842002 -0.16345544 -0.13091208 0.12633118 -0.14172381 0.04908172 0.4710884 0.25339973
-0.5609211 0.4064132 0.37181562 0.33921954 0.3416938 -0.03417411 -0.063063815 0.45117855
0.48952875 0.15917483 0.08591697 -0.026648534 -0.49445033 -0.39103118 0.13154045 0.557373
00000000: 6cee d3bd 3b84 a1bd 5566 83be eaf8 f63c
00000010: 6362 bcbd f028 bc3e 3585 0d3f 0d2f 4bbe
00000020: fff8 bfbe 5725 103f 7d3d 5fbe 09e3 a9bd
00000030: fe42 b8bd 3117 9fbd af60 863d 96f9 9e3e
00000040: 4b26 edbe a907 133f 275b 37be 878e 19bf
00000050: 9d48 41bc 70c4 c2bc 89da ebbe fd7a 0c3e
00000060: f0e6 69be dd60 27be d10d 06be f65c 013e
00000070: 0c20 11be ea09 493d 8032 f13e 9cbd 813e
00000080: 8698 0fbf 6415 d03e 9e5e be3e 2fae ad3e
00000090: 7df2 ae3e 27fa 0bbd 9a27 81bd e000 e73e
000000a0: 83a3 fa3e bafe 223e 3df5 af3d 074e dabc
000000b0: 9828 fdbe 3d35 c8be 8ab2 063e ffaf 0e3f

transf_layers.0.weight f4 [4, 4]
-0.18559596 -0.00038159496 0.40925792 0.3678643 0.20134768 -0.31493795 0.09586248 -0.20941469
-0.15447308 -0.47368404 -0.1876943 -0.074674085 0.10814912 0.32847226 -0.05108143 -0.15251073
00000000: de0c 3ebe cf10 c8b9 418a d13e b658 bc3e
00000010: 162e 4e3e 8c3f a1be 8c53 c43d ce70 56be
00000020: 312e 1ebe b786 f2be ef32 40be baee 98bd
00000030: 497d dd3d 842d a83e c33a 51bd c62b 1cbe

transf_layers.0.bias f4 [4]
0.36013564 0.113174595 0.116488 0.29308596
00000000: b363 b83e 15c8 e73d 4391 ee3d 5d0f 963e

transf_layers.1.weight f4 [4, 4]
-0.2980273 0.20351128 -0.44146055 -0.22721952 0.45204216 -0.27580917 -0.2256658 0.15666616
0.060730685 0.39600495 -0.14781469 0.16459431 -0.37313518 0.089089416 0.3653508 -0.033220522
00000000: 0997 98be 4365 503e 1e07 e2be 3cac 68be
00000010: 1272 e73e dc36 8dbe ef14 67be 186d 203e
00000020: bdc0 783d 29c1 ca3e bc5c 17be 698b 283e
00000030: 930b bfbe 8374 b63d 430f bb3e 3e12 08bd

transf_layers.1.bias f4 [4]
0.27401376 0.13030404 -0.34751144 0.10584482
00000000: 884b 8c3e 6c6e 053e 05ed b1be 2bc5 d83d

bn_layers.0.weight f4 [4]
1.0 1.0 1.0 1.0
00000000: 0000 803f 0000 803f 0000 803f 0000 803f

bn_layers.0.bias f4 [4]
0.0 0.0 0.0 0.0
00000000: 0000 0000 0000 0000 0000 0000 0000 0000

bn_layers.0.running_mean f4 [4]
0.0 0.0 0.0 0.0
00000000: 0000 0000 0000 0000 0000 0000 0000 0000

bn_layers.0.running_var f4 [4]
1.0 1.0 1.0 1.0
00000000: 0000 803f 0000 803f 0000 803f 0000 803f

bn_layers.1.weight f4 [4]
1.0 1.0 1.0 1.0
00000000: 0000 803f 0000 803f 0000 803f 0000 803f

bn_layers.1.bias f4 [4]
0.0 0.0 0.0 0.0
00000000: 0000 0000 0000 0000 0000 0000 0000 0000

bn_layers.1.running_mean f4 [4]
0.0 0.0 0.0 0.0
00000000: 0000 0000 0000 0000 0000 0000 0000 0000

bn_layers.1.running_var f4 [4]
1.0 1.0 1.0 1.0
00000000: 0000 803f 0000 803f 0000 803f 0000 803f

conv1.att_src f4 [1, 1, 4]
-0.22405413 -0.007027876 -0.18081562 -0.01641799
00000000: 726e 65be 194a e6bb bb27 39be 057f 86bc

conv1.att_dst f4 [1, 1, 4]
0.5514213 0.270058 -0.49659717 0.36328518
00000000: f229 0d3f 0b45 8a3e fc41 febe 8400 ba3e

conv1.att_edge f4 [1, 1, 4]
-0.9794201 0.49652126 -0.6356652 -0.7166799
00000000: 47bb 7abf 0938 fe3e f4ba 22bf 5578 37bf

conv1.bias f4 [4]
-0.0021902241 0.00056557526 0.00084484764 -0.0007474535
00000000: dd89 0fbb 1d43 143a c478 5d3a c1f0 43ba

conv1.lin_src.weight f4 [4, 3]
0.8463342 -0.69880104 -0.8631825 0.057059363 -0.08846542 0.45794058 0.5143083 0.47535273
0.3654417 0.79438776 0.5458892 0.06355852
00000000: 5ca9 583f a0e4 32bf 87f9 5cbf 14b7 693d
00000010: 5c2d b5bd 3077 ea3e b5a9 033f 6f61 f33e
00000020: 2d1b bb3e ff5c 4b3f 65bf 0b3f f82a 823d

conv1.lin_dst.weight f4 [4, 3]
0.8463342 -0.69880104 -0.8631825 0.057059363 -0.08846542 0.45794058 0.5143083 0.47535273
0.3654417 0.79438776 0.5458892 0.06355852
00000000: 5ca9 583f a0e4 32bf 87f9 5cbf 14b7 693d
00000010: 5c2d b5bd 3077 ea3e b5a9 033f 6f61 f33e
00000020: 2d1b bb3e ff5c 4b3f 65bf 0b3f f82a 823d

conv1.lin_edge.weight f4 [4, 12]
0.52238184 0.3290193 -0.4669798 0.47642788 -0.07632459 -0.48977873 -0.45222443 -0.4974551
0.51285475 -0.030283667 0.43437004 0.58222616 -0.15874095 -0.045035455 0.09637224 -0.019460546
0.1475665 0.26737967 0.18796697 -0.009968508 -0.3082582 -0.07608512 -0.45137215 -0.14772211
-0.5537163 0.22890869 -0.48220888 0.06281236 -0.34728163 0.03419418 -0.36799166 0.023140715
-0.37095577 -0.46808568 0.41119298 -0.3017818 -0.31949794 0.31146413 0.0795872 0.14079441
0.12695669 -0.39990687 0.062191304 0.43754864 -0.011097315 0.3703985 0.4301866 0.5805942
00000000: d1ba 053f 3875 a83e fa17 efbe 5bee f33e
00000010: 1150 9cbd 47c4 fabe f689 e7be 6fb2 febe
00000020: 734a 033f 7415 f8bc c065 de3e c60c 153f
00000030: fd8c 22be 1977 38bd cf5e c53d b96b 9fbc
00000040: ac1b 173e fde5 883e 6a7a 403e f452 23bc
00000050: 05d4 9dbe 84d2 9bbd 401a e7be 7744 17be
00000060: 5ac0 0dbf 0a67 6a3e 15e4 f6be c4a3 803d
00000070: e6ce b1be 320f 0c3d 6769 bcbe 9991 bd3c
00000080: eaed bdbe eda8 efbe e387 d23e 2583 9abe
00000090: 3c95 a3be 3a78 9f3e 9dfe a23d 692c 103e
000000a0: ef00 023e 98c0 ccbe 4fbc 7e3d 6006 e03e
000000b0: 83d1 35bc dfa4 bd3e 6b41 dc3e d2a1 143f

transf1.weight f4 [4, 4]
-0.2411505 -0.13159218 -0.19651994 -0.0022987642 0.29058066 0.020591594 0.4037528 -0.30440918
-0.18538073 -0.21903442 0.011717154 -0.2961834 -0.40199906 0.13521369 0.18946838 -0.119016185
00000000: 28f0 76be 1ac0 06be 863c 49be dda6 16bb
00000010: fdc6 943e b4af a83c b0b8 ce3e 85db 9bbe
00000020: 72d4 3dbe 8f4a 60be 4ef9 3f3c 5aa5 97be
00000030: d2d2 cdbe 7575 0a3e 0004 423e c2be f3bd

transf1.bias f4 [4]
-0.37926656 -0.4718834 -0.2678194 -0.19403602
00000000: 3a2f c2be b39a f1be a01f 89be 61b1 46be

bn1.weight f4 [4]
1.0 1.0 1.0 1.0
00000000: 0000 803f 0000 803f 0000 803f 0000 803f

bn1.bias f4 [4]
0.0 0.0 0.0 0.0
00000000: 0000 0000 0000 0000 0000 0000 0000 0000

bn1.running_mean f4 [4]
0.0 0.0 0.0 0.0
00000000: 0000 0000 0000 0000 0000 0000 0000 0000

bn1.running_var f4 [4]
1.0 1.0 1.0 1.0
00000000: 0000 803f 0000 803f 0000 803f 0000 803f

pool1.select.weight f4 [1, 4]
-0.4836988 -0.27394396 -0.24063557 -0.36516762
00000000: 5ea7 f7be 6242 8cbe 2c69 76be 40f7 babe

conv_fin.att_src f4 [1, 1, 8]
0.4271255 0.3400743 -0.29088297 -0.08454422 -0.031766184 0.19253848 0.6956897 -0.4928629
00000000: 32b0 da3e 381e ae3e 9dee 94be 8525 adbd
00000010: 421d 02bd cf28 453e b818 323f 8758 fcbe

conv_fin.att_dst f4 [1, 1, 8]
0.1709223 -0.6080879 0.07049777 0.16450629 0.45744115 0.14010458 -0.8083049 -0.28334227
00000000: 4106 2f3e a6ab 1bbf 2361 903d 5674 283e
00000010: ba35 ea3e 9377 0f3e 12ed 4ebf 3d12 91be

conv_fin.att_edge f4 [1, 1, 8]
0.54591745 0.37176895 0.5344991 -0.32684276 0.028939255 -0.47415417 -0.41845128 -0.4476755
00000000: 3fc1 0b3f 8058 be3e efd4 083f ef57 a7be
00000010: 0412 ed3c 56c4 f2be 3f3f d6be b935 e5be

conv_fin.bias f4 [8]
0.06279182 -0.01551498 0.0147542935 0.028909681 -0.057688408 0.031761583 0.1241818 -0.13226391
00000000: ff98 803d 8b32 7ebc febb 713c ffd3 ec3c
00000010: ae4a 6cbd 6f18 023d 0753 fe3d 3170 07be

conv_fin.lin_src.weight f4 [8, 4]
-0.2438901 0.041917868 -0.35169548 -0.3255112 -0.26740196 0.4488025 -0.18343282 -0.4917024
-0.2166367 0.19103977 0.25864688 -0.34785122 0.57322186 -0.66349685 -0.05579854 -0.049192257
0.5267624 -0.24614468 0.12243107 0.55167884 -0.6522892 0.53583694 -0.64944494 -0.34273797
-0.6214461 -0.14098094 -0.039115213 -0.29887784 -0.14589226 0.6213032 0.15979019 0.20133485
00000000: 54be 79be 12b2 2b3d 6e11 b4be 67a9 a6be
00000010: e9e8 88be 71c9 e53e d0d5 3bbe 6bc0 fbbe
00000020: 03d6 5dbe ee9f 433e 5d6d 843e 8e19 b2be
00000030: abbe 123f eeda 29bf 038d 64bd d27d 49bd
00000040: e7d9 063f 5a0d 7cbe 24bd fa3d d33a 0d3f
00000050: 6dfc 26bf 9c2c 093f 0642 26bf 5a7b afbe
00000060: 1717 1fbf 4f5d 10be 4637 20bd 8406 99be
00000070: c864 15be ba0d 1f3f 0aa0 233e b92a 4e3e

conv_fin.lin_dst.weight f4 [8, 4]
-0.2438901 0.041917868 -0.35169548 -0.3255112 -0.26740196 0.4488025 -0.18343282 -0.4917024
-0.2166367 0.19103977 0.25864688 -0.34785122 0.57322186 -0.66349685 -0.05579854 -0.049192257
0.5267624 -0.24614468 0.12243107 0.55167884 -0.6522892 0.53583694 -0.64944494 -0.34273797
-0.6214461 -0.14098094 -0.039115213 -0.29887784 -0.14589226 0.6213032 0.15979019 0.20133485
00000000: 54be 79be 12b2 2b3d 6e11 b4be 67a9 a6be
00000010: e9e8 88be 71c9 e53e d0d5 3bbe 6bc0 fbbe
00000020: 03d6 5dbe ee9f 433e 5d6d 843e 8e19 b2be
00000030: abbe 123f eeda 29bf 038d 64bd d27d 49bd
00000040: e7d9 063f 5a0d 7cbe 24bd fa3d d33a 0d3f
00000050: 6dfc 26bf 9c2c 093f 0642 26bf 5a7b afbe
00000060: 1717 1fbf 4f5d 10be 4637 20bd 8406 99be
00000070: c864 15be ba0d 1f3f 0aa0 233e b92a 4e3e

conv_fin.lin_edge.weight f4 [8, 12]
0.062158868 0.5165182 0.39907578 0.07199857 0.21347803 -0.44784552 0.49881062 0.464633
0.22199321 0.19395274 -0.49520144 0.41085976 -0.4939297 0.24801402 0.5475293 -0.3758443
0.2881052 0.29127565 -0.40502304 -0.051150173 0.34351873 0.54469615 -0.52758414 -0.4971018
0.28212643 0.30266002 -0.15974672 -0.41731817 -0.5113062 0.38998792 0.2325352 -0.3634649
-0.47937295 0.35342208 -0.4096785 -0.39398247 -0.5258673 0.25098786 0.48107824 0.29810452
-0.4614967 -0.4872182 0.37997642 0.41673216 0.40954104 -0.12692264 0.15636313 -0.27621716
0.05903102 -0.46728888 -0.5371795 0.24133272 -0.49713457 0.2584761 -0.38316986 -0.01665712
0.105930276 -0.30369604 -0.41329437 -0.34453654 -0.5069268 0.106001884 -0.37305102 0.4884959
0.4788809 -0.3710759 0.34223077 -0.24603394 -0.14628892 -0.1534165 -0.04860457 -0.3948052
-0.4013194 0.31487066 -0.2789107 -0.27758726 -0.109601244 -0.46811152 -0.4035427 0.1439875
-0.117840424 -0.20011084 0.1874346 -0.102574706 0.4366185 -0.069688216 -0.055819765 -0.42425597
0.022050574 -0.0747402 -0.43000028 -0.3976694 0.06724322 0.24456045 -0.041708782 -0.2670585
00000000: 4c9a 7e3d 893a 043f a953 cc3e fc73 933d
00000010: fc99 5a3e 024c e5be 1b64 ff3e 60e4 ed3e
00000020: 3052 633e 8c9b 463e 0b8b fdbe 365c d23e
00000030: 5be4 fcbe 63f7 7d3e e12a 0c3f aa6e c0be
00000040: 8682 933e 1522 953e 2e5f cfbe d882 51bd
00000050: b0e1 af3e 3571 0b3f c10f 07bf 2184 febe
00000060: e072 903e 41f6 9a3e a594 23be baaa d5be
00000070: f7e4 02bf 7fac c73e b51d 6e3e 1218 babe
00000080: 5f70 f5be bdf3 b43e 61c1 d1be 12b8 c9be
00000090: 3d9f 06bf 7b81 803e e34f f63e 28a1 983e
000000a0: 4c49 ecbe aa74 f9be 458c c23e eb5d d53e
000000b0: 5daf d13e 02f8 01be a81d 203e 566c 8dbe
000000c0: 83ca 713d 7d40 efbe 9984 09bf ed1f 773e
000000d0: 6c88 febe fb56 843e d72e c4be 8374 88bc
000000e0: f9f1 d83d 0c7e 9bbe 529b d3be 1867 b0be
000000f0: f4c5 01bf 8417 d93d 8b00 bfbe 221c fa3e
00000100: e12f f53e a9fd bdbe df38 af3e 52f0 7bbe
00000110: c3cc 15be 3719 1dbe 9615 47bd e823 cabe
00000120: bd79 cdbe ba36 a13e 62cd 8ebe eb1f 8ebe
00000130: 9e76 e0bd 50ac efbe 269d cebe 7671 133e
00000140: 5256 f1bd dbe9 4cbe dbee 3f3e b012 d2bd
00000150: 768c df3e b2b8 8ebd 44a3 64bd 1438 d9be
00000160: 68a3 b43c 6411 99bd ff28 dcbe 539b cbbe
00000170: d0b6 893d 0e6e 7a3e d4d6 2abd e4bb 88be

transf_fin.weight f4 [8, 8]
-0.3352728 -0.27533862 -0.00964498 -0.18915081 -0.0222027 0.34643587 0.0031189986 -0.25023243
0.08560557 -0.12978904 0.078708015 0.13512246 -0.14233741 0.030811386 0.23285373 0.20322444
-0.16280106 -0.1589545 0.056272212 -0.15994422 -0.20837098 -0.30047387 0.19812737 0.19415696
0.06948899 0.23338206 0.07246711 -0.07833354 -0.08722109 -0.06046859 -0.24379875 -0.32012275
-0.104034595 -0.14001708 -0.33507046 -0.22233117 0.008037022 0.12176345 -0.026647443 0.3008809
0.03288382 0.21724392 -0.1265553 0.0057167974 0.28830168 -0.046232704 0.22321689 -0.032260936
0.17684297 -0.20661855 0.034935586 0.1954465 -0.01085645 0.3456727 -0.24976864 0.08753756
0.280272 -0.18123657 0.23045939 -0.33235255 -0.18540558 -0.23669422 -0.0872071 0.28334716
00000000: e0a8 abbe 2ff9 8cbe fa05 1ebc c0b0 41be
00000010: 70e2 b5bc 0b60 b13e 1d68 4c3b 771e 80be
00000020: f951 af3d 6be7 04be ab31 a13d 8b5d 0a3e
00000030: e6c0 11be 2968 fc3c 3571 6e3e 111a 503e
00000040: 52b5 26be f8c4 22be b17d 663d 6bc8 23be
00000050: 345f 55be b6d7 99be e7e1 4a3e 15d1 463e
00000060: 3e50 8e3d b5fb 6e3e a369 943d 566d a0bd
00000070: f9a0 b2bd eaad 77bd 61a6 79be 21e7 a3be
00000080: 1710 d5bd a360 0fbe 5b8e abbe c8aa 63be
00000090: b7ad 033c 1e5f f93d bd4b dabc 100d 9a3e
000000a0: 2fb1 063d 3175 5e3e b697 01be f953 bb3b
000000b0: 479c 933e 815e 3dbd f892 643e 0b24 04bd
000000c0: 5316 353e d093 53be 9e18 0f3d 2123 483e
000000d0: 40df 31bc 03fc b03e 5ac3 7fbe e446 b33d
000000e0: d07f 8f3e 1496 39be 8cfd 6b3e 1d2a aabe
000000f0: f6da 3dbe f85f 72be a399 b2bd e112 913e

transf_fin.bias f4 [8]
-0.31853363 -0.011469252 0.30481234 0.13174273 -0.25964817 0.29734558 0.22881109 -0.30600622
00000000: d716 a3be 88e9 3bbc 5d10 9c3e 91e7 063e
00000010: 9bf0 84be ae3d 983e 744d 6a3e d9ac 9cbe

bn_fin.weight f4 [8]
1.0 1.0 1.0 1.0 1.0 1.0 1.0 1.0
00000000: 0000 803f 0000 803f 0000 803f 0000 803f
00000010: 0000 803f 0000 803f 0000 803f 0000 803f

bn_fin.bias f4 [8]
0.0 0.0 0.0 0.0 0.0 0.0 0.0 0.0
00000000: 0000 0000 0000 0000 0000 0000 0000 0000
00000010: 0000 0000 0000 0000 0000 0000 0000 0000

bn_fin.running_mean f4 [8]
0.0 0.0 0.0 0.0 0.0 0.0 0.0 0.0
00000000: 0000 0000 0000 0000 0000 0000 0000 0000
00000010: 0000 0000 0000 0000 0000 0000 0000 0000

bn_fin.running_var f4 [8]
1.0 1.0 1.0 1.0 1.0 1.0 1.0 1.0
00000000: 0000 803f 0000 803f 0000 803f 0000 803f
00000010: 0000 803f 0000 803f 0000 803f 0000 803f

pool_fin.select.weight f4 [1, 8]
0.13456535 -0.29740334 -0.23006211 -0.038086884 -0.31714714 -0.22892469 -0.32055405 0.2434163
00000000: 80cb 093e 4045 98be 6795 6bbe fe00 1cbd
00000010: 1c61 a2be 3c6b 6abe a91f a4be 1f42 793e

linear0.weight f4 [128, 10]
0.15481685 0.122813694 0.13260674 -0.21167296 0.19941875 -0.12687978 -0.27699074 -0.036291454
0.100231364 0.5013317 -0.14074174 0.21897775 -0.1778372 -0.16367844 -0.22587614 0.075077824
-0.2853426 -0.18899696 0.19755638 0.42855164 -0.0059405975 0.029402332 0.0690318 0.14159046
0.023536252 0.003890579 0.21715814 0.16635905 0.2527585 -0.3052959 0.2691911 -0.20528531
-0.039309155 0.076024905 0.13746046 0.1383873 0.23137185 0.3022131 -0.026754647 0.114878684
-0.12169733 -0.11799362 -0.011373406 0.24238692 0.06545519 0.13471936 0.10596638 0.2480961
0.19391465 -0.33954546 0.093496196 0.18981871 -0.16312228 0.051249035 -0.2050998 0.1845461
0.021331934 -0.25862238 -0.16467854 -0.2792765 -0.27617037 0.18042074 0.13240361 -0.19137534
0.23994516 0.09772919 -0.2900597 -0.26704025 0.017143749 0.152854 -0.08918047 0.25183824
-0.29142377 0.2733435 0.20483175 0.003965997 -0.18511751 0.2666572 -0.19292971 -0.07399875
-0.11377656 -0.014536576 0.19263774 -0.10519202 -0.2638505 -0.06153699 -0.3029613 -0.08090954
-0.07351309 0.090768844 0.024463246 0.09209983 -0.12391735 -0.01312034 0.070495844 -0.31764862
-0.26043832 -0.21674769 0.27456138 0.27005312 -0.036743745 -0.08234568 -0.16387086 0.25138918
0.050618526 -0.084512405 0.012662184 0.00773807 -0.1474131 0.36902922 0.18685526 -0.17766537
0.031665336 -0.11861318 -0.22244282 0.23353793 0.13816641 -0.28469184 -0.2726113 -0.37411693
-0.16595362 0.23917975 -0.013326137 -0.23205838 -0.042426724 0.2771185 0.14769894 0.24440177
0.22152802 -0.33189276 -0.26972315 -0.19626756 0.19071732 0.00085517706 0.0007558882 -0.03919965
0.09383863 0.1929406 0.034818184 -0.02229953 -0.30300167 0.07271608 0.14077117 0.08650759
0.27470392 0.005535761 -0.2988422 0.14309242 -0.17092042 -0.01932256 0.057794925 -0.031049736
-0.097732 0.20083037 -0.042622034 0.23986179 -0.014181755 -0.09919632 -0.05850582 0.038754877
-0.13729642 -0.044628125 -0.021439267 -0.14562224 -0.2773561 0.12806721 0.05416441 -0.26479012
0.094856665 0.062262166 0.25642282 -0.05351368 0.27070272 0.053266168 0.1198869 -0.054892015
-0.026916644 0.007692641 -0.13676636 -0.4472537 0.16710141 0.011545641 0.0918408 -0.250736
-0.28039345 -0.1979808 0.12303232 0.11796308 0.15380917 0.076974064 0.23250458 -0.04743435
0.090847425 0.026359068 -0.050674524 -0.21887177 -0.23705609 -0.2943086 -0.25610495 -0.20524992
-0.035641797 0.17842887 0.09208716 -0.14431648 -0.028878441 -0.32456678 0.19928238 0.043691203
0.047211494 0.28853846 -0.071700655 -0.16570318 0.02485124 -0.1755146 0.31662595 -0.25020963
0.20055783 -0.16983578 0.20447563 0.32465607 -0.012701707 -0.1627687 0.36252466 -0.15665756
0.20375258 -0.25444973 0.30665427 0.016723718 -0.14013717 -0.39589578 -0.30433676 -0.30142066
0.12539813 0.059821397 -0.19001938 -0.1825534 -0.24670172 0.31603825 -0.18926774 0.23557258
-0.28049204 0.15676223 -0.1964087 -0.078447066 0.2102654 -0.048869852 -0.29024208 0.20736009
-0.13638075 -0.0072907372 -0.27924678 -0.20185265 -0.085341886 -0.28792825 -0.2062141 -0.12373272
00000000: 4f88 1e3e bf85 fb3d 10ca 073e ccc0 58be
00000010: 6e34 4c3e c6ec 01be bbd1 8dbe 59a6 14bd
00000020: 1a46 cd3d 4657 003f 9a1e 10be b43b 603e
00000030: f41a 36be 529b 27be 134c 67be 67c2 993d
00000040: 6d18 92be 6b88 41be 384c 4a3e 1f6b db3e
00000050: 58a9 c2bb 29dd f03c 8b60 8d3d 17fd 103e
00000060: 19cf c03c 16f9 7e3b b45e 5e3e 075a 2a3e
00000070: 9069 813e bf4f 9cbe 6ad3 893e 5036 52be
00000080: a302 21bd f2b2 9b3d 6fc2 0c3e 66b5 0d3e
00000090: beec 6c3e adbb 9a3e 902c dbbc 8445 eb3d
000000a0: 733c f9bd a4a6 f1bd 8657 3abc 4734 783e
000000b0: 5f0d 863d dff3 093e e704 d93d e70c 7e3e
000000c0: 9091 463e e7d8 adbe ef7a bf3d d65f 423e
000000d0: 8709 27be 82ea 513d af05 52be a7f9 3c3e
000000e0: 4fc0 ae3c 276a 84be 7ea1 28be 54fd 8ebe
000000f0: 3466 8dbe 37c0 383e d094 073e e6f7 43be
00000100: 2fb4 753e 3e26 c83d b482 94be 80b9 88be
00000110: 0c71 8c3c c285 1c3e 40a4 b6bd f1f0 803e
00000120: 7f35 95be aef3 8b3e 6abf 513e 32f5 813b
00000130: 728f 3dbe 4b87 883e 5e8f 45be a88c 97bd
00000140: af03 e9bd d22a 6ebc d442 453e ea6e d7bd
00000150: 6a17 87be 360e 7cbd be1d 9bbe e7b3 a5bd
00000160: 088e 96bd 04e5 b93d 2567 c83c d69e bc3d
00000170: 61c8 fdbd b2f6 56bc 2060 903d d7a2 a2be
00000180: 2c58 85be 1bf3 5dbe 4f93 8c3e 6744 8a3e
00000190: 9c80 16bd daa4 a8bd c3cd 27be 15b6 803e
000001a0: 5f55 4f3d d714 adbd 0d75 4f3c a38f fd3b
000001b0: 76f3 16be 66f1 bc3e fc56 3f3e e9ed 35be
000001c0: 83b3 013d 78eb f2bd 0dc8 63be 9124 6f3e
000001d0: 7f7b 0d3e 21c3 91be b593 8bbe 418c bfbe
000001e0: bfef 29be 89eb 743e df55 5abc b6a0 6dbe
000001f0: a5c7 2dbd 7ae2 8d3e 643e 173e 7544 7a3e
00000200: 3ed8 623e d9ed a9be 2719 8abe 5dfa 48be
00000210: 674b 433e f62d 603a cc26 463a d08f 20bd
00000220: 782e c03d 3892 453e 839d 0e3d 81ad b6bc
00000230: 0923 9bbe 2bec 943d 5126 103e e42a b13d
00000240: fea5 8c3e 5465 b53b d801 99be d286 123e
00000250: c305 2fbe 584a 9ebc 5fba 6c3d 045c febc
00000260: b727 c8bd 7aa6 4d3e 7194 2ebd 549e 753e
00000270: 975a 68bc 7127 cbbd cca3 6fbd 6fbd 1e3d
00000280: 6f97 0cbe fbcb 36bd 67a1 afbc ff1d 15be
00000290: 9e01 8ebe 0d24 033e 80db 5d3d 9292 87be
000002a0: 3644 c23d 9d06 7f3d da49 833e 2931 5bbd
000002b0: 8c99 8a3e a02d 5a3d 4387 f53d 73d6 60bd
000002c0: 4b80 dcbc 8d12 fc3b 7b0c 0cbe 70fe e4be
000002d0: a21c 2b3e ee29 3d3c 0817 bc3d 7860 80be
000002e0: bb8f 8fbe 7bbb 4abe 5ef8 fb3d a196 f13d
000002f0: 2780 1d3e 94a4 9d3d ae15 6e3e 854a 42bd
00000300: 370e ba3d f9ee d73c 1790 4fbd ec1f 60be
00000310: d5be 72be 9eaf 96be 3020 83be 092d 52be
00000320: 22fd 11bd 0fb6 363e 3198 bc3d b3c7 13be
00000330: 7b92 ecbc 9e2d a6be ae10 4c3e 8cf5 323d
00000340: d760 413d 50bb 933e cbd7 92bd 18ae 29be
00000350: d494 cb3c 19ba 33be cc1c a23e 7a1b 80be
00000360: 085f 4d3e 6ee9 2dbe 0f62 513e 5239 a63e
00000370: d21a 50bc d7ac 26be d59c b93e d76a 20be
00000380: 84a4 503e 3c47 82be ca01 9d3e 2e00 893c
00000390: 1e80 0fbe dab2 cabe 07d2 9bbe cf53 9abe
000003a0: 5e68 003e 4807 753d 7194 42be 47ef 3abe
000003b0: 609f 7cbe c4cf a13e 67cf 41be f039 713e
000003c0: a79c 8fbe 4786 203e 5d1f 49be dba8 a0bd
000003d0: d04f 573e c12b 48bd 9c9a 94be 3456 543e
000003e0: 65a7 0bbe 23e7 eebb 6ff9 8ebe 76b2 4ebe
000003f0: bac7 aebd 556b 93be ca29 53be 9567 fdbd

linear0.bias f4 [128]
-0.31477293 -0.09659072 0.14469521 -0.024154335 0.24797224 0.33076495 0.2446955 -0.12543128
-0.14911784 -0.14343625 0.056137167 -0.16115418 0.30300486 -0.24448742 0.32754454 -0.16577055
0.14041497 0.1664112 0.26069817 0.28835723 -0.033913672 0.016174631 0.07910882 0.15111676
-0.24948968 -0.22583641 -0.0033587322 0.0400343 0.14911304 -0.2687648 0.026096435 -0.32153887
-0.17161697 0.28169262 0.041858587 0.07494641 -0.021368474 -0.29658708 0.01399985 0.24440743
-0.14495069 -0.1641655 -0.0569467 0.23679923 -0.1894038 0.13489144 0.44370162 -0.027710004
0.2288069 -0.1940553 -0.036394443 -0.18831208 0.3087798 -0.1867634 -0.017805163 0.13088393
0.283043 -0.07187968 0.18643 -0.008277296 -0.24358839 -0.033211507 -0.14059938 0.029823018
0.06111881 0.040918294 0.1392148 -0.2847475 -0.039045814 -0.29351857 0.19744365 0.2518451
0.10269262 -0.04183874 0.218632 0.22232084 0.100784466 -0.18018515 -0.17754638 0.04974893
0.26757196 -0.2574517 0.3504503 -0.27838328 -0.030260693 -0.06488204 -0.09488971 -0.12050417
0.08227903 -0.32858384 0.19130164 0.012780944 0.03596339 0.09930054 0.36926106 0.06744341
-0.12682645 0.022448737 -0.3605121 -0.14797255 0.0745567 -0.30298454 0.29553702 -0.18116719
0.335433 0.2641052 -0.27211788 -0.2456979 0.0047346368 0.36421537 -0.13989514 -0.07741133
-0.3032451 0.010601817 -0.37875855 0.14149965 -0.3049099 -0.2755403 0.24043055 -0.12375908
-0.09109665 -0.32124496 -0.25524178 0.0936944 -0.30509707 0.16489223 0.23871246 -0.3465947
00000000: eb29 a1be 5bd1 c5bd fb2a 143e 50df c5bc
00000010: 6fec 7d3e 065a a93e 7591 7a3e 0f71 00be
00000020: 59b2 18be f4e0 12be 16f0 653d 9a05 25be
00000030: 7423 9b3e e95a 7abe ebb3 a73e c1bf 29be
00000040: f1c8 0f3e b367 2a3e 3b7a 853e 8fa3 933e
00000050: 10e9 0abd a980 843c ce03 a23d 5abe 1a3e
00000060: 397a 7fbe a941 67be 2d1e 5cbb 02fb 233d
00000070: 17b1 183e 8a9b 89be 31c8 d53c bea0 a4be
00000080: 5cbc 2fbe 043a 903e e973 2b3d 817d 993d
00000090: f00c afbc 43da 97be a05f 653c f145 7a3e
000000a0: f46d 14be 001b 28be f140 69bd 7f7b 723e
000000b0: 12f3 41be fb20 0a3e dc2c e33e 1700 e3bc
000000c0: 5b4c 6a3e 6fb6 46be 5712 15bd e2d4 40be
000000d0: 6318 9e3e e83e 3fbe 22dc 91bc 7006 063e
000000e0: 03eb 903e a735 93bd 82e7 3e3e 7f9d 07bc
000000f0: 3c6f 79be ca08 08bd 49f9 0fbe 674f f43c
00000100: b857 7a3d f199 273d 538e 0e3e 6dca 91be
00000110: 81ee 1fbd 1148 96be ab2e 4a3e d7f1 803e
00000120: 8250 d23d 195f 2bbd 11e1 5f3e 13a8 633e
00000130: 1668 ce3d 7582 38be b8ce 35be 89c5 4b3d
00000140: 31ff 883e b6d0 83be 396e b33e 4188 8ebe
00000150: 46e5 f7bc e0e0 84bd 8955 c2bd e4ca f6bd
00000160: e881 a83d 243c a8be 94e4 433e 2a67 513c
00000170: 594e 133d 155e cb3d c90f bd3e c51f 8a3d
00000180: cbde 01be 6ae6 b73c 0b95 b8be 1e86 17be
00000190: 2fb1 983d ca20 9bbe a150 973e e483 39be
000001a0: e0bd ab3e cc38 873e 0953 8bbe 3b98 7bbe
000001b0: 0325 9b3b 707a ba3e ac40 0fbe d589 9ebd
000001c0: f142 9bbe 3eb3 2d3c a4ec c1be 49e5 103e
000001d0: 271d 9cbe 9e13 8dbe 6d33 763e 6775 fdbd
000001e0: e190 babd 387a a4be 0daf 82be d9e2 bf3d
000001f0: af35 9cbe 82d9 283e 0a71 743e dc74 b1be

linear2.weight f4 [128, 128]
0.053970885 -0.05139717 -0.07170181 -0.086887985 -0.0030038042 0.029712588 0.08019006 -0.060241148
-0.08696055 0.019603666 0.077291615 -0.032185853 -0.07490205 0.054118246 -0.040675122 -0.053114355
-0.05257657 -0.07532399 0.03250313 -0.066088505 -0.050058704 -0.0040236884 -0.014188634 -0.028888948
-0.08115882 0.04786157 0.03136428 -0.02780502 -0.038285077 -0.049613465 -0.005838536 0.07700882
-0.071919635 -0.05375675 0.024350675 -0.065698564 0.060503263 0.009205921 0.073919974 0.038260896
-0.07776661 0.011542675 0.07445644 0.026099999 -0.029118521 0.04566033 -0.011018994 -0.058937177
0.007105769 -0.075238936 0.081100844 0.022895988 -0.070447266 0.062124573 0.05940321 -0.045299187
0.014524105 -0.062184118 -0.048847154 0.014375695 -0.027259441 0.013799494 -0.049849365 0.046585217
-0.013406456 -0.08215859 0.05036629 0.070065826 -0.062281273 0.0055135093 -0.077497974 -0.062713586
-0.07407502 0.048491634 0.04177924 -0.029551646 -0.038736135 -0.08071183 0.041180313 -0.06694464
0.00028990136 0.06667269 0.02581732 0.054883018 -0.066010505 -0.07776801 -0.056474682 0.03880809
0.03777975 -0.088947475 0.018250434 -0.08165118 0.072560854 0.055934798 0.040733997 -0.0016373622
0.060775902 0.0075816084 0.037404478 -6.408788e-05 0.05375531 -0.011410548 -0.06025622 -0.022083636
0.0053207576 0.07139165 0.03205117 0.0033432408 -0.040376898 -0.05910234 -0.079378776 0.03739053
-0.04023129 0.07723034 -0.045624502 0.004637789 0.031235775 0.008834445 0.080480225 0.068745464
-0.01926211 0.047021933 0.054413382 -0.0005755181 -0.008466033 -0.049934465 -0.059377372 -0.07690908
-0.02018637 0.007522963 -0.11687617 -0.059967406 -0.051131465 -0.012506138 0.015816482 0.0733792
-0.022001162 -0.07642068 0.092464164 0.07190706 -0.0327904 0.030937811 -0.09902294 -0.019140398
-0.07836941 -0.0058506485 -0.09363201 -0.012590919 0.106693275 -0.040397882 0.006575684 -0.044316847
0.010713587 -0.009109354 -0.06747447 0.061655745 0.06686528 -0.027328858 -0.08375669 -0.06749546
-0.034423508 -0.07416604 -0.09504972 0.08627765 -0.046452444 -0.0025288987 0.045260295 -0.07678226
0.061241057 0.001362974 -0.039622594 0.038039256 0.10684228 -0.027230708 -0.13375299 0.054364864
-0.058420178 -0.018818403 0.059185375 0.09289927 0.05382327 -0.041755084 -0.04142989 0.036013372
0.04231991 0.03838932 0.0050960877 -0.009283316 0.08728695 -0.027354328 -0.037355077 -0.010640145
0.083895475 0.002528401 -0.03156646 -0.088151835 -0.009947918 0.06277807 0.0784803 -0.03437527
0.08799806 -0.034545757 0.02602233 -0.029649207 -0.009909632 -0.042033482 -0.043620925 0.05103465
-0.09972836 0.05511174 -0.13356867 0.018866284 0.03141621 -0.025803123 -0.077616945 -0.05087256
-0.007985813 0.04004318 0.03767813 -0.060593233 0.03369006 0.04022679 -0.0010597307 -0.022772118
0.08867603 0.022511933 0.03844985 0.09179298 -0.06753882 -0.012605714 0.00718877 -0.0021644952
0.0021675257 -0.034958586 -0.08568181 -0.0038986534 0.035153106 0.07304248 -0.05075611 -0.010524226
-0.05410379 -0.023003455 -0.012634884 -0.06496842 -0.07672674 0.09010448 0.02048438 0.05590956
0.029646415 0.09416548 -0.035597958 -0.048308272 0.097013935 0.047971435 -0.04483471 0.121903785
00000000: 9310 5d3d d785 52bd 66d8 92bd 54f2 b1bd
00000010: 79db 44bb d067 f33c b03a a43d 6cbf 76bd
00000020: 5f18 b2bd de97 a03c 114b 9e3d 50d5 03bd
00000030: 3f66 99bd 18ab 5d3d f59a 26bd 708e 59bd
00000040: 885a 57bd 7743 9abd 0122 053d 6959 87bd
00000050: 5b0a 4dbd 25d9 83bb 7277 68bc 84a8 ecbc
00000060: 9836 a6bd 7e0a 443d d577 003d 5ac7 e3bc
00000070: d0d0 1cbd 7d37 4bbd 3151 bfbb cdb6 9d3d
00000080: 9a4a 93bd 0a30 5cbd 117b c73c f88c 86bd
00000090: 45d2 773d 6ed4 163c 5b63 973d 75b7 1c3d
000000a0: 1a44 9fbd 7d1d 3d3c 9e7c 983d aacf d53c
000000b0: f789 eebc 5406 3b3d 0389 34bc 1c68 71bd
000000c0: 83d7 e83b df16 9abd 3318 a63d 5e90 bb3c
000000d0: a846 90bd 5676 7e3d c850 733d a48b 39bd
000000e0: 83f6 6d3c c6b4 7ebd f413 48bd 0988 6b3c
000000f0: 314f dfbc 4617 623c d92e 4cbd 24d0 3e3d
00000100: c1a6 5bbc c342 a8bd e24c 4e3d ac7e 8f3d
00000110: a61a 7fbd abaa b43b 42b7 9ebd fb6f 80bd
00000120: a5b4 97bd 2a9f 463d b520 2b3d 4b16 f2bc
00000130: c8a9 1ebd 3e4c a5bd b0ac 283d 451a 89bd
00000140: e7fd 9739 b18b 883d d87e d33c 04cd 603d
00000150: 8430 87bd d644 9fbd ff51 67bd 3bf5 1e3d
00000160: f0be 1a3d 182a b6bd ef81 953c bc38 a7bd
00000170: c99a 943d e31b 653d b1d8 263d c29c d6ba
00000180: 27f0 783d 246f f83b 7035 193d eb66 86b8
00000190: 872e 5c3d 4ff3 3abc 3acf 76bd bee8 b4bc
000001a0: c059 ae3b c935 923d 1648 033d 461a 5b3b
000001b0: 3f62 25bd 4c15 72bd 5791 a2bd d026 193d
000001c0: 91c9 24bd f12a 9e3d c2e0 3abd 98f8 973b
000001d0: 2be2 ff3c 59be 103c d1d2 a43d 6cca 8c3d
000001e0: 93cb 9dbc 129a 403d 91e0 5e3d 5ede 16ba
000001f0: 1eb5 0abc 1588 4cbd b035 73bd 8282 9dbd
00000200: e35d a5bc 3083 f63b c65c efbd 62a0 75bd
00000210: 3a6f 51bd 8be6 4cbc 9191 813c d647 963d
00000220: c83b b4bc 7282 9cbd da5d bd3d 0244 933d
00000230: 3a4f 06bd 4b71 fd3c 8acc cabd 53cc 9cbc
00000240: 2480 a0bd ccb6 bfbb 24c2 bfbd 244a 4ebc
00000250: 0182 da3d 4078 25bd d678 d73b 9585 35bd
00000260: 0a88 2f3c 663f 15bc 0e30 8abd bc8a 7c3d
00000270: aaf0 883d c5e0 dfbc a188 abbd 0f3b 8abd
00000280: aaff 0cbd 5de4 97bd 6da9 c2bd 56b2 b03d
00000290: eb44 3ebd e1bb 25bb dc62 393d 0440 9dbd
000002a0: e7d7 7a3d d2a5 b23a 4d4b 22bd 0dcf 1b3d
000002b0: 20d0 da3d ef12 dfbc 8bf6 08be b1ad 5e3d
000002c0: ff49 6fbd 0d29 9abc 5d6c 723d f941 be3d
000002d0: ca75 5c3d 6107 2bbd 63b2 29bd c282 133d
000002e0: a457 2d3d 1f3e 1d3d 15fd a63b 0d19 18bc
000002f0: 80c3 b23d 2f16 e0bc a301 19bd 0154 2ebc
00000300: 64d1 ab3d 88b3 253b d54b 01bd f388 b4bd
00000310: 98fc 22bc ca91 803d 48ba a03d 15cd 0cbd
00000320: 5438 b43d da7f 0dbd c82c d53c e5e2 f2bc
00000330: 025c 22bc 4d2b 2cbd dbab 32bd b609 513d
00000340: 623e ccbd d9bc 613d 3ac6 08be 778d 9a3c
00000350: 49ae 003d 1261 d3bc a2f5 9ebd bf5f 50bd
00000360: edd6 02bc 5104 243d 6254 1a3d 9c30 78bd
00000370: 97fe 093d d9c4 243d a9e6 8aba 988c babc
00000380: c79b b53d f26a b83c 977d 1d3d f5fd bb3d
00000390: cb51 8abd 3288 4ebc c68f eb3b 34da 0dbb
000003a0: 0c0d 0e3b bc30 0fbd f279 afbd 8d80 7fbb
000003b0: b4fc 0f3d 4c97 953d a4e5 4fbd ce6d 2cbc
000003c0: f09b 5dbd be71 bcbc 8b02 4fbc 2a0e 85bd
000003d0: e922 9dbd b388 b83d dcce a73c 6c01 653d
000003e0: 0add f23c d5d9 c03d 2acf 11bd e5de 45bd
000003f0: 3eaf c63d b27d 443d 9aa4 37bd b1a8 f93d

linear2.bias f4 [128]
0.027164835 -0.07343119 -0.15200889 0.0031499425 0.055457424 0.08407406 -0.026340922 -0.08457014
0.056655478 -0.047049697 -0.13556354 -0.041711815 0.008734027 -0.010174109 0.0426329 0.029593064
0.0238905 0.08425294 -0.02597546 0.013907837 0.05617626 -0.038179766 -0.1763979 0.08923842
-0.03835715 -0.11500317 0.08555543 -0.07164413 0.0045538554 0.029231738 -0.03180869 -0.0036893326
0.0032319224 0.07879986 0.04491795 0.072783954 0.0735185 -0.026059175 0.016215416 0.046338268
-0.038988274 0.019364316 -0.005600922 -0.017647712 -0.021495942 0.0014307654 0.054838557 0.049375236
-0.0641679 0.07472716 0.019049784 -0.0411655 0.016889013 -0.13247454 -0.07105408 -0.05512432
-0.15144289 -0.085976966 -0.078036524 -0.08209895 0.06855898 0.014119436 0.035246026 -0.04812779
-0.03316895 -0.06410933 -0.08582944 0.03331791 -0.010750836 0.037603147 0.115081415 -0.09769129
0.080197796 -0.023668174 0.016057024 -0.036313403 -0.065773726 0.07422003 0.007803139 0.0070458925
-0.06468855 -0.034676097 0.022352906 0.055183124 -0.025875458 -0.09978012 0.037139345 0.065449804
0.04332833 0.030689983 0.022410823 -0.051610693 -0.040430006 0.008456617 0.005394968 0.06409929
-0.06854761 0.028984442 -0.020398991 0.06843519 -0.0684697 -0.016149111 0.0541811 0.06549493
0.054849025 0.069465816 0.023767963 -0.023274146 -0.12713799 0.043424897 -0.0717048 0.0583072
0.066851705 0.11185758 0.07160099 -0.0279728 0.0028483334 0.03750263 -0.0064600557 -0.08079829
-0.09443868 0.050321657 0.0072110645 -0.08349024 -0.067877635 -0.05571429 -0.04905366 0.021536374
00000000: ca88 de3c 1763 96bd 38a8 1bbe 446f 4e3b
00000010: 5327 633d 052f ac3d ebc8 d7bc 1c33 adbd
00000020: 930f 683d 2fb7 40bd 2bd1 0abe 02da 2abd
00000030: 2a19 0f3c 4eb1 26bc d69f 2e3d 276d f23c
00000040: 03b6 c33c ce8c ac3d 7dca d4bc b2dd 633c
00000050: 1419 663d 6362 1cbd a7a1 34be a2c2 b63d
00000060: 631c 1dbd c886 ebbd af37 af3d 28ba 92bd
00000070: 8238 953b 6677 ef3c d449 02bd bbc8 71bb
00000080: a9ce 533b d261 a13d e2fb 373d c10f 953d
00000090: de90 963d 0d7a d5bc 31d6 843c 32cd 3d3d
000000a0: 2bb2 1fbd eaa1 9e3c f087 b7bb ef91 90bc
000000b0: 4218 b0bc 8588 bb3a 659e 603d b03d 4a3d
000000c0: 766a 83bd 8e0a 993d 4b0e 9c3c 289d 28bd
000000d0: d45a 8a3c 68a7 07be cd84 91bd 0aca 61bd
000000e0: d813 1bbe b114 b0bd 9dd1 9fbd 7f23 a8bd
000000f0: a768 8c3d 3555 673c 235e 103d a521 45bd
00000100: 2adc 07bd c14b 83bd 58c7 afbd 5c78 083d
00000110: 4624 30bc c205 1a3d ceaf eb3d 5f12 c8bd
00000120: be3e a43d c2e3 c1bc 058a 833c 5dbd 14bd
00000130: 60b4 86bd ac00 983d 79b1 ff3b 3be1 e63b
00000140: 6e7b 84bd 8608 0ebd 711d b73c b307 623d
00000150: c5f8 d3bc 8559 ccbd 6d1f 183d 8c0a 863d
00000160: 0c79 313d 8f69 fb3c e796 b73c bc65 53bd
00000170: ef99 25bd 9f8d 0a3c 46c8 b03b 7d46 833d
00000180: b062 8cbd c870 ed3c c91b a7bc c027 8c3d
00000190: d839 8cbd 244b 84bc 00ed 5d3d 3522 863d
000001a0: 5fa9 603d 1844 8e3d 08b5 c23c 6ca9 bebc
000001b0: 7630 02be 4ede 313d f7d9 92bd 88d3 6e3d
000001c0: 8ce9 883d 9615 e53d 8aa3 923d 3727 e5bc
000001d0: 1bab 3a3b 5c9c 193d e0ae d3bb 9379 a5bd
000001e0: 1169 c1bd 151e 4e3d cb4a ec3b eefc aabd
000001f0: 6e03 8bbd ab34 64bd 7eec 48bd 0d6d b03c

linear3.weight f4 [64, 128]
0.041051675 -0.036719833 0.10945583 0.011413625 -0.089587085 0.006504715 0.038932957 -0.045470595
0.086134434 0.041525442 -0.0041457103 -0.05414657 0.035886385 0.03527034 0.07414546 0.07264347
0.053673416 -0.040376052 0.038886555 -0.044925123 0.10040671 -0.0074650864 -0.021411892 0.098716035
0.034270503 0.09419893 0.05730151 0.02527112 0.06367604 -0.056016847 0.0496876 -0.089927085
0.07860634 0.041206103 0.058312457 -0.014515062 0.015653068 -0.046237007 0.029163463 0.084835045
-0.030620633 0.0465673 0.06040731 0.030532422 0.07012875 -0.04090394 -0.024791738 0.03227397
-0.057017777 0.09060267 -0.008134603 0.078391545 0.0388687 0.10353638 -0.030344306 0.06399591
-0.051054187 0.051430777 -0.057719663 0.022701414 0.043971505 0.06251673 -0.08353627 0.048720755
-0.07678613 -0.054409593 0.029076725 -0.017036242 0.065506585 0.009306262 0.07825689 -0.037520315
-0.068575986 0.106257625 0.018077413 0.05082478 0.028188718 -0.003946815 -0.0005403861 -0.05462512
-0.032785304 -0.031106982 -0.04509916 0.07346722 0.08986479 0.056098066 0.01435276 -0.009452565
0.06751056 -0.05447703 -0.07382795 -0.053197738 -0.031716306 0.053410444 -0.035571456 0.086653925
0.016344149 0.07629888 0.07096648 0.0095434245 0.04004718 -0.019580165 0.071966335 0.035802472
0.052796908 -0.07823956 -0.0855281 0.049102474 0.11285473 0.070440754 0.001715507 -0.05672629
0.021061124 -0.047543827 0.038042333 -0.056337927 0.04879896 0.026559893 -0.014491056 0.047685225
-0.009897981 0.0041261264 0.025609743 0.05106615 -0.0585229 0.046983812 -0.05381878 0.0584037
-0.056185182 0.012709687 0.048775576 -0.074350424 0.07105488 -0.05760396 0.07863478 0.047638144
-0.0629206 0.04242666 -0.06424597 0.004281008 -0.053493526 0.038732704 0.004641166 0.0021684307
-0.0889399 0.035577722 6.4414715e-05 -0.07212442 -0.071193546 -0.07553738 0.07999758 0.05040676
-0.08183845 -0.07147082 0.040823936 0.02034333 0.049432684 -0.078323185 -0.082053676 -0.012876941
-0.033353493 -0.06851344 0.08007805 0.0865693 -0.07240783 -0.062741496 0.0036052105 -0.023694362
-0.0056066383 0.011090946 0.07160771 0.066403 -0.060122576 0.03339497 0.0016291883 0.04878807
0.060811635 -0.06904306 0.07198806 0.029773798 -0.011464763 0.023216601 -0.05604663 -0.006335041
0.034743752 0.0909287 -0.05047986 0.049074907 -0.06996871 0.055693958 -0.08026906 0.05190979
-0.05935576 -0.07028482 -0.051731944 0.06926993 0.066231415 -0.035229065 0.055703364 0.05108034
-0.06858472 0.015761867 0.02473899 -0.08310926 0.08681126 0.038072906 0.044381063 -0.04583935
0.045986164 0.036481496 0.047252424 -0.02433319 -0.081700794 -0.036139354 0.0027410178 -0.039229374
0.061575785 0.004951689 -0.0031522436 -0.07455426 -0.0076062623 0.054052148 0.007417211 0.008955068
0.07410269 0.07628339 0.06255554 -0.04327055 0.07695267 0.011947832 0.0020435501 0.010828918
0.06666168 0.07007542 -0.06423707 0.050836112 0.072441086 -0.058359917 -0.049503032 0.04927815
0.05171441 -0.06959181 -0.057503443 -0.023960292 0.04954475 -0.0393721 0.058782373 -0.02247735
0.012941548 -0.012433196 -0.009728936 0.014334174 -0.05135704 -0.063379705 -0.0061788694 0.057303652
00000000: cd25 283d 8967 16bd 612a e03d 3700 3b3c
00000010: 6f79 b7bd 8125 d53b 2a78 1f3d 603f 3abd
00000020: 4067 b03d 9516 2a3d bdd8 87bb cbc8 5dbd
00000030: 9afd 123d a277 103d 93d9 973d 19c6 943d
00000040: a8d8 5b3d 5c61 25bd 8247 1f3d 6803 38bd
00000050: 08a2 cd3d af9d f4bb fe67 afbc a22b ca3d
00000060: 3a5f 0c3d 5eeb c03d fdb4 6a3d 6105 cf3c
00000070: 9568 823d ec71 65bd 3a85 4b3d b12b b8bd
00000080: 5cfc a03d bbc7 283d 0bd9 6e3d 95d0 6dbc
00000090: dd3a 803c 0463 3dbd 37e8 ee3c ffbd ad3d
000000a0: 1fd8 fabc 5abd 3e3d a86d 773d 211f fa3c
000000b0: a99f 8f3d e48a 27bd 0b18 cbbc b631 043d
000000c0: 798b 69bd e58d b93d ff46 05bc bf8b a03d
000000d0: c934 1f3d e20a d43d 9f94 f8bc 4a10 833d
000000e0: 321e 51bd 14a9 523d 746b 6cbd 51f8 b93c
000000f0: 771b 343d c508 803d 1015 abbd 6a8f 473d
00000100: 0c42 9dbd 98dc 5ebd 5032 ee3c 978f 8bbc
00000110: 5128 863d 4b79 183c 2645 a03d e7ae 19bd
00000120: 9171 8cbd 999d d93d 1517 943c a52d 503d
00000130: 07ec e63c 4954 81bb b3a8 0dba 97be 5fbd
00000140: e249 06bd 12d4 febc e6b9 38bd fb75 963d
00000150: 080b b83d 16c7 653d d727 6b3c eede 1abc
00000160: fa42 8a3d 4e23 5fbd 1c33 97bd dfe5 59bd
00000170: f5e8 01bd e9c4 5a3d 60b3 11bd 9d77 b13d
00000180: 2ae4 853c 9642 9c3d e056 913d 065c 1c3c
00000190: 8308 243d 9566 a0bc 1663 933d 9da5 123d
000001a0: 9241 583d 103c a0bd 5b29 afbd ad1f 493d
000001b0: 6120 e73d 3e43 903d ddda e03a d459 68bd
000001c0: 6188 ac3c 51bd 42bd 47d2 1b3d 99c2 66bd
000001d0: 6be1 473d 2294 d93c e56b 6dbc 9551 433d
000001e0: 242b 22bc 7534 873b 86cb d13c bd2a 513d
000001f0: b5b5 6fbd 1972 403d 1571 5cbd b838 6f3d
00000200: 6f22 66bd 4b3c 503c e6c8 473d 0945 98bd
00000210: 3985 913d 21f2 6bbd 460b a13d 3720 433d
00000220: 84dc 80bd 94c7 2d3d 6493 83bd b347 8c3b
00000230: 071c 5bbd 2fa6 1e3d ec14 983b 3b1c 0e3b
00000240: 1f26 b6bd f2b9 113d 6316 8738 f8b5 93bd
00000250: eccd 91bd 58b3 9abd c5d5 a33d 5277 4e3d
00000260: eb9a a7bd 4b5f 92bd 0037 273d 0ea7 a63c
00000270: ed79 4a3d e867 a0bd c20b a8bd cef9 52bc
00000280: ac9d 08bd c650 8cbd f6ff a33d 3f4b b13d
00000290: 8e4a 94bd 9d7e 80bd 6545 6c3b ae1a c2bc
000002a0: e4b7 b7bb cdb6 353c 10a7 923d 4cfe 873d
000002b0: 1743 76bd 2ac9 083d 7d8a d53a 00d6 473d
000002c0: 9f15 793d 7366 8dbd 7a6e 933d 2ee8 f33c
000002d0: b4d6 3bbc be30 be3c 2791 65bd 2d96 cfbb
000002e0: 774f 0e3d d438 ba3d f8c3 4ebd c502 493d
000002f0: c14b 8fbd 591f 643d 1b64 a4bd 5c9f 543d
00000300: 071f 73bd 7df1 8fbd e0e4 53bd 65dd 8d3d
00000310: 56a4 873d 5a4c 10bd 3629 643d 9e39 513d
00000320: 2576 8cbd 081f 813c 6ca9 ca3c 3035 aabd
00000330: 1aca b13d 56f2 1b3d ebc8 353d 0bc2 3bbd
00000340: fd5b 3c3d 9f6d 153d c28b 413d 6656 c7bc
00000350: bf52 a7bd dc06 14bd a6a2 333b fbae 20bd
00000360: e436 7c3d c741 a23b df95 4ebb e7af 98bd
00000370: f43d f9bb c965 5d3d 130c f33b 47b8 123c
00000380: 27c3 973d 773a 9c3d 1e1d 803d 763c 31bd
00000390: 5d99 9d3d d7c0 433c 15ed 053b c66b 313c
000003a0: eb85 883d b483 8f3d ba8e 83bd 8739 503d
000003b0: fe5b 943d cf0a 6fbd b1c3 4abd e3d7 493d
000003c0: 7dd2 533d 2786 8ebd bb88 6bbd 6048 c4bc
000003d0: 70ef 4a3d a444 21bd c9c5 703d 6b22 b8bc
000003e0: c908 543c 9bb4 4bbc 1d66 1fbc e2d9 6a3c
000003f0: c25b 52bd 38cd 81bd 1d78 cabb 3cb7 6a3d

linear3.bias f4 [64]
0.05077444 0.029540658 -0.028984966 -0.088541 -0.045866773 -0.040126156 -0.07053624 -0.055482097
0.061932664 -0.004107983 -0.06775178 -0.09439516 0.026375271 -0.07743667 -0.002273538 0.002242303
0.07065532 -0.08783143 -0.042013977 -0.026783384 0.035738822 0.0002770479 -0.036535755 -0.0058332696
-0.028865535 -0.050657935 0.049313936 -0.08275261 -0.026892701 -0.006974617 0.020934438 0.03910058
0.046313047 -0.041633386 -0.028302694 0.0066404347 -0.090294585 0.010668349 -0.022541286 -0.03211836
0.042480323 -0.0061661555 -0.07750595 -0.06853963 0.045645397 0.039767627 0.009364801 0.039018203
-0.04749623 0.08664635 0.046496358 -0.039975945 -0.012267946 0.026059676 0.056313977 0.028314304
-0.018217899 0.026279243 -0.06723243 -0.0144901825 0.05828673 -0.027152263 -0.032168828 -0.051228985
00000000: dcf8 4f3d 40ff f13c e171 edbc fc54 b5bd
00000010: ccde 3bbd 535b 24bd 4e75 90bd 3241 63bd
00000020: 1bad 7d3d 429c 86bb 72c1 8abd 4052 c1bd
00000030: f410 d83c 1e97 9ebd a3ff 14bb 9af3 123b
00000040: bdb3 903d f7e0 b3bd d916 2cbd d468 dbbc
00000050: df62 123d bd40 9139 84a6 15bd 0325 bfbb
00000060: 6a77 ecbc b27e 4fbd 69fd 493d 337a a9bd
00000070: 154e dcbc 548b e4bb b37e ab3c ee27 203d
00000080: c0b2 3d3d c587 2abd 0ddb e7bc 0198 d93b
00000090: 5eec b8bd 4dca 2e3c 81a8 b8bc 8b8e 03bd
000000a0: d9ff 2d3d 760d cabb 71bb 9ebd 815e 8cbd
000000b0: abf6 3a3d 61e3 223d d36e 193c 8dd1 1f3d
000000c0: 688b 42bd a473 b13d f772 3e3d d1bd 23bd
000000d0: 7fff 48bc 1a7b d53c 7ca9 663d 66f3 e73c
000000e0: b43d 95bc 9147 d73c 28b1 89bd 3b68 6dbc
000000f0: 11be 6e3d 6c6e debc 76c3 03bd 7cd5 51bd

linear5.weight f4 [1, 64]
0.20459329 0.0680185 -0.09419028 0.009130992 -0.065233596 0.013596941 -0.064598486 0.1136282
-0.16456741 0.1977021 -0.0074826987 -0.074468836 -0.042168457 -0.08021224 0.06903186 0.40261698
0.2862394 0.050994653 0.18903787 -0.024658265 -0.08797962 0.38024095 0.07002268 0.039874826
-0.0011599376 -0.06501793 0.0787939 -0.081249304 0.39477837 -0.0070414348 0.42533398 -0.037752673
-0.06315838 0.46313062 0.09025229 0.12199061 -0.035961114 0.1565925 -0.10991254 -0.03514678
0.023664944 -0.050739154 -0.111590505 -0.07394865 0.07674615 -0.066192605 -0.016575962 0.35115838
0.28110662 -0.13275716 0.0804048 -0.014649341 -0.034294136 0.30233714 -0.024214135 0.32891345
-0.060415253 0.06439191 0.06291661 0.16672048 0.21379992 0.41590068 0.046656206 0.0036240607
00000000: e780 513e 494d 8b3d d5e6 c0bd 289a 153c
00000010: 3199 85bd b4c5 5e3c 364c 84bd e7b5 e83d
00000020: 5c84 28be 6b72 4a3e 6d31 f5bb 1e83 98bd
00000030: d5b8 2cbd 5146 a4bd 9360 8d3d d023 ce3e
00000040: f88d 923e c5df 503d 2593 413e 2100 cabc
00000050: a92e b4bd f1ae c23e 0d68 8f3d c953 233d
00000060: 0c09 98ba 1f28 85bd b25e a13d 0966 a6bd
00000070: 6420 ca3e d6bb e6bb 60c5 d93e 8ca2 1abd
00000080: 2e59 81bd 751f ed3e 31d6 b83d 37d6 f93d
00000090: f64b 13bd c959 203e d319 e1bd 12f6 0fbd
000000a0: fcdc c13c dcd3 4fbd 9089 e4bd 6472 97bd
000000b0: 162d 9d3d fd8f 87bd 50ca 87bc 08cb b33e
000000c0: 35ed 8f3e 7ef1 07be 46ab a43d ca03 70bc
000000d0: 0278 0cbd efcb 9a3e b95c c6bc 5867 a83e
000000e0: fc75 77bd e8df 833d 6cda 803d c6b8 2a3e
000000f0: 5eee 5a3e eff0 d43e 941a 3f3d a681 6d3b

momentum_buffer f4 [1, 1, 4]
4.7241633e-07 2.7240534e-07 1.0212784e-07 -4.2181307e-07
00000000: 68a0 fd34 1b3f 9234 6051 db33 8c75 e2b4

momentum_buffer f4 [1, 1, 4]
-3.9909075e-08 -1.8108514e-08 -7.605899e-09 3.1252043e-08
00000000: 7e68 2bb3 0b8d 9bb2 19ab 02b2 fc39 0633

momentum_buffer f4 [1, 1, 4]
1.1618333e-06 1.4858741e-06 -9.097856e-07 7.035806e-07
00000000: 4af0 9b35 3f6e c735 fe37 74b5 b1dd 3c35

momentum_buffer f4 [4]
0.00014801501 2.4921992e-05 -3.585463e-05 -0.00014429916
00000000: 7a34 1b39 920f d137 9e62 16b8 034f 17b9

momentum_buffer f4 [4, 4]
-6.512356e-07 -9.020241e-07 -5.778702e-07 2.0696905e-05 -2.3878175e-07 -2.616295e-07 -2.0645977e-07 5.2911864e-06
2.1216378e-07 2.742159e-07 1.8655427e-07 -6.5781046e-06 6.3564295e-07 8.900345e-07 5.6262155e-07 -2.1053029e-05
00000000: 92d0 2eb5 a022 72b5 f01e 1bb5 449e ad37
00000010: ea31 80b4 1676 8cb4 3baf 5db4 f28a b136
00000020: 23cf 6334 f237 9334 a64f 4834 7db9 dcb6
00000030: 0da1 2a35 b5ea 6e35 0f07 1735 099b b0b7

momentum_buffer f4 [4, 12]
-2.7458952e-07 -1.9734829e-07 2.2476971e-09 -1.0216024e-07 -2.6663908e-08 -4.433703e-08 0.0 0.0
0.0 0.0 0.0 0.0 2.3367612e-07 1.6794367e-07 -1.9128317e-09 8.6938456e-08
2.2691033e-08 3.7730747e-08 0.0 0.0 0.0 0.0 0.0 0.0
6.9522946e-07 4.996631e-07 -5.6909837e-09 2.5865785e-07 6.750994e-08 1.1225599e-07 0.0 0.0
0.0 0.0 0.0 0.0 4.383854e-07 3.1506858e-07 -3.5885392e-09 1.6309986e-07
4.256924e-08 7.0784324e-08 0.0 0.0 0.0 0.0 0.0 0.0
00000000: 4c6b 93b4 afe6 53b4 e875 1a31 3063 dbb3
00000010: 8e0a e5b2 146d 3eb3 0000 0000 0000 0000
00000020: 0000 0000 0000 0000 0000 0000 0000 0000
00000030: 67e8 7a34 0154 3434 e472 03b1 ecb2 ba33
00000040: 1cea c232 650d 2233 0000 0000 0000 0000
00000050: 0000 0000 0000 0000 0000 0000 0000 0000
00000060: ce9f 3a35 9620 0635 6c8a c3b1 aadd 8a34
00000070: fbf9 9033 6211 f133 0000 0000 0000 0000
00000080: 0000 0000 0000 0000 0000 0000 0000 0000
00000090: 3b5b eb34 b226 a934 409a 76b1 8c20 2f34
000000a0: 60d5 3633 1802 9833 0000 0000 0000 0000
000000b0: 0000 0000 0000 0000 0000 0000 0000 0000

momentum_buffer f4 [1, 1, 4]
-7.260459e-08 -3.6707218e-07 1.6095538e-07 -1.8071252e-07
00000000: ccea 9bb3 0412 c5b4 14d3 2c34 e109 42b4

momentum_buffer f4 [1, 1, 4]
1.6859998e-07 -3.7804264e-07 -1.1074325e-07 -1.3929774e-07
00000000: 6908 3534 c9f5 cab4 bfd1 edb3 df91 15b4

momentum_buffer f4 [1, 1, 4]
-3.2990592e-06 -5.6839003e-06 -3.3662127e-06 2.3171924e-06
00000000: 6865 5db6 55b8 beb6 18e7 61b6 1081 1b36

momentum_buffer f4 [4]
-0.00036223396 0.00016842042 0.00016130095 -0.00010634294
00000000: 38ea bdb9 039a 3039 e522 2939 6e04 dfb8

momentum_buffer f4 [4, 4]
-9.059209e-05 -3.457348e-05 -1.7151904e-05 -0.000102662176 4.4067405e-05 1.6761456e-05 8.471045e-06 4.9813716e-05
2.689454e-05 1.1540195e-05 4.000598e-06 3.3313216e-05 -2.9976249e-05 -1.1158208e-05 -5.95123e-06 -3.3345426e-05
00000000: 42fc bdb8 fe02 11b8 6fe1 8fb7 564c d7b8
00000010: 04d5 3838 f49a 8c37 dc1e 0e37 12ef 5038
00000020: 969b e137 c39c 4137 e03c 8636 cbb9 0b38
00000030: 8175 fbb7 2334 3bb7 adb0 c7b6 61dc 0bb8

momentum_buffer f4 [4, 12]
-9.01974e-06 -1.6445944e-06 1.3664478e-06 1.5132005e-06 -3.04924e-07 4.8559427e-06 0.0 0.0
0.0 0.0 0.0 0.0 2.3797202e-06 4.3390065e-07 -3.605158e-07 -3.9923262e-07
8.0449766e-08 -1.2811637e-06 0.0 0.0 0.0 0.0 0.0 0.0
-1.2287815e-05 -2.240471e-06 1.8615457e-06 2.0614675e-06 -4.154056e-07 6.6153716e-06 0.0 0.0
0.0 0.0 0.0 0.0 4.015518e-06 7.3216e-07 -6.083314e-07 -6.7366324e-07
1.3574993e-07 -2.1618266e-06 0.0 0.0 0.0 0.0 0.0 0.0
00000000: 7d53 17b7 d5bb dcb5 ca66 b735 2c19 cb35
00000010: 6fb4 a3b4 3bf0 a236 0000 0000 0000 0000
00000020: 0000 0000 0000 0000 0000 0000 0000 0000
00000030: 48b3 1f36 daf2 e834 ea8c c1b4 1d56 d6b4
00000040: bac3 ac33 73f4 abb5 0000 0000 0000 0000
00000050: 0000 0000 0000 0000 0000 0000 0000 0000
00000060: c327 4eb7 005b 16b6 39da f935 be57 0a36
00000070: e904 dfb4 9cf9 dd36 0000 0000 0000 0000
00000080: 0000 0000 0000 0000 0000 0000 0000 0000
00000090: 09bd 8636 a789 4435 374c 23b5 c9d5 34b5
000000a0: a8c2 1134 e613 11b6 0000 0000 0000 0000
000000b0: 0000 0000 0000 0000 0000 0000 0000 0000

momentum_buffer f4 [4, 4]
-2.884719e-05 -2.9245652e-05 -7.626373e-07 2.510914e-05 2.7405293e-05 3.0159817e-05 -1.2673732e-07 -2.3963477e-05
-2.4226636e-05 -2.543618e-05 -2.9703637e-07 2.108571e-05 3.9301435e-06 2.7685046e-06 5.379431e-07 -3.3655024e-06
00000000: defc f1b7 8f54 f5b7 09b8 4cb5 78a1 d237
00000010: 6be4 e537 b7ff fc37 4a15 08b4 2d05 c9b7
00000020: 4e3a cbb7 c85f d5b7 5e78 9fb4 38e1 b037
00000030: addf 8336 8cca 3936 2b67 1035 e4da 61b6

momentum_buffer f4 [4]
-0.0002661936 0.0002976425 -0.00024101375 1.3361849e-05
00000000: e68f 8bb9 e60c 9c39 a3b8 7cb9 b42c 6037

momentum_buffer f4 [4, 4]
2.5585708e-05 -4.44482e-05 -4.85348e-06 -1.23631235e-05 -3.761803e-05 6.58832e-05 -6.2780737e-06 1.6258284e-05
-3.967793e-07 6.752176e-07 2.2303999e-07 2.102453e-07 3.9738028e-05 -6.8989255e-05 8.0806985e-06 -1.7256381e-05
00000000: e4a0 d637 e46d 3ab8 13db a2b6 366b 4fb7
00000010: 0dc8 1db8 c62a 8a38 3ea8 d2b6 6662 8837
00000020: ef04 d5b4 9a40 3535 c47c 6f34 cabf 6134
00000030: 62ac 2638 53ae 90b8 5692 0737 ccc1 90b7

momentum_buffer f4 [4]
0.00015491946 -0.000368136 -8.767762e-07 0.0004009441
00000000: e071 2239 6102 c1b9 9a5b 6bb5 ce35 d239

momentum_buffer f4 [1, 1, 4]
-1.0099733e-05 4.0218915e-06 1.4810497e-06 -2.1609883e-06
00000000: 0672 29b7 c9f3 8636 7bc8 c635 7f05 11b6

momentum_buffer f4 [1, 1, 4]
4.57816e-06 3.0866622e-07 2.7821109e-06 4.297169e-06
00000000: 189e 9936 c3b6 a534 4db4 3a36 6730 9036

momentum_buffer f4 [1, 1, 4]
-2.9282633e-06 7.4559244e-07 8.315417e-07 -3.4886347e-07
00000000: 2e83 44b6 b924 4835 1c37 5f35 6e4b bbb4

momentum_buffer f4 [4]
-6.3185544e-05 2.1312437e-05 3.067492e-05 -1.9506884e-05
00000000: 7b82 84b8 1cc8 b237 f2a8 0038 b7a2 a3b7

momentum_buffer f4 [4, 3]
-7.836439e-06 -2.2974185e-05 -4.578892e-05 5.3555855e-06 7.838075e-06 1.4659298e-05 3.5001954e-06 1.1337411e-05
1.9392151e-05 -1.5860176e-06 -7.103202e-06 -1.3492943e-05
00000000: 4079 03b7 b0b8 c0b7 7a0d 40b8 21b4 b336
00000010: 4780 0337 35f1 7537 e6e4 6a36 cf35 3e37
00000020: 54ac a237 26df d4b5 0a58 eeb6 c05f 62b7
