saved_models/tb_logs/version_12/checkpoints/epoch=50-step=1938.ckpt (torch, 249634 bytes, 100 tensors)

conv_layers.0.att_src f4 [1, 1, 4]
00000000: 71c0 793f a1a2 e1be 0192 143f 5ce9 eebd
0.9755927 -0.44069389 0.58035284 -0.116656035

conv_layers.0.att_dst f4 [1, 1, 4]
00000000: 61e6 c5be b104 49bf 7295 8ebe f549 953e
-0.38652328 -0.78522784 -0.27848393 0.29157987

conv_layers.0.att_edge f4 [1, 1, 4]
00000000: 00ba e43d ee36 703f a19a 59bf 4604 a13e
0.11168289 0.93833816 -0.8500157 0.31448573

conv_layers.0.bias f4 [4]
00000000: 4b6e a5bb b396 4abb fe7f 583c 31b1 ffba
-0.0050485483 -0.0030912578 0.013214109 -0.0019507763

conv_layers.0.lin_src.weight f4 [4, 4]
00000000: 0884 343f 7a6e 60be cedd 3d3e d0fd 563f
00000010: 3674 073f 91ae 3cbf f272 293e bfe2 b1bd
00000020: 470e 31bf 0f5e e63e 1a75 523f 3ca2 22bd
00000030: 6c32 983e 1c79 393f 191c 6c3d d9f7 12bf
0.70513964 -0.21917143 0.18541643 0.8398104 0.529117 -0.7370387 0.16547754 -0.086858265
-0.6916241 0.44993636 0.8220993 -0.0397055 0.2972597 0.72450423 0.057643984 -0.57409436

conv_layers.0.lin_dst.weight f4 [4, 4]
00000000: 0884 343f 7a6e 60be cedd 3d3e d0fd 563f
00000010: 3674 073f 91ae 3cbf f272 293e bfe2 b1bd
00000020: 470e 31bf 0f5e e63e 1a75 523f 3ca2 22bd
00000030: 6c32 983e 1c79 393f 191c 6c3d d9f7 12bf
0.70513964 -0.21917143 0.18541643 0.8398104 0.529117 -0.7370387 0.16547754 -0.086858265
-0.6916241 0.44993636 0.8220993 -0.0397055 0.2972597 0.72450423 0.057643984 -0.57409436

conv_layers.0.lin_edge.weight f4 [4, 12]
00000000: 4c04 82be a053 94be ff1b 913e db28 97be
00000010: 4580 07be 7a55 18bf a7f0 06bf fa28 7e3e
00000020: f08c b6be b508 bf3e 9557 0c3f 9d5f a2bd
00000030: a8fc 9e3e 9198 6e3e 8153 e73e 366f 07be
00000040: d3e4 0e3f 1dc5 273c 3d70 17bf 2eac 1c3f
00000050: f604 7ebe cd6c aabe c93f 0abf c1a4 b7bd
00000060: 1fc6 103f 953b 9dbe 42b2 51be f2f7 86be
00000070: 7eb3 bebe 9225 0b3e 1439 2e3e 9a32 143f
00000080: 7adf 0cbe d5d5 c4bc 94b2 ffbe 2846 1a3f
00000090: ffd6 d8be 1928 f03d 8c73 69be 7114 173f
000000a0: bb32 95be ef38 173f f78f f8be 8c3c d9be
000000b0: 1b8f 2b3e 447a fcbd 4e1f b9be 1647 853e
-0.25393903 -0.2897005 0.28341672 -0.29523358 -0.13232525 -0.59505427 -0.52710956 0.24820319
-0.35654402 0.3731133 0.5482114 -0.07928393 0.31052136 0.23300387 0.45180896 -0.13226017
0.5581791 0.010239867 -0.5915564 0.61200225 -0.2480658 -0.33286133 -0.5400358 -0.08966971
0.5655231 -0.3070952 -0.20478156 -0.26361042 -0.37246317 0.1358855 0.17013961 0.5788971
-0.13757125 -0.024027744 -0.49940932 0.602633 -0.4235153 0.11726398 -0.22797984 0.59015566
-0.29140267 0.5907125 -0.48547336 -0.42429006 0.16753809 -0.12328008 -0.36156696 0.26030797

conv_layers.1.att_src f4 [1, 1, 4]
00000000: 6aee cb3e 2c74 9dbe e6b5 cabe 32fa 383f
0.39830333 -0.30752695 -0.39591902 0.7225677

conv_layers.1.att_dst f4 [1, 1, 4]
00000000: f95c 19bf 683d 2b3f 1a12 8d3e 3fe9 c13e
-0.5990749 0.66890574 0.27552873 0.37873265

conv_layers.1.att_edge f4 [1, 1, 4]
00000000: 09b1 c33e dd32 483f 9e2e d0be ee92 86bf
0.38221005 0.7820261 -0.40660566 -1.0513589

conv_layers.1.bias f4 [4]
00000000: 3153 3cbc 08bd db3c a977 8bbd 98a6 563d
-0.011494444 0.026823536 -0.06809933 0.05240497

conv_layers.1.lin_src.weight f4 [4, 4]
00000000: e489 c83e 37f9 153f 907c 2bbf 0bba aebd
00000010: 1adf 23bf aede f83e 93d7 4abf b44c 3ebf
00000020: 1c0d 56bf bd81 583f 6f2b f1be 1b3b b1bd
00000030: 3988 b83e 7678 2fbf 997d 413f b811 8abd
0.39167702 0.58583397 -0.6698694 -0.08531579 -0.640123 0.4860739 -0.7923519 -0.7433579
-0.83613753 0.84572965 -0.4710345 -0.086538516 0.3604143 -0.68543184 0.7558227 -0.06741661

conv_layers.1.lin_dst.weight f4 [4, 4]
00000000: e489 c83e 37f9 153f 907c 2bbf 0bba aebd
00000010: 1adf 23bf aede f83e 93d7 4abf b44c 3ebf
00000020: 1c0d 56bf bd81 583f 6f2b f1be 1b3b b1bd
00000030: 3988 b83e 7678 2fbf 997d 413f b811 8abd
0.39167702 0.58583397 -0.6698694 -0.08531579 -0.640123 0.4860739 -0.7923519 -0.7433579
-0.83613753 0.84572965 -0.4710345 -0.086538516 0.3604143 -0.68543184 0.7558227 -0.06741661

conv_layers.1.lin_edge.weight f4 [4, 12]
00000000: 6b83 193f 0f16 923d dd2b 57be 2814 46bd
00000010: ff1f e93e 9333 043e 008c 383e 0271 a5be
00000020: f8cb a93e ed20 b1be 5626 cdbe 0c44 e9be
00000030: 9a97 c2bd 6f1e 6fbe 4fb9 15bf a903 e2be
00000040: 882c c63e ca56 05bf 0dc0 e53e 2fee ad3e
00000050: 49ac f1be d9c0 22be 9a5c f13e 7c31 eb3e
00000060: 8a87 09be 25c9 ddbd f7fa dabe 954e 063f
00000070: aefc b0be 50b0 e33e 3ab9 9dbe 01f6 cc3e
00000080: a94a 1cbf 6ffc 33be 5edb 0dbf 2732 0bbf
00000090: 1f20 883e ecf9 b43e 2181 eb3e be55 d53d
000000a0: 174d f93d cf54 0bbf 647d b93e b5f7 c83c
000000b0: 89b0 0dbf 3930 d7be 5ad8 f93d 85e8 ddbe
0.5996615 0.071331136 -0.21012826 -0.048359066 0.45532224 0.12910299 0.18022156 -0.3231278
0.33163428 -0.34595433 -0.4006831 -0.45559728 -0.09501572 -0.23351453 -0.58485883 -0.44143417
0.3870585 -0.52085555 0.44873086 0.33970782 -0.47201756 -0.15893878 0.47140962 0.4593619
-0.1343061 -0.10829381 -0.42769596 0.52463657 -0.3456778 0.44470453 -0.3080538 0.40031436
-0.6105142 -0.17576765 -0.5541285 -0.543734 0.26587006 0.35346925 0.45996955 0.10416745
0.12172907 -0.5442628 0.36228478 0.024532178 -0.55347496 -0.42028978 0.12199469 -0.4334146

transf_layers.0.weight f4 [4, 4]
00000000: b52e 09be c1d9 2ebe 9d90 213e dc0d 1bbe
00000010: 9357 a63d e31c 103e c3e6 9bbd c3e6 96bc
00000020: b7ef 9a3e 6798 b83e edcf 26be 5827 43bc
00000030: e058 3ebe abcb f2be ee84 f9be 5e48 f2be
-0.13396724 -0.17075254 0.15777822 -0.15142006 0.08122172 0.1407352 -0.07612374 -0.018420583
0.30261013 0.36053774 -0.16290255 -0.011911236 -0.1858859 -0.4742101 -0.4873423 -0.47320837

transf_layers.0.bias f4 [4]
00000000: df62 6a3e 9d1e d5be f7b8 d1be 5f09 a43e
0.22889279 -0.4162492 -0.4096143 0.320384

transf_layers.1.weight f4 [4, 4]
00000000: 2972 8f3c 4eed cabe e505 ea3e bf9e e6be
00000010: 5a43 b3be e1c3 c63e 54f1 b63e 92cf 53bd
00000020: 0f19 eebe a8d9 043e 01c5 183e 642a c4be
00000030: 0972 a33d 24e7 f03d 109d 5c3e f964 9fbd
0.01751049 -0.39634174 0.45707622 -0.4504299 -0.35012323 0.3882132 0.35730994 -0.051711626
-0.46503493 0.12973654 0.14918901 -0.3831359 0.07980735 0.117628366 0.2154429 -0.07782931

transf_layers.1.bias f4 [4]
00000000: 0d75 883d 6a31 87bd 9a09 91bd 49dd cc3d
0.06662951 -0.06601222 -0.070819095 0.10003144

bn_layers.0.weight f4 [4]
00000000: 0000 803f 0000 803f 0000 803f 0000 803f
1.0 1.0 1.0 1.0

bn_layers.0.bias f4 [4]
00000000: 0000 0000 0000 0000 0000 0000 0000 0000
0.0 0.0 0.0 0.0

bn_layers.0.running_mean f4 [4]
00000000: 0000 0000 0000 0000 0000 0000 0000 0000
0.0 0.0 0.0 0.0

bn_layers.0.running_var f4 [4]
00000000: 0000 803f 0000 803f 0000 803f 0000 803f
1.0 1.0 1.0 1.0

bn_layers.1.weight f4 [4]
00000000: 0000 803f 0000 803f 0000 803f 0000 803f
1.0 1.0 1.0 1.0

bn_layers.1.bias f4 [4]
00000000: 0000 0000 0000 0000 0000 0000 0000 0000
0.0 0.0 0.0 0.0

bn_layers.1.running_mean f4 [4]
00000000: 0000 0000 0000 0000 0000 0000 0000 0000
0.0 0.0 0.0 0.0

bn_layers.1.running_var f4 [4]
00000000: 0000 803f 0000 803f 0000 803f 0000 803f
1.0 1.0 1.0 1.0

conv1.att_src f4 [1, 1, 4]
00000000: 46c3 513f 3e23 3cbf e0bf 603f 133c 693f
0.8193859 -0.73491275 0.8779278 0.9110729

conv1.att_dst f4 [1, 1, 4]
00000000: 6863 29be 1cb2 a73e 79ce 423f 2313 363f
-0.16541827 0.32753074 0.760963 0.7112295

conv1.att_edge f4 [1, 1, 4]
00000000: f022 9b3e 02e0 b9be 0e28 32bf 6095 89bf
0.30300093 -0.36303717 -0.6959237 -1.0748711

conv1.bias f4 [4]
00000000: ad5c f83b 2d77 9d3b bba3 82bb cd96 87bb
0.007579407 0.0048054666 -0.0039868033 -0.00413785

conv1.lin_src.weight f4 [4, 3]
00000000: da8d 133e 6079 4d3f 7386 53bf 3f74 06bf
00000010: 4202 293f dabe b83e 6eeb b8be d0ec 463f
00000020: 6fe4 e53e 9a61 1abf 7458 dd3e c54f 0dbf
0.14409581 0.8026333 -0.8262703 -0.5252113 0.6601907 0.36083108 -0.3611712 0.777051
0.44900844 -0.6030518 0.43231547 -0.55199844

conv1.lin_dst.weight f4 [4, 3]
00000000: da8d 133e 6079 4d3f 7386 53bf 3f74 06bf
00000010: 4202 293f dabe b83e 6eeb b8be d0ec 463f
00000020: 6fe4 e53e 9a61 1abf 7458 dd3e c54f 0dbf
0.14409581 0.8026333 -0.8262703 -0.5252113 0.6601907 0.36083108 -0.3611712 0.777051
0.44900844 -0.6030518 0.43231547 -0.55199844

conv1.lin_edge.weight f4 [4, 12]
00000000: c3cf 5abe 536b dd3e f5bb 223e 1f88 e9be
00000010: 14df d1be c262 c8bd b9eb 29be d56c 0d3f
00000020: fc17 083f 12ca bfbd 0326 01bf 346a 1bbe
00000030: 9365 673e 602a 69be ac4f 0dbe 02eb fe3e
00000040: aee5 0bbf 6dad 9f3e e69b 5cbd 8917 b83d
00000050: 247d d6bd 5afd 17bf 52d5 81bd cded 0e3f
00000060: 9818 f4be e2bd 09bf 75e5 75bd 9fe3 fbbe
00000070: ca64 c23e cd37 923e e475 043f 1bab ebbe
00000080: dc95 f4bc 7adc 783c 8198 9d3e 31bc 143e
00000090: f0c0 b03e b1aa c4be 592b bd3d 274a 163f
000000a0: da3b e83e 232c 8d3d 3441 01bf f2c6 c4bd
000000b0: 06fe 123f 2d84 143f a286 b7be 05e1 00bd
-0.21368317 0.43245944 0.15892012 -0.45611665 -0.40990508 -0.097844616 -0.16593827 0.5524419
0.531616 -0.09364714 -0.50448626 -0.15177232 0.22597341 -0.22770071 -0.13799924 0.49788672
-0.5464734 0.31187 -0.053859614 0.08988864 -0.104730874 -0.5937096 -0.06339516 0.55831605
-0.47675014 -0.53805363 -0.06003328 -0.491971 0.3796752 0.28558198 0.51742387 -0.4602898
-0.029856615 0.015189284 0.30780414 0.14524914 0.345222 -0.38411477 0.092367835 0.587069
0.45358163 0.06893184 -0.5049012 -0.09608258 0.5741886 0.58014184 -0.35844904 -0.031464595

transf1.weight f4 [4, 4]
00000000: 5fc0 97be 0b18 d1be 9036 e53e de4f fe3e
00000010: a5f6 ac3e 28c2 f9bd 5335 27be 1a6f 03be
00000020: f8ce 533e bcdc 1cbe 3b9e cc3e ae71 e13e
00000030: 6a54 f53c 32be 39be efd9 273e f4a9 d5be
-0.29638955 -0.40838656 0.4476819 0.4967031 0.33781925 -0.121952355 -0.16328935 -0.1283535
0.20684421 -0.15318578 0.3996447 0.44032043 0.029947478 -0.1813896 0.16391729 -0.41731226

transf1.bias f4 [4]
00000000: 10e0 f13e 1767 a23c 7c19 1e3e 8084 bfbe
0.4724126 0.019824548 0.15439409 -0.37405777

bn1.weight f4 [4]
00000000: 0000 803f 0000 803f 0000 803f 0000 803f
1.0 1.0 1.0 1.0

bn1.bias f4 [4]
00000000: 0000 0000 0000 0000 0000 0000 0000 0000
0.0 0.0 0.0 0.0

bn1.running_mean f4 [4]
00000000: 0000 0000 0000 0000 0000 0000 0000 0000
0.0 0.0 0.0 0.0

bn1.running_var f4 [4]
00000000: 0000 803f 0000 803f 0000 803f 0000 803f
1.0 1.0 1.0 1.0

pool1.select.weight f4 [1, 4]
00000000: e05c 1c3e 0011 cdbe 103d 4abe 1a57 bcbe
0.15269804 -0.40052032 -0.19749856 -0.36785203

conv_fin.att_src f4 [1, 1, 8]
00000000: f95c 363f 65b8 263f 932c db3e a3d9 0cbf
00000010: 10e1 29bf a254 2ebf ee60 9e3c 1c22 b4bc
0.71235615 0.65125114 0.42807445 -0.5501959 -0.66359043 -0.6809789 0.019333329 -0.02198892

conv_fin.att_dst f4 [1, 1, 8]
00000000: eb04 36bf 0602 0e3f c824 e1bc da0b 06bf
00000010: acdc babe 9b48 3bbe 752d 443f 31fc 49bf
-0.71101254 0.5547184 -0.027483359 -0.52361834 -0.36496484 -0.18289416 0.7663186 -0.7890044

conv_fin.att_edge f4 [1, 1, 8]
00000000: d307 ef3e 65d0 193f 93f3 3fbe 6ce1 6f3e
00000010: a6ef c2be 1880 3bbf 6235 f0be b4d8 e1be
0.46685657 0.6008361 -0.1874526 0.23425835 -0.38073462 -0.7324233 -0.46915728 -0.44110644

conv_fin.bias f4 [8]
00000000: 6bd0 e5bb d0db 8e3d 5877 253d 60a9 70bc
00000010: 22a9 be3c 385f d4bc 896b b13c f930 4dbd
-0.0070133707 0.0697552 0.04039702 -0.01468882 0.023274008 -0.02592431 0.021657722 -0.050095532

conv_fin.lin_src.weight f4 [8, 4]
00000000: c1f1 093d d129 02bf 4e24 b2bd 3d27 113f
00000010: 918f f9be 8adf 353e 6a1d a13e b1bc 5bbe
00000020: 4c39 ffbe dcd2 16bf 6442 1e3f ffe9 febe
00000030: 34f5 b63d 0ee5 20bf 4203 22bf e56d 453e
00000040: c428 4cbe 9a0a a8be e7e0 2cbe 6589 8fbe
00000050: e183 5e3e 7b36 01bf 3de9 2bbd c5fe c53e
00000060: 089a 4e3d ad3f 23bd 998c 473e 7996 823e
00000070: f8c2 97be 0d54 633e 1693 ac3e 8af5 bb3e
0.03367782 -0.50845057 -0.08698331 0.567005 -0.48742345 0.17761055 0.31467754 -0.21458699
-0.49848402 -0.58915496 0.61820054 -0.497879 0.089334875 -0.6284951 -0.6328622 0.19280203
-0.19937426 -0.32820588 -0.16882668 -0.2803451 0.21729995 -0.50473756 -0.04197048 0.38670936
0.050439864 -0.039855648 0.19487227 0.25505427 -0.29640937 0.22200032 0.33705968 0.3671077

conv_fin.lin_dst.weight f4 [8, 4]
00000000: c1f1 093d d129 02bf 4e24 b2bd 3d27 113f
00000010: 918f f9be 8adf 353e 6a1d a13e b1bc 5bbe
00000020: 4c39 ffbe dcd2 16bf 6442 1e3f ffe9 febe
00000030: 34f5 b63d 0ee5 20bf 4203 22bf e56d 453e
00000040: c428 4cbe 9a0a a8be e7e0 2cbe 6589 8fbe
00000050: e183 5e3e 7b36 01bf 3de9 2bbd c5fe c53e
00000060: 089a 4e3d ad3f 23bd 998c 473e 7996 823e
00000070: f8c2 97be 0d54 633e 1693 ac3e 8af5 bb3e
0.03367782 -0.50845057 -0.08698331 0.567005 -0.48742345 0.17761055 0.31467754 -0.21458699
-0.49848402 -0.58915496 0.61820054 -0.497879 0.089334875 -0.6284951 -0.6328622 0.19280203
-0.19937426 -0.32820588 -0.16882668 -0.2803451 0.21729995 -0.50473756 -0.04197048 0.38670936
0.050439864 -0.039855648 0.19487227 0.25505427 -0.29640937 0.22200032 0.33705968 0.3671077

conv_fin.lin_edge.weight f4 [8, 12]
00000000: 6d4c 983c 4112 b13e caa8 8c3d 805b 903e
00000010: ec12 aa3e d266 773e 374f 04be d151 dabd
00000020: 80a4 9c3e 3b19 973e 3bce a23d f26b 003f
00000030: 243b e53d a63b 173e eb72 f9be 57ea 92be
00000040: d8b5 e9be dab0 f63e c709 cf3e 3f60 04bf
00000050: 8d0c 4f3e 2f19 8dbe 29b9 f63e 998e 80bd
00000060: 8a31 833e bac0 dbbe 233f 09bf 9114 80bd
00000070: 2948 0bbe 4403 32be 0005 863d 45d0 633d
00000080: 2335 d8be 3565 0dbe 9db1 ba3e 7954 083e
00000090: bc58 a9be df9f c13e d98b 5e3d 48cf 543e
000000a0: 6a6b 5abe 5d52 f3be 69be 163d 8d06 8fbe
000000b0: 8190 81bd 0d0a 9dbe db17 8e3e f8ac c33e
000000c0: 1009 83be 0cd0 ff3e 997f c73e d883 f83e
000000d0: 996f b43e 1c56 30be 603f 9b3e eb3e ebbe
000000e0: d95c 1abe f382 ed3e 2ed4 f7bd 46e5 6dbb
000000f0: c7bf c43e dcf2 f0be d4ed 083e 5ae3 0b3e
00000100: 62f5 b3be 8cc5 bebe f4ca 9fbe b296 9dbe
00000110: 9c7a cbbe e294 793e 7b13 6dbe 4e72 2c3e
00000120: bdfd 63bd 007f 28ba eb1b 30bc 6df1 e6be
00000130: 9159 a23d 0f9a d8be af4e 2ebe 23a9 c3be
00000140: 825b b43c c85f ce3d 3792 7f3d 016f a5bc
00000150: aaf4 62be 44ca b3be a3bd 09bf 6957 43be
00000160: 8dea 50bd 0f7d 7e3e 49fb 71bd 931b 80be
00000170: 4d13 d8be c435 9f3e 3c0b fbbd 44fb 93bd
0.01859113 0.3458424 0.068681315 0.2819481 0.3321756 0.24160317 -0.12920843 -0.106601365
0.30594254 0.29511437 0.079494916 0.5016471 0.11192921 0.14768848 -0.48720488 -0.28694412
-0.45646548 0.48181802 0.40437147 -0.5170936 0.20219631 -0.27558276 0.4818814 -0.06277198
0.25623733 -0.42920476 -0.53611964 -0.06253923 -0.13601746 -0.17384058 0.065439224 0.055618543
-0.4222804 -0.13808139 0.36463633 0.13313474 -0.3307551 0.37817284 0.054332588 0.20782197
-0.21330038 -0.47523776 0.036802683 -0.27934685 -0.0632639 -0.3067173 0.27752575 0.38217902
-0.25592852 0.49963415 0.38964537 0.4853809 0.35241392 -0.17220348 0.3032179 -0.4594644
-0.15074481 0.4638897 -0.12101017 -0.0036299988 0.38427565 -0.47060287 0.13371974 0.13660946
-0.3514815 -0.3726009 -0.31209528 -0.30779034 -0.3974198 0.243732 -0.23151962 0.16840479
-0.055661906 -0.0006427616 -0.010748844 -0.45106068 0.0792724 -0.42305037 -0.17022203 -0.3821498
0.02201629 0.100768626 0.0623953 -0.020194532 -0.22163644 -0.35115254 -0.5380499 -0.19076313
-0.051004935 0.24852394 -0.059077535 -0.25021037 -0.42202225 0.31095707 -0.12258002 -0.072256595

transf_fin.weight f4 [8, 8]
00000000: b108 87be 4443 a9be 2c30 373e 6465 dfbd
00000010: 1168 8cbe af46 a6be 0f65 76bd 4e30 4abe
00000020: 8001 043e f940 a63d 49cf 4fbe 73b5 823e
00000030: a8f0 bcbd 30cb 8bbe 1602 453e 2acb 703d
00000040: 74b7 b13d da50 17be ee6b 7a39 5664 a1be
00000050: 7e34 003c 1717 833e 2c52 41be 1287 eabd
00000060: 6917 9abd a0e0 983e 3ee4 07be 3eaf 39bc
00000070: 896a 003d b889 773e df8c 513e a4f5 2abd
00000080: 2257 6b3e 6bb0 abbe f552 0cbd 068b 8a3d
00000090: c216 763e 142d 5a3e ea22 e03d 25fa debd
000000a0: bc3f 55be 14d5 553e ec75 ee3d 711e 53be
000000b0: d40f 093d 3610 1abe 8609 bbbe e7a1 533d
000000c0: 73f6 6e3d dea2 f8bc b198 8dbd 9968 81bd
000000d0: 73de bb3d 2295 633e ac9c 593e 3856 5ebe
000000e0: 97af 82be 7d0d b0be 32f5 66be 7f24 833e
000000f0: 5de3 b53d 5526 9fbb fc38 9cbc ec9d 863e
-0.2637382 -0.33059132 0.1788947 -0.109080106 -0.27423146 -0.32475802 -0.06015497 -0.1974499
0.12891197 0.08117861 -0.20293917 0.2552906 -0.09225589 -0.27303457 0.19239077 0.058787502
0.08677569 -0.14776936 0.00023882065 -0.31521863 0.007825015 0.25603554 -0.18879002 -0.11451544
-0.075239964 0.29858875 -0.13270661 -0.011333285 0.0313516 0.2417363 0.20463894 -0.041738167
0.22982457 -0.33533034 -0.0342588 0.06764798 0.24032119 0.21306258 0.10944159 -0.10887555
-0.20825094 0.20882064 0.116435856 -0.20617081 0.03346236 -0.15045246 -0.36530703 0.051668074
0.0583405 -0.030351099 -0.06913889 -0.063187785 0.09173288 0.22224858 0.21251172 -0.21712577
-0.2552459 -0.3438529 -0.22554472 0.25613782 0.08881257 -0.0048568645 -0.019070141 0.2629236

transf_fin.bias f4 [8]
00000000: b1f6 37be 34cd 2e3e d218 32bd 59b8 133e
00000010: 3167 be3d cbf1 ac3e dae6 9f3e 6db8 6fbc
-0.17965199 0.17070466 -0.0434807 0.14425792 0.09297026 0.33778223 0.31230813 -0.014631373

bn_fin.weight f4 [8]
00000000: 0000 803f 0000 803f 0000 803f 0000 803f
00000010: 0000 803f 0000 803f 0000 803f 0000 803f
1.0 1.0 1.0 1.0 1.0 1.0 1.0 1.0

bn_fin.bias f4 [8]
00000000: 0000 0000 0000 0000 0000 0000 0000 0000
00000010: 0000 0000 0000 0000 0000 0000 0000 0000
0.0 0.0 0.0 0.0 0.0 0.0 0.0 0.0

bn_fin.running_mean f4 [8]
00000000: 0000 0000 0000 0000 0000 0000 0000 0000
00000010: 0000 0000 0000 0000 0000 0000 0000 0000
0.0 0.0 0.0 0.0 0.0 0.0 0.0 0.0

bn_fin.running_var f4 [8]
00000000: 0000 803f 0000 803f 0000 803f 0000 803f
00000010: 0000 803f 0000 803f 0000 803f 0000 803f
1.0 1.0 1.0 1.0 1.0 1.0 1.0 1.0

pool_fin.select.weight f4 [1, 8]
00000000: 5b02 e13d 445b cd3b d934 15bd eeda 933e
00000010: c89a 7c3e 351c fa3d 4e81 b3be 69e9 2bbe
0.109867774 0.006266983 -0.036427353 0.28877968 0.2466842 0.12212411 -0.3505959 -0.16788258

linear0.weight f4 [128, 10]
00000000: 2fa8 f63d 0ea3 4f3e b29c d83d bb62 643e
00000010: 1806 11be a340 1f3e a867 1dbe f1ad 673e
00000020: 6279 003e 03d8 9dbe 397b b73d 82c1 55be
00000030: 57ad 6cbe 201f 75be 5dc4 bd3c 1127 04be
00000040: 033b 9bbd 85f0 11be 7237 073c affc d1bd
00000050: bb9c 47be fd8e 453d 86e8 8dbd 961c a43d
00000060: c585 543e 72d0 89bb 7d96 c9bd 05ea 693e
00000070: 4cf4 39be 159d 85bc 32ff 97be 1dea 303e
00000080: c1bf 8bbe 442c 3ebd 9dfa 17be 48d7 55be
00000090: 2a89 953c 9fae 643e dd4e ac3c bb18 843e
000000a0: b042 45bd 83a2 91bd 82da 8dbe 69a5 753e
000000b0: 687f 2cbe f623 31be 79a7 dbbd 6989 62be
000000c0: f221 2a3e 91af 5abd 2077 8a3e df8f 953d
000000d0: 6566 753e 56b0 8a3e 8872 523d 49ab b3bd
000000e0: 6028 963d e5e0 303e 5e7c f5bc d255 dfbe
000000f0: c13f 32be 7768 98be 5249 54be 95ed 083e
00000100: 5382 913e b008 163e f3f4 9ebe ae53 063c
00000110: c62b f83d 638a 66be b3cc 28be fc8e 6e3d
00000120: e568 78be de67 5c3e 4f45 73be bc28 5bbd
00000130: 11f6 d63d b8e5 193c 6b4d 2dbe 05e9 c4bd
00000140: ce27 9e3e 1eef 803e 63ff 03bd c7df 483e
00000150: 4aad 3ebe 1fb3 5cbe 3700 f73c ff61 cabd
00000160: cef6 0ebe 5af8 3f3e c540 a1be f344 33be
00000170: c713 0fbe 6581 95be eb75 48bd 2824 e3bd
00000180: 3066 d8bc 39e7 893e adcb 50be 3668 20be
00000190: 628e 873e edd4 b63d 8a9d 8cbe b234 94bd
000001a0: de86 4ebe 95d8 923e e945 92b8 8488 253e
000001b0: 1b3c a0be cdb7 7ebe b001 99be 54fc 39be
000001c0: 7d40 3c3e 7d4c 9bbe b849 fb3c 6475 493e
000001d0: d437 7fbc 86dd 84bd c9df 49be ea64 533a
000001e0: b616 853e 1a5a 0ebe 6985 89be 995b 9cbe
000001f0: a32a 813d 870d 803c d57c 9a3e 5c57 603e
00000200: 813b 263e ca1f d7be 47ba 41be dc71 35be
00000210: fb20 05bc 5f9b 4d3c e11f 213e 6914 433c
00000220: a00a 96be 4c09 333e 1906 f2bd c741 12bd
00000230: 1c4f 58bd 6d0d f1bc 7a21 14be 88bf a13e
00000240: 3af2 20bd 9469 59be b4b0 89be 564f a0bd
00000250: 771b 26be 894e 823e af14 2cbe 1185 e03c
00000260: a7b1 9bbc eb33 413e e031 d93c 4721 1e3e
00000270: 8d34 ee3d c9ef 003e 8dd5 96bc 87a8 3ebe
00000280: 1c99 fdbd 812c c03c 9106 6d3d 1c0a 8cbe
00000290: 1ad3 9ebd 09c9 9fbe 62a9 823e 66b9 7f3e
000002a0: 8ccb 63be 7a0d 8dbe 6f1d 83be 092a 993d
000002b0: 13bf 363e 238a 3d3e c986 5fbe 4de3 673e
000002c0: d479 a0bd ab91 813e dbcc e8bd f074 a9be
000002d0: 2254 3c3e 8fb6 413e ec10 ec3d da83 593b
000002e0: 24d2 8e3d 9ac8 9fbe 92cf a3bd e8da 35bd
000002f0: b739 2fbd 58ec 8c3a 87e1 7e3e f872 86be
00000300: 22c3 c83c 4cd9 813e bf69 133e 21b1 5a3e
00000310: a5be 9e3d e6d7 62be 873b 32bd 7a24 e9bd
00000320: 68f7 643e 0e16 4d3d 4b12 c43d a563 77be
00000330: 04ac 673e 5e44 8bbe 9c8b 583e 70c7 7cbd
00000340: 33fb b6bd 0926 b73e 0110 833e 38d3 17be
00000350: 7b8a f13c 48c7 8fbe 0e04 ab3d 6817 fcbd
00000360: c85b 5dbe 8a77 5b3e a0b0 803e f208 9ebe
00000370: 169b 2a3d d8d1 553e 156e 733e 3a12 8f3d
00000380: aac3 67be 3744 1c3e 2209 13be 819c 06be
00000390: b5ff 94be 39ca be3e 7d8e d3bc 0860 1ebe
000003a0: afaa 023e c5fd 023e 3bec 563e c82f 99be
000003b0: 2e28 05bc f097 c7bd 8cbd 7fbe 324b 463e
000003c0: 1eec 1a3d b975 5fbc 61e7 e8bd f58c 883c
000003d0: cfa4 e23d a22d c83d 08b5 84be f127 f3bd
000003e0: 90b8 703a 8ae8 83be e0c2 9fbd 3e24 153e
000003f0: a037 493e 7c0d 94be 9e89 5fbd f492 4cbe
0.12043797 0.20277044 0.10576762 0.22303288 -0.14162481 0.15552 -0.15371573 0.22624947
0.12546304 -0.30828866 0.0895905 -0.20874599 -0.23112999 -0.23937654 0.023164922 -0.12905528
-0.07579615 -0.14251907 0.008252965 -0.10253274 -0.19493382 0.048232067 -0.06929116 0.08013265
0.20754154 -0.004205757 -0.098431565 0.22843178 -0.18159598 -0.016310254 -0.29686886 0.17276807
-0.27294734 -0.046428934 -0.14841695 -0.20882905 0.018253881 0.22332238 0.021033699 0.25800118
-0.0481593 -0.07111075 -0.2770577 0.2398888 -0.16845477 -0.17298874 -0.10725302 -0.2212273
0.16614512 -0.05339009 0.2704401 0.07302832 0.23964842 0.2708766 0.051378757 -0.087729044
0.0733192 0.1727329 -0.02996653 -0.43620163 -0.17407133 -0.297672 -0.20731094 0.1337188
0.28419742 0.14651752 -0.31046256 0.008198662 0.12117724 -0.22513728 -0.16484337 0.05824183
-0.24258764 0.21523997 -0.23756908 -0.053505644 0.10496152 0.009393148 -0.16924064 -0.096147574
0.30889744 0.25182432 -0.032225978 0.19616614 -0.18620792 -0.21552704 0.03015147 -0.098819725
-0.13961336 0.18747082 -0.31494728 -0.17506771 -0.13972388 -0.29200283 -0.04894058 -0.11090881
-0.026415914 0.2693422 -0.20390196 -0.15664753 0.26475817 0.08927331 -0.27463943 -0.07236613
-0.20168635 0.28680864 -6.974844e-05 0.16165358 -0.31295857 -0.24874802 -0.298841 -0.18162662
0.18383975 -0.30331793 0.0306748 0.19673687 -0.015577275 -0.06487565 -0.19714274 0.00080640486
0.2599389 -0.13901559 -0.26859596 -0.30538633 0.063069604 0.01563145 0.30173364 0.21908325
0.16233636 -0.4201644 -0.18918715 -0.17719215 -0.008125539 0.01254925 0.15734817 0.011906722
-0.2930498 0.17484015 -0.11817569 -0.03570726 -0.05280982 -0.029425347 -0.14465895 0.3159144
-0.039293505 -0.21231681 -0.26892626 -0.07827632 -0.16221415 0.25450543 -0.16804765 0.027407201
-0.01900561 0.18867461 0.02651304 0.15442382 0.11631117 0.12591471 -0.018412376 -0.18618976
-0.12382719 0.023458721 0.05786759 -0.27351463 -0.07755108 -0.31208065 0.25519854 0.24973068
-0.22245616 -0.27549344 -0.25608394 0.07478721 0.17846327 0.18509726 -0.2182876 0.22645302
-0.07835737 0.25306448 -0.11367198 -0.3309703 0.18391469 0.18917297 0.11526665 0.0033190162
0.06973675 -0.31207734 -0.07998575 -0.04439822 -0.04277965 0.0010751588 0.2489072 -0.2625959
0.02450711 0.25361097 0.14395808 0.21356632 0.07751206 -0.22152671 -0.0435138 -0.113839105
0.22360003 0.05006986 0.095738016 -0.24159105 0.22624213 -0.27200598 0.21147007 -0.061713636
-0.08934631 0.35771206 0.25598148 -0.14826667 0.029484978 -0.28081727 0.08350383 -0.12309152
-0.21617043 0.2143232 0.25134754 -0.308662 0.041651808 0.2088083 0.23772462 0.06985898
-0.22633234 0.15260397 -0.14358953 -0.13145639 -0.2910134 0.3726366 -0.02582478 -0.1546632
0.12760423 0.12792118 0.20988552 -0.29919267 -0.008127255 -0.09745777 -0.2497465 0.19364622
0.037822835 -0.013638907 -0.11372257 0.016668776 0.11066591 0.09774329 -0.25919366 -0.118728526
0.00091827754 -0.2576335 -0.07800841 0.14564607 0.19650126 -0.28916538 -0.0545746 -0.19977933

linear0.bias f4 [128]
00000000: 688c bfbc 3ecf 3cbe a1f8 6bbc 7a7d d33c
00000010: 4000 883c 0968 dd3d 95ac 6ebd ca29 33bd
00000020: 30e9 9b3d 488a 0fbe 7ac5 0bbe 0e3b bfbd
00000030: 70d9 403d a0a8 22be 9e26 71be bc68 afbe
00000040: e562 9cbe 482d 27bd 0781 22be d20f 46be
00000050: 31fa c1be df5f 94bd 9d8a 85be d233 38be
00000060: 30bb 96be a7a7 8e3e 457d 8abe cb4e 803e
00000070: 1626 13be f0e5 953e 0db8 cabd 9a53 903c
00000080: ae70 89bb ba3a 613d 57cf 47be 8a7d 993d
00000090: 4b7b edbd 9df5 943e cbdb 24be 5a3b e23e
000000a0: 661e 11be 9de1 8d3e 9327 e83c 2582 c1be
000000b0: c211 393e e753 01bd b044 cf3d a7bd cc3d
000000c0: 667a 363e a67c 80be 342d ac3d 13c2 093e
000000d0: 7f68 8c3e 6568 ce3c 9ccb 7dbe 5f8b babe
000000e0: fdb2 dabe 4073 36bd 967c 91be 0bf4 6ebe
000000f0: 09d1 5cbe 416b 40be 0b77 1cbe aef1 52be
00000100: 5d54 8ebe 6724 5e3d 37e2 003d 8926 0cbd
00000110: 401f 6abe 50f4 003e 5757 c63e e080 bb3d
00000120: 2b1e 7abe 4f30 953e d3ed 8a3e 7af3 923e
00000130: b841 fcbd 9f56 35be fc51 2fbd f38e 4c3d
00000140: 4dcd 693e 71a5 5f3e 996a 24be be29 973d
00000150: 9bfe 073e d9f9 b43d 24df 683e a437 bbbc
00000160: b2de 2f3d 2b2e 363e cff7 79bd 2ca7 e3be
00000170: 0f1d 43bd c4cd a3be f900 6ebc 6a3c 81be
00000180: cd52 67be 3d98 9fbe ffd6 20bd b872 81bd
00000190: 5727 923d fc11 9a3e 9c6e bb3d 8e03 f9bd
000001a0: fa1d a6bd b286 9bbe 0ea7 eebd 2b79 ad3e
000001b0: 6857 59be f3a6 e73d 6723 a9bd a892 ba3d
000001c0: 2a52 623d a43f 6d3e 53ae 203d 77fa e73d
000001d0: 1a56 89be 8224 0fbe 5349 09be 657e 9c3d
000001e0: 173f 3cbe a3f1 c4bd 3af3 233d d7b7 683e
000001f0: 6250 3fbe 84b9 d43d 159f 1ebe db41 e53b
-0.02338238 -0.18438432 -0.0144025395 0.025816668 0.016601682 0.10810859 -0.058270056 -0.043741025
0.07612836 -0.14017594 -0.1364955 -0.09337436 0.047082365 -0.15884638 -0.23549888 -0.34259593
-0.305442 -0.040814668 -0.15869533 -0.19341972 -0.37886193 -0.072448485 -0.26082316 -0.17988518
-0.29439688 0.27862284 -0.27048698 0.25060114 -0.14369997 0.2927699 -0.09898386 0.01761799
-0.0041943407 0.054987647 -0.19512688 0.07494648 -0.11595782 0.29093638 -0.1609947 0.44185907
-0.14171752 0.27711192 0.028339183 -0.37794605 0.1807318 -0.031574156 0.10120523 0.09997111
0.17820129 -0.250951 0.08407059 0.1345294 0.27423474 0.025196264 -0.24784702 -0.36434457
-0.42714682 -0.044543505 -0.28415364 -0.23335283 -0.21564116 -0.18790914 -0.15279786 -0.20600006
-0.2779874 0.054233935 0.031465735 -0.034216437 -0.22863483 0.12593198 0.3873851 0.0915544
-0.2442557 0.2913842 0.2713457 0.28701383 -0.12317222 -0.17708825 -0.042802796 0.049941014
0.22832222 0.21840455 -0.16056289 0.073810086 0.13280718 0.08836717 0.22741371 -0.02285368
0.04293699 0.17791049 -0.061027344 -0.4446348 -0.047635134 -0.31992924 -0.014526599 -0.25241405
-0.2259018 -0.31170836 -0.039267536 -0.06320709 0.0713641 0.30091846 0.091519564 -0.12158881
-0.08111186 -0.30376202 -0.11652957 0.33881506 -0.21224749 0.1131114 -0.082587056 0.09110004
0.05525414 0.23168808 0.03922875 0.11327069 -0.26823503 -0.1397877 -0.13406877 0.07641295
-0.18383442 -0.09616401 0.04002688 0.2272638 -0.18683007 0.10386947 -0.15490372 0.006996376

linear2.weight f4 [128, 128]
00000000: d623 a3bc 666a f6bc be3f 483d 9a19 4abd
00000010: ce4c b23d 02ff e13b 1767 933d 5e9b 823d
00000020: 7e9e 76bd 9403 b7ba cdde da3b 602d c4bc
00000030: d9b6 0ebd 6c7b 103d 99eb 383d e98b cebb
00000040: 0801 8fbd 47fd c6bc b4ab 0ebc 818e a4bd
00000050: a8b7 933d 5fbd 513d 81a8 8ebd 5589 a83d
00000060: 650e 09bd 0569 b3bc 5d38 9cbd a464 99bd
00000070: b454 92bd 5e27 9d3d ff10 8dbd 0d6e 27bd
00000080: 38d9 3f3d c6dc 263c 51b9 96bd 1d09 7cbd
00000090: 2e83 43bd 1715 25bd 54fe 733d e89e 3c3d
000000a0: 2c79 4abd e600 0bbd 00ec 853d e4c5 76bd
000000b0: 8de3 06bd d60d 16bd 3069 b83c a831 15bc
000000c0: 7642 d1bc dc7c d8bc 9746 afbd 508f a53d
000000d0: 2edc 7e3c 47c1 a4b7 7878 663d 5b69 3c3d
000000e0: 8aa3 c3bc d693 b1bd b834 933c 3958 2abd
000000f0: 0e89 833d 9ab9 80bb b9ac d3bc af9e 803d
00000100: ecf2 9f3d 3fbf bdbb 6cd3 31bd 45e2 64bd
00000110: 68cb 673d 1178 5bbd b959 143d ee69 47bd
00000120: 3b37 a0bd 4760 96bd f61c d2bc 3a64 8e3a
00000130: b06e 5a3d dcff 9ebc ac57 973c 7ffd 5a3d
00000140: be3a 62bb f78e 883d ec37 8ebc 0994 33bc
00000150: 4840 58bd a300 7fbd c674 6bbd d29b 3d3c
00000160: c333 a4bd 32bb 2e3d 032d 5a3d cc4c 7c3d
00000170: 6cb7 25bd 0789 f43b 584c 70bd 2e9a 9d3d
00000180: c56f 1ebd 1af8 9abd 03e3 333d 45e7 5abc
00000190: 89c8 82bb 57f9 af3c 49ae 7a3b 61aa 24bd
000001a0: 1126 283d 74d6 903d 5451 a43c af68 eebb
000001b0: f69a 873c 7709 813c bbf0 88bd 8498 593d
000001c0: cbc8 4fbb a773 50bc 635a a3bd d271 8dbb
000001d0: cc88 0c3d 5989 b73d 80e8 3ebd 8581 833c
000001e0: 6a9f babc 40a5 74bb 8cda f03c e2c8 a1bd
000001f0: 5a84 b4bc a6fc 943d c8a1 7f3d 10b6 9c3c
00000200: 4863 a2bd 361b 46bd ff13 7bbb 4190 0f3d
00000210: 2668 753d a72c d5b9 ffd5 743d cd14 5dbd
00000220: 2d25 483d 0ce0 a13d d05f 4b3d d3d5 cd3b
00000230: c67a 8ebc 10e5 27bd 5601 aa3d 17b9 983d
00000240: b99b 83bd a4ea 873c 89d1 d0bc 96cc bc3c
00000250: 4edc 95bc 7af2 f5bc 7e37 2abd 587d 40bd
00000260: 0052 45bd 5a27 b4bd 07ef a4bc babc 7f3d
00000270: cab1 65bd e4e0 18bc 605a 7cbd 29d9 52bc
00000280: 4bc0 50bd b531 b43d 8c77 be3b 6360 933d
00000290: 6ce2 dcbc dfb6 47bd e6de 963c 6549 9fbd
000002a0: 6271 a43d b656 03bc fff3 9a3d 8ece 7e3d
000002b0: c422 4abc 3b72 a63d afa1 3e3b 89fd 81bd
000002c0: 6e79 22bd 0c3d eabc 344c 64bd b0ce 4f3d
000002d0: 25c4 42bd 9543 71bc 8a4c a2bc b897 843c
000002e0: 5c86 aebd 8e4c 9f3d 37ec 563d c038 9ebd
000002f0: c115 b83c 1b5b a3bd e5ab 103d bc13 45bc
00000300: 427f 9d3d 5d69 57bd c79e a73d a51f 763d
00000310: 1f2f 54bd b92d 143d f629 4cbd ba49 05bd
00000320: 8bd4 6b3d 4156 8dbd 775a 8c3d 4831 ce3b
00000330: d0c5 1e3d 06a0 11bd 7787 90bd d052 003d
00000340: d24b 74bc baff 82bc 9348 9b3d de9c 8abd
00000350: 049f f3bc 3555 d83c dd23 b0bd f63d e5bc
00000360: aff1 02bd a7d0 acbd d113 4c3d d20b 3dbc
00000370: 893e 3d3d a4f9 a23d 97a6 9fbd 27fd 37bd
00000380: 0f7c 75bd 6634 d2bc 4da8 31bd c1df 70bd
00000390: a831 23bd d6f8 bcba 0013 5dbc 496a e83c
000003a0: 0f68 ecbc a6dd 013d 67c7 33bc 3bba 253c
000003b0: 7023 4cbd f4ae b23d b74a 9b3d b8ea febc
000003c0: 1b3f 3d3d a4a6 1cbd 0dfd 893d a217 b43d
000003d0: 0930 6c3c c01b 2cbd 9656 6b3a 8425 86bd
000003e0: bba3 6fbd 4d90 50bd 41f2 57bd eeb2 4d3d
000003f0: 2859 a4bd 7678 01bc af0a 49bd 8a8f 19bd
-0.019914549 -0.030080032 0.048888914 -0.04934082 0.087060556 0.0068968544 0.07197397 0.0637729
-0.060209744 -0.0013962858 0.006679392 -0.023947418 -0.034842346 0.035273954 0.04514656 -0.0063032997
-0.069826186 -0.024290694 -0.008707929 -0.08034993 0.07212764 0.05120599 -0.06965733 0.08229319
-0.033460993 -0.021900663 -0.07627938 -0.07489899 -0.07145062 0.07673524 -0.068880074 -0.040876437
0.046838015 0.010184472 -0.07359565 -0.06153213 -0.047732525 -0.040303316 0.059568718 0.046049982
-0.049431965 -0.033936404 0.06539154 -0.060247317 -0.032931853 -0.03663429 0.022511095 -0.009106077
-0.025544386 -0.026426725 -0.08558386 0.08083975 0.015555425 -1.9640325e-05 0.05626723 0.045998912
-0.023881692 -0.086707756 0.017969474 -0.041588042 0.064226255 -0.0039283754 -0.025839197 0.062802665
0.078100055 -0.0057906206 -0.04341452 -0.05587985 0.056590468 -0.0535813 0.03621838 -0.048685007
-0.078230344 -0.07342582 -0.025648575 0.001086361 0.053328216 -0.019409113 0.018474422 0.05346441
-0.0034519876 0.066678934 -0.01736065 -0.010960587 -0.05279568 -0.062256467 -0.05748441 0.011572795
-0.08017685 0.042658992 0.053265583 0.061596677 -0.040458128 0.007462624 -0.058666557 0.07695423
-0.03868081 -0.07566853 0.043917667 -0.013360803 -0.003991191 0.0214812 0.0038250855 -0.04020155
0.041051928 0.07072154 0.020058312 -0.007275663 0.016553383 0.015751584 -0.06686541 0.053123966
-0.0031705375 -0.012722886 -0.07976224 -0.004316547 0.034310147 0.08961744 -0.046608448 0.01605297
-0.022781093 -0.0037329942 0.029401086 -0.078996435 -0.022035766 0.07274751 0.062410146 0.019129783
-0.07929093 -0.048365794 -0.003831148 0.03504968 0.059913777 -0.00040659794 0.059774395 -0.053974915
0.04886358 0.07904062 0.04965192 0.0062815933 -0.017392527 -0.040989935 0.08301036 0.07457178
-0.06426186 0.016591378 -0.02549054 0.023046773 -0.018293526 -0.030022848 -0.041556828 -0.046994537
-0.048173904 -0.08796568 -0.020133508 0.062435843 -0.056077756 -0.009330962 -0.061609626 -0.012869158
-0.050964635 0.08798543 0.005812591 0.07196119 -0.026963435 -0.048758384 0.018416833 -0.07777671
0.080294386 -0.008016279 0.0756607 0.062208705 -0.01233739 0.081272565 0.002908807 -0.06347186
-0.039666586 -0.028593563 -0.055736735 0.050734222 -0.04755034 -0.0147255855 -0.019811887 0.016185626
-0.08521721 0.077782735 0.052471366 -0.07725668 0.02247131 -0.07976361 0.03532018 -0.012028631
0.07690288 -0.052590717 0.08184581 0.060088772 -0.05180275 0.036176417 -0.049844705 -0.032541014
0.057575744 -0.06901217 0.06853192 0.006292496 0.038762867 -0.035553 -0.07057088 0.031328976
-0.014910655 -0.01599108 0.07582202 -0.06768201 -0.02973891 0.026407817 -0.086005904 -0.027983647
-0.03196877 -0.08438235 0.049823586 -0.011538463 0.046202216 0.079577714 -0.07795446 -0.04491916
-0.059932765 -0.025659751 -0.043373395 -0.05880714 -0.039842278 -0.0014417421 -0.0134932995 0.028370993
-0.028858213 0.03170552 -0.010972834 0.010115202 -0.049838483 0.08724776 0.0758261 -0.031117782
0.04620276 -0.03824486 0.06737719 0.0879357 0.014415749 -0.042018652 0.0008977441 -0.06550124
-0.058505755 -0.050918866 -0.052721266 0.05021947 -0.08024818 -0.007902255 -0.049082454 -0.037490405

linear2.bias f4 [128]
00000000: e238 383d a5ff 4b3c a804 35bd d406 823d
00000010: 4a6b 27bc faa5 f6bc 34b2 7d3c e767 043d
00000020: 0af3 8b3d 0a7f aa3c dd7f 9c3d 77cf cb3b
00000030: 3d4a 21bc 155d 8e3c c311 183d d055 ed3c
00000040: 828a bcbd 498b 8ebc d9ea 153d e362 61bd
00000050: 446e bcbb c05d b6bd e115 4bbd 57d3 b73d
00000060: 7ce2 91be 5e3f 45bd 8c25 5c3d 75de 24bd
00000070: 34fe 5f3b 8e11 35bd d948 bebc f2da c5bb
00000080: 2771 643c 79d5 aabd e7cf 73bd ef4e 41bd
00000090: c999 773d 0600 aabd b8e2 06bd 88bd 3e3d
000000a0: 40a9 29ba be16 4c3d 234e afbd 73fa dc3d
000000b0: 086e 4abd abfb 303d 9450 733d 0196 6ebd
000000c0: e01c 883d 0d6a ad3d 90ba 7f3c 5362 72bd
000000d0: aece 233d 2c13 29bd 2417 b03d 0538 85bd
000000e0: 24eb ab3c 82eb 99bc ddb9 b43d 7914 463b
000000f0: a81d 26bd 8789 d5bc 5fd9 8dbd c56b 4f3d
00000100: 1640 343d 3706 d5bd aa97 4d3c 5d48 18bd
00000110: fb22 8d3c ac35 8a3c 5b66 aebd 4943 23bd
00000120: 5a8d 3d3c 2321 643c 7c3e 383c fb99 ffbc
00000130: e796 913d 03e3 1fbd 7cc9 acbd 40f2 dabd
00000140: 75c0 693d dc5e 6cbd 2961 cabd b51a 1abd
00000150: 97b4 a7bd d3d7 52bc 0172 1fbe eb44 acbd
00000160: 612f 233d 105f a43d 84ea 73bb fd3a d1bd
00000170: 6dd3 f0bc 71a3 7e3d 5793 07be f6b9 1fbd
00000180: 16cb 98bd 65bc c43b ea52 72bd 15b0 423d
00000190: f97d f63d 1a90 b6bc 3951 34bd fc3c b53d
000001a0: 10f1 363c a484 a4bd 8016 f63c 9a3b eb3b
000001b0: a5d3 05bd f3ac a03d c453 f1bc 72ce 13be
000001c0: 1564 7f3d 6784 593d 868b 90bb 8865 903d
000001d0: 7f8d 6dbd d0fe a1bd 61e8 91bc 9aa7 01bd
000001e0: 9d87 78bd 7a5f 9fbd 0dc7 933c 5c6c 57bd
000001f0: 53e5 743d d2bc 11bd 82f9 cfbd 9864 b33d
0.044976123 0.012451087 -0.044193894 0.063489586 -0.010218451 -0.03010844 0.0154843815 0.03232565
0.068334654 0.02081253 0.076415755 0.0062198 -0.00984436 0.01737837 0.037126314 0.028971583
-0.09206106 -0.0174004 0.03660092 -0.055025946 -0.0057504494 -0.089046 -0.049581412 0.08975857
-0.28493106 -0.048156135 0.053746745 -0.040251214 0.0034178616 -0.044206195 -0.023228096 -0.006038063
0.013942993 -0.08341498 -0.059524443 -0.047194418 0.060449395 -0.08300786 -0.03293106 0.04656747
-0.00064720586 0.049826376 -0.08559825 0.10789957 -0.04942134 0.04320876 0.059403017 -0.058248524
0.066461325 0.08467493 0.015608445 -0.0591758 0.039992027 -0.04127805 0.08598164 -0.065048255
0.020986147 -0.018789057 0.08824513 0.0030224605 -0.040555626 -0.026066555 -0.06926226 0.050639886
0.04400643 -0.10401576 0.012548367 -0.037178386 0.017228594 0.016871296 -0.085156165 -0.03985909
0.011569345 0.013923916 0.011245366 -0.031201353 0.071088605 -0.039034855 -0.084368676 -0.10690737
0.057068307 -0.057707652 -0.09881813 -0.037623126 -0.08188742 -0.012868839 -0.15570833 -0.084115826
0.039840106 0.08025944 -0.003721864 -0.10216329 -0.02939769 0.06216759 -0.132398 -0.038995706
-0.074606106 0.0060039037 -0.059161104 0.047531206 0.12035746 -0.02228551 -0.044022772 0.088495225
0.011165872 -0.08033112 0.030040026 0.007178736 -0.032672543 0.078454874 -0.029458888 -0.14434221
0.062351305 0.053104784 -0.0044111637 0.070506155 -0.05799627 -0.0790993 -0.017811002 -0.031653978
-0.060676206 -0.077818826 0.01803925 -0.052593574 0.059789013 -0.035580464 -0.10155012 0.08759421

linear3.weight f4 [64, 128]
00000000: 7a77 01bd 5c6b a5bd af8b ad3d f979 ac3d
00000010: 9c79 3bbd 006f b93d abc0 513d a63f 94bd
00000020: 2e29 f53c 719c a63d 982c 10bb 1a0d d8bc
00000030: 3299 323d 4350 89bc 8c6f 14bb 98f0 b73c
00000040: 63ac 1ebd a329 80bd 2ebd 39bb 83a1 443d
00000050: 4774 f23b 691a 49bd 913a 53bd 448b 5c3b
00000060: 6de2 2b3e 65b0 943d 27e2 a43d baea 09bc
00000070: 4345 693d 9464 2ebd 1d39 d8bc 403f a2bd
00000080: 24a4 c1bc 26dc 08bd 92e1 4ebc 8bd2 9a3d
00000090: f5c7 78bd 9216 91bd 6c0a 203d 41ea ce3b
000000a0: ad26 a43d 08df 293c 0e94 483c 904b 48bc
000000b0: e0da 3fbd 0c98 d6bb 87c2 a33c 67bb 983d
000000c0: 171a 7fbc 72e1 21bc 56a5 d0b7 cff2 153d
000000d0: 9e39 053d 7a89 a3ba 366a 1fbd 43c6 393d
000000e0: f61d a83d bad9 aa3c 60be 753d 6939 98bd
000000f0: 4107 3a3d 415c 393d 1d00 5bbd df62 72bd
00000100: 2f33 93bd 76bc 7ebd e6d0 4139 6702 e83d
00000110: 3200 ddbc 9868 2bbc 4465 57bd b3e0 473d
00000120: 70fc 063e e0ad 61bd 2d86 7dbd eb3e 2cbd
00000130: 5e91 0f3e cb00 263d a24e b4bc 7563 7a3c
00000140: be8b fabc 06e5 74bc c968 953d 8aa2 263d
00000150: 59ea 7ab9 5607 c63d 030c c73d ec32 553d
00000160: 7e5b 9a3d 1e90 aa3b 48ba 963d 0fea 363d
00000170: 2e89 3fba 3581 9a3c 3fe2 de3c b2b4 893d
00000180: dbdb 193d e6ef fc3c a51e 533d 4f66 2e3d
00000190: fb47 fd3d 6853 e5bc ed4f 05bd 2ce8 e53d
000001a0: f773 06bd 9c2e 04bc dd9c b43d b667 7c3d
000001b0: 01c8 d03d cc79 93bc da5a 823b 44f0 a2bb
000001c0: d430 873d 8d11 84bd d306 923c d0e8 de3d
000001d0: bf9c 1d3d 5b5c bf3d 238e 6a3d 61d3 823d
000001e0: d71a 59bb 8c1e a83c b316 dcbc 3122 5a3c
000001f0: 66df 9839 bd5b 733d 65b8 1bbd ceea 6cbd
00000200: 8fca 84bd 7b9f 0f3d 7402 693a 00fd 92bd
00000210: f6f6 acbc a222 56bd ac1b 873d 2fbd aa3c
00000220: 67dd 923d 5707 88bc 5960 9fbd b0b2 913c
00000230: 4f8c 4fbd 6301 543d eba5 c93c f220 a43d
00000240: 18d0 ee3c acd2 d5bb 067c 4c3d 15ff acbd
00000250: bb8e 833d 24ab 803d 6581 3abb d85c 173d
00000260: 08e7 21bd 7323 1cbd 5e74 323d ce3a 5bbd
00000270: 897d a9bc c566 d83c 16aa 98bd 71a4 4c3d
00000280: f394 b5bc 0f39 003d 011e a1bc 172c 4fbd
00000290: b208 a5bd 7621 df3c bc31 9f3c 03f7 69bd
000002a0: d359 a7bd 910a 863d d626 0abd 7b66 94bd
000002b0: df37 b33d 2bf8 7a3b 59d5 3a3d 3c8d 8dbd
000002c0: 9cfa 5bbd c870 9ebc efdd 94bc d412 a6bc
000002d0: 2947 4d3d a32e 733d 84fb b0bd 29ab 553d
000002e0: 03ef 7ebd e064 5c3d e259 73ba 4c22 413c
000002f0: a462 42bd a52f 9a3d 2954 6c3d bbb5 293d
00000300: 04ef 0dbd dd7c 29ba 26f6 46bd 0c9d 35bd
00000310: 7204 3d3c b99c 9fbd b361 f4bc efc4 8bbd
00000320: bf12 783d 57e5 8c3d 305c 893d 2c24 943d
00000330: 4a5f 47bd 05e0 ff3c c9af 34bd cbc8 8e3d
00000340: 1695 db3c b4dd 7e3d e424 233d 9c4c 89bd
00000350: 5a35 10bd f548 acbd 6759 86bd 2b51 803c
00000360: 7e11 7fbc 3c93 32bd f602 9b3c e354 483d
00000370: deef cf3b b488 023c a23f 61bc cfe4 afbd
00000380: cf07 1abd 0286 29bd 0c2d 333d 3a2f 04bd
00000390: 045a fd3b 5d92 213d ba3d aebc d9c0 f6ba
000003a0: 7171 61bd 9026 7c3d 77e5 4cbd 1cc7 883d
000003b0: 067d 60bc 24d7 adbd c942 efbc 05ca 65bd
000003c0: 3a37 8f3d 52f0 03bb 9ba1 a5bd a20d 223b
000003d0: d721 1fbd 77a4 183d 3c4d b43d 87cb 7fbd
000003e0: f576 89bd d5a9 943d 5000 9cbd f315 263d
000003f0: 2e66 933c 977e babc 47a9 183d 5a42 563d
-0.031608082 -0.08077118 0.08473908 0.08421702 -0.045770273 0.09054375 0.051209133 -0.072387025
0.029926863 0.081353076 -0.0021999236 -0.026373435 0.04360313 -0.016761905 -0.0022649495 0.022453591
-0.03873862 -0.062579416 -0.002834152 0.048005592 0.0073991152 -0.049097452 -0.051569525 0.0033652345
0.16785593 0.07260207 0.08050948 -0.00841778 0.05695082 -0.042576388 -0.026394421 -0.0792222
-0.023637839 -0.033413075 -0.012627022 0.07559689 -0.06073757 -0.07084383 0.03907244 0.0063145463
0.08015189 0.010368116 0.01224233 -0.012225047 -0.046839595 -0.006548887 0.019990219 0.07457619
-0.015570185 -0.0098804105 -2.4872523e-05 0.036608513 0.03252565 -0.0012476884 -0.03891965 0.045355093
0.082088396 0.020855773 0.05999601 -0.07432825 0.045417074 0.045253996 -0.053466905 -0.059176322
-0.07187497 -0.06219145 0.00018483735 0.11328583 -0.026977632 -0.010461949 -0.05258681 0.048798274
0.13182235 -0.05509746 -0.061895538 -0.04205219 0.14020297 0.0405281 -0.022010151 0.0152825015
-0.030584212 -0.014947182 0.07295377 0.040682353 -0.00023929159 0.09669368 0.09719088 0.052050516
0.07536982 0.0052051684 0.07359749 0.04465681 -0.0007306513 0.018860439 0.027207492 0.06723918
0.037563186 0.030876111 0.051542897 0.042578038 0.12367245 -0.027993873 -0.032546926 0.11225924
-0.032825436 -0.008067753 0.08818982 0.061622344 0.10194398 -0.018002413 0.0039781155 -0.0049724896
0.0660111 -0.0644866 0.01782552 0.10884249 0.038479563 0.09343787 0.05726446 0.063879736
-0.003312757 0.020522378 -0.026866293 0.013313816 0.00029158144 0.05941366 -0.03801765 -0.057841115
-0.064839475 0.0350642 0.000888861 -0.07177162 -0.021113854 -0.052279122 0.06597075 0.020842163
0.071711354 -0.016605062 -0.07782049 0.0177854 -0.050670918 0.051759135 0.024615249 0.08014096
0.029151961 -0.006525358 0.049922965 -0.084470905 0.06423708 0.062826425 -0.0028458473 0.036953777
-0.03952697 -0.038119745 0.043568008 -0.053522877 -0.020689743 0.026416192 -0.07454316 0.04996151
-0.022165751 0.031304415 -0.019667627 -0.050579157 -0.08058299 0.027237635 0.019432895 -0.057120334
-0.081714295 0.06544984 -0.033728443 -0.07246109 0.08750891 0.0038294892 0.04561362 -0.06911704
-0.053705797 -0.019340888 -0.018172232 -0.02027265 0.05011669 0.059370648 -0.08641723 0.052165184
-0.062239658 0.05380714 -0.0009283108 0.011787962 -0.047457352 0.07528619 0.05769745 0.041433077
-0.03465177 -0.00064654445 -0.04857459 -0.044339225 0.011536704 -0.07793564 -0.029831743 -0.068246715
0.060564753 0.068796806 0.067070365 0.07233462 -0.04867486 0.03123475 -0.044112954 0.06971892
0.026804488 0.06222315 0.039830104 -0.06704065 -0.03520713 -0.08412353 -0.06560021 0.015663704
-0.015568135 -0.043597445 0.01892231 0.04890908 0.006345733 0.007967163 -0.013748081 -0.08588564
-0.037605103 -0.041387565 0.043744132 -0.0322716 0.007731678 0.039446224 -0.021269668 -0.0018825784
-0.055039827 0.061560214 -0.050023522 0.06678602 -0.013701683 -0.084883004 -0.02920665 -0.056100864
0.069929555 -0.0020132256 -0.080874644 0.0024727364 -0.03885063 0.03726622 0.08803794 -0.06244996
-0.067121424 0.072589554 -0.07617247 0.040548276 0.017993059 -0.02276544 0.03727081 0.05230937

linear3.bias f4 [64]
00000000: 77f0 553c 275e ca3b e769 88bc b701 74bd
00000010: d0f5 50bd e6ed a0ba 1323 293c 2ed9 24bd
00000020: 82a6 533c 99fd d1bd 1841 4e3d d743 6d3c
00000030: be1c aabd a3a7 6fbd 7eff 5cbd 0dfc 1b3a
00000040: 267d d73a 8272 0dbc 90e6 7a3b abcb 0cbd
00000050: a45d 97bd 1e2f 6f3b 0d10 dd3d eea2 213d
00000060: c565 b33c ee7c 893b 214c 95bd 52b3 033d
00000070: f898 7bbd 310e dabc b285 1ebb 0a4c 5a3d
00000080: 8a0a b1bd e242 233c 358b 683d 914a 933c
00000090: cbbc af3d 9391 fe38 815c 3ebd 61d4 51bc
000000a0: 2c5a 59bd 8808 3ebc a8ca b0bc bfb5 203c
000000b0: 123d 243d 8ef9 aabc b677 adbc 6b59 11bb
000000c0: b257 a9bc 8246 62bd 42a4 cb3c 3d7a 3dbc
000000d0: 998b ea3c 5635 f9bc 95e8 a43d 7393 e7bc
000000e0: 0382 96bc a6c3 2dbd 0976 68bd db5b 0dbc
000000f0: 498d 61bd 1335 c7bb dd6d 31bd dbec 03bd
0.01305782 0.0061757746 -0.01665206 -0.059571948 -0.051015675 -0.001227793 0.010323304 -0.04024618
0.0129181165 -0.10253448 0.050355047 0.014481506 -0.083062634 -0.05850948 -0.053954594 0.0005950339
0.0016440495 -0.008633258 0.0038284399 -0.03437392 -0.073909074 0.003649659 0.10794077 0.039462022
0.021899113 0.004195801 -0.07289911 0.032153435 -0.06142518 -0.026618095 -0.0024188575 0.053295173
-0.08644588 0.009964677 0.056773383 0.017979892 0.08580931 0.00012138779 -0.046474937 -0.012806983
-0.05306451 -0.011598714 -0.021581009 0.009808957 0.040097304 -0.02087095 -0.021175247 -0.0022178541
-0.0206717 -0.055243023 0.024858598 -0.011564788 0.028631018 -0.03042094 0.08052174 -0.028268551
-0.018372541 -0.042422913 -0.056753192 -0.008627857 -0.05506638 -0.006079325 -0.043317664 -0.032208305

linear5.weight f4 [1, 64]
00000000: 42d6 8c3e 0de4 b83c bc93 363e 634c b6bc
00000010: 5201 943d 76ce 903e 59d6 453e cdc2 d1bd
00000020: c5e9 393d 861d c9bd 8aa5 1d3e a6bc aa3e
00000030: 30f7 273a 78cf f1bd fa85 933e 39d9 9b3e
00000040: dc3a 14bd bb1e 933e c1d1 7a3e 96fa a63e
00000050: a10e 713d 8bf4 bdbc f14f ddbd 39f0 a23e
00000060: b7e7 963e 191a 173e a64e 8abd 66cd 7e3e
00000070: 19ce 783d 9fc3 483e c09f f3bd be81 643e
00000080: 460b abbd 2448 85bd 8c96 66bd f4cd ca3e
00000090: d66e 0bbe f5e6 803b 6dba 103c b78d 0b3e
000000a0: 8de8 363d 9205 1a3e 204a e33d 485d 66bd
000000b0: 753b 62bd 4514 c13d b221 9b3e bea5 5a3e
000000c0: 33b2 ca3e cf9a d9bd 8912 a33e b588 4b3d
000000d0: 6551 073d a94b bfbd 6857 1dbe 402a b23d
000000e0: d82c 943c fec4 c33d 0930 e73d ebc0 353e
000000f0: baf0 7abc cca8 d83e fc70 ec3d 77a1 f7bc
0.27507216 0.02256968 0.17829794 -0.02225322 0.07226814 0.28282517 0.19320048 -0.102422334
0.045388956 -0.09820084 0.1539518 0.33347052 0.0006407378 -0.1180715 0.28813154 0.30439165
-0.036188945 0.28734383 0.24494077 0.32613057 0.05885184 -0.023187896 -0.10806263 0.318239
0.2947366 0.14756049 -0.06753282 0.24883041 0.060743425 0.19605874 -0.11895704 0.22315118
-0.083517596 -0.065079 -0.056295916 0.39610255 -0.136165 0.003933782 0.00883351 0.13628279
0.04465537 0.15041187 0.110981226 -0.056241304 -0.055232484 0.09427694 0.30299145 0.21352288
0.3958908 -0.106252305 0.3185008 0.04969092 0.03303661 -0.09340603 -0.15365374 0.08699465
0.01808779 0.09559058 0.11288459 0.17749374 -0.015316183 0.42316282 0.115449876 -0.03022836

momentum_buffer f4 [1, 1, 4]
00000000: f149 6234 e94e 5634 695f d233 fc5b 2833
2.107479e-07 1.995901e-07 9.796242e-08 3.9199207e-08

momentum_buffer f4 [1, 1, 4]
00000000: 6075 8033 3a13 a332 d856 17b4 e788 8333
5.981815e-08 1.898444e-08 -1.4094564e-07 6.125065e-08

momentum_buffer f4 [1, 1, 4]
00000000: ac69 f4b4 fc3d 1635 658e 6435 e33c 43b5
-4.5525428e-07 5.5969554e-07 8.514383e-07 -7.273176e-07

momentum_buffer f4 [4]
00000000: eab0 d436 9b25 1937 0414 99b6 4542 0d37
6.338688e-06 9.128266e-06 -4.5620855e-06 8.4196845e-06

momentum_buffer f4 [4, 4]
00000000: 6eaa 5436 4861 3e34 5313 9336 fd0a 01b3
00000010: 462e 8936 d707 9034 88f8 c436 1ac2 27b3
00000020: 66e8 1bb6 52a7 f6b4 1fae 1bb6 afb3 ab32
00000030: 8e31 8436 8858 8b34 4957 b636 4f88 1eb3
3.1689665e-06 1.773052e-07 4.383191e-06 -3.0045147e-08 4.088305e-06 2.6827794e-07 5.870188e-06 -3.9059252e-08
-2.3232074e-06 -4.5942812e-07 -2.3198152e-06 1.998873e-08 3.9396755e-06 2.5955183e-07 5.434184e-06 -3.6911214e-08

momentum_buffer f4 [4, 12]
00000000: 4d0a 4c34 0316 b232 72cf f7b1 7469 3e32
00000010: 641c db31 3a41 8ab2 0000 0000 0000 0000
00000020: 0000 0000 0000 0000 0000 0000 0000 0000
00000030: d649 d635 cb07 3b34 df20 82b3 ccf9 c733
00000040: bc1d 6633 e132 11b4 0000 0000 0000 0000
00000050: 0000 0000 0000 0000 0000 0000 0000 0000
00000060: 401e c2b5 0c6d 29b4 7cc2 6b33 e426 b5b3
00000070: c474 50b3 2288 0334 0000 0000 0000 0000
00000080: 0000 0000 0000 0000 0000 0000 0000 0000
00000090: 65a3 0f35 f8bb 7a33 7a73 aeb2 4e0b 0633
000000a0: 693f 9a32 85a7 42b3 0000 0000 0000 0000
000000b0: 0000 0000 0000 0000 0000 0000 0000 0000
1.9002728e-07 2.0731937e-08 -7.21223e-09 1.1083433e-08 6.3769665e-09 -1.6094976e-08 0.0 0.0
0.0 0.0 0.0 0.0 1.5965732e-06 1.7418567e-07 -6.059576e-08 9.3120974e-08
5.357809e-08 -1.3522687e-07 0.0 0.0 0.0 0.0 0.0 0.0
-1.446293e-06 -1.5779023e-07 5.4892084e-08 -8.4355435e-08 -4.853497e-08 1.224985e-07 0.0 0.0
0.0 0.0 0.0 0.0 5.350942e-07 5.8378617e-08 -2.0308779e-08 3.1209588e-08
1.7956795e-08 -4.5321503e-08 0.0 0.0 0.0 0.0 0.0 0.0

momentum_buffer f4 [1, 1, 4]
00000000: 8658 0933 065e 21b4 f594 d5b3 9f9e 0433
3.197831e-08 -1.5028499e-07 -9.9456805e-08 3.087791e-08

momentum_buffer f4 [1, 1, 4]
00000000: f249 fa32 0a64 7ab3 f694 90b3 9a99 ee32
2.9137457e-08 -5.8298646e-08 -6.7326184e-08 2.7776696e-08

momentum_buffer f4 [1, 1, 4]
00000000: a6db 81b5 4a9e 74b5 6a2b 8635 f665 93b5
-9.675175e-07 -9.1127424e-07 9.996413e-07 -1.0982028e-06

momentum_buffer f4 [4]
00000000: 1072 d237 44bd ac37 c87b 4338 b01f 78b7
2.5087065e-05 2.0592131e-05 4.6606903e-05 -1.478933e-05

momentum_buffer f4 [4, 4]
00000000: 7971 2e36 bdde aeb3 9aa7 41b3 9362 03b5
00000010: 9c6d 0c36 6c9b 89b3 986d 1ab3 a428 4cb5
00000020: 6cf1 a136 b5a1 20b4 3c73 b2b3 1b5a c4b5
00000030: 6b15 c2b5 6494 4133 9c78 d332 eff4 2935
2.599407e-06 -8.143022e-08 -4.5088747e-08 -4.894475e-07 2.0925427e-06 -6.407831e-08 -3.5955594e-08 -7.605506e-07
4.826279e-06 -1.495999e-07 -8.309732e-08 -1.4629362e-06 -1.446036e-06 4.5071275e-08 2.461848e-08 6.331383e-07

momentum_buffer f4 [4, 12]
00000000: dd1a 29b5 4b2f 25b4 8e5c 1434 960b 5634
00000010: 175b a5b2 de06 0a35 0000 0000 0000 0000
00000020: 0000 0000 0000 0000 0000 0000 0000 0000
00000030: f0ff acb5 43fd a8b4 54c7 9734 a2f9 da34
00000040: 0f2a 29b3 b134 8d35 0000 0000 0000 0000
00000050: 0000 0000 0000 0000 0000 0000 0000 0000
00000060: 06e6 3335 68ba 2f34 c7d4 1db4 0eb5 63b4
00000070: fee8 af32 37d6 12b5 0000 0000 0000 0000
00000080: 0000 0000 0000 0000 0000 0000 0000 0000
00000090: e194 e835 9930 e334 440d ccb4 0c32 13b5
000000a0: d66c 6333 74d6 bdb5 0000 0000 0000 0000
000000b0: 0000 0000 0000 0000 0000 0000 0000 0000
-6.29965e-07 -1.5384028e-07 1.3817245e-07 1.9934518e-07 -1.9249951e-08 5.1419e-07 0.0 0.0
0.0 0.0 0.0 0.0 -1.2889486e-06 -3.147671e-07 2.8270972e-07 4.0787296e-07
-3.938663e-08 1.0520654e-06 0.0 0.0 0.0 0.0 0.0 0.0
6.7017424e-07 1.6365959e-07 -1.4699172e-07 -2.120689e-07 2.0478634e-08 -5.470096e-07 0.0 0.0
0.0 0.0 0.0 0.0 1.7328676e-06 4.2317404e-07 -3.8007613e-07 -5.4834595e-07
5.2951542e-08 -1.4144011e-06 0.0 0.0 0.0 0.0 0.0 0.0

momentum_buffer f4 [4, 4]
00000000: 38d2 9bb7 19cd 63b7 c091 13b7 0c8d 1ab7
00000010: f7e3 9b34 3ef4 6434 988e 0b34 e0f9 1834
00000020: c07e 8ab4 8c4d 4bb4 9127 f9b3 4610 08b4
00000030: 01a4 f1b5 8bee cfb5 4ecb c4b5 6a3b 19b5
-1.857533e-05 -1.3578007e-05 -8.795818e-06 -9.211955e-06 2.9036866e-07 2.132301e-07 1.2997259e-07 1.4247007e-07
-2.5796726e-07 -1.893406e-07 -1.1602163e-07 -1.2671907e-07 -1.8003631e-06 -1.5492127e-06 -1.4662307e-06 -5.70834e-07

momentum_buffer f4 [4]
00000000: c69a 31b8 bcda 3235 e8d3 1eb5 e4be 8eb6
-4.2344232e-05 6.662847e-07 -5.916795e-07 -4.2541524e-06

momentum_buffer f4 [4, 4]
00000000: a789 4e34 2415 80b4 32fc 6fb5 1aa6 0835
00000010: 6dd5 15b4 32d9 1134 a082 4d35 9ea9 f3b4
00000020: fd86 bcb4 7747 1035 057b ff35 b938 92b5
00000030: 2667 e436 3ef3 7fb6 71e4 0eb8 fcf9 ab37
1.9235323e-07 -2.385724e-07 -8.940143e-07 5.090566e-07 -1.395435e-07 1.3583193e-07 7.6558536e-07 -4.538569e-07
-3.5115946e-07 5.3748175e-07 1.9034784e-06 -1.0894356e-06 6.8069376e-06 -3.8139547e-06 -3.406819e-05 2.0501197e-05

momentum_buffer f4 [4]
00000000: d6ce ab36 4684 a9b6 62b0 46b7 fed5 6839
5.120276e-06 -5.051991e-06 -1.1842787e-05 0.00022204962

momentum_buffer f4 [1, 1, 4]
00000000: 7af7 df34 104e 9734 c2b5 9b34 8456 b734
4.171705e-07 2.818274e-07 2.9003246e-07 3.4149355e-07

momentum_buffer f4 [1, 1, 4]
00000000: bb2d 5db3 bec7 3434 a471 3634 d400 3333
-5.1497164e-08 1.6836472e-07 1.6991413e-07 4.167744e-08

momentum_buffer f4 [1, 1, 4]
00000000: 1427 0d34 ae36 b733 9237 4735 5127 86b4
1.3145865e-07 8.531548e-08 7.421414e-07 -2.4988051e-07

momentum_buffer f4 [4]
00000000: 2496 e3b6 9b45 beb6 4943 f736 7eb4 0437
-6.782606e-06 -5.6705444e-06 7.3690067e-06 7.909837e-06

momentum_buffer f4 [4, 3]
00000000: bde6 ebb5 9ece c6b6 5227 79b5 b18e adb5
00000010: 5449 c5b6 5c76 1bb5 ff6e b535 57da 0837
00000020: fc3a 6135 ce71 c635 8f9a 1237 f835 7235
-1.7576018e-06 -5.9249132e-06 -9.2816947e-07 -1.2931033e-06 -5.879594e-06 -5.7914235e-07 1.3517855e-06 8.157068e-06
8.3904865e-07 1.4785271e-06 8.738264e-06 9.023056e-07
