saved_models/tb_logs/version_13/checkpoints/epoch=33-step=2550.ckpt (torch, 249634 bytes, 100 tensors)

conv_layers.0.att_src f4 [1, 1, 4]
00000000: affd 2fbf 3e5b 1e3f b2db 173e 5990 c03e
-0.68746465 0.61857975 0.14829901 0.3761013

conv_layers.0.att_dst f4 [1, 1, 4]
00000000: 7f6c a33e 57d1 29bf d8ff 093f 3ec5 2c3f
0.31918713 -0.6633505 0.5390601 0.6748847

conv_layers.0.att_edge f4 [1, 1, 4]
00000000: 2734 d43e 79ce 083e 9a01 4d3f d2d6 2b3f
0.4144604 0.13360013 0.8008057 0.67124665

conv_layers.0.bias f4 [4]
00000000: f997 7aba 7a0e 2d3c b110 b93c 0111 8dbc
-0.0009559389 0.0105625335 0.022590967 -0.017220022

conv_layers.0.lin_src.weight f4 [4, 4]
00000000: 776a 4cbc a3dc 46bf cd8e f6be eca1 a43e
00000010: dd8e e6bd 63e9 d13e 9674 5cbf 7daf 1f3e
00000020: 8507 1a3f ef48 fd3e d124 343f 340b 483e
00000030: 1aa3 a5bd 6c9c 0fbf a1fa 71be c6c6 1fbf
-0.012476555 -0.77680415 -0.48155823 0.32154787 -0.11257718 0.40998372 -0.86115396 0.15594287
0.60167724 0.49469706 0.7036868 0.19535524 -0.0808775 -0.56098056 -0.23630764 -0.6241268

conv_layers.0.lin_dst.weight f4 [4, 4]
00000000: 776a 4cbc a3dc 46bf cd8e f6be eca1 a43e
00000010: dd8e e6bd 63e9 d13e 9674 5cbf 7daf 1f3e
00000020: 8507 1a3f ef48 fd3e d124 343f 340b 483e
00000030: 1aa3 a5bd 6c9c 0fbf a1fa 71be c6c6 1fbf
-0.012476555 -0.77680415 -0.48155823 0.32154787 -0.11257718 0.40998372 -0.86115396 0.15594287
0.60167724 0.49469706 0.7036868 0.19535524 -0.0808775 -0.56098056 -0.23630764 -0.6241268

conv_layers.0.lin_edge.weight f4 [4, 12]
00000000: da2e c63e c20d 1a3f 247e e53e 003b c1be
00000010: d7fe 10bf 71f2 cfbe 8b94 7e3e 81c4 73be
00000020: daec a63e 6409 b63e cb70 16bd 224b 01bf
00000030: 03dd b93c 59f0 f9be b669 ec3c b89c c6be
00000040: 953b 8e3d 2a96 a3be a341 18bf e30f cbbe
00000050: 6b76 de3e 4188 fa3d 8958 dc3d 5e74 d5bd
00000060: 64b4 05be 6d65 d33e e779 71be 6efc 08bf
00000070: 640c ac3e 618c eebe ac53 6bbd 6e4e a5be
00000080: d015 b6be ebbc a93e f3bc e6bd ede9 40bd
00000090: 3b08 3abe 9765 903e abfb 22be b5cf 1fbe
000000a0: 24c9 043e f379 033f 71e5 e43e ff0c 163f
000000b0: 04c4 bebe 1d94 b8bd c41c df3e b198 12bf
0.3870762 0.6017724 0.448228 -0.37740326 -0.56638855 -0.40614656 0.24861352 -0.23805429
0.32602578 0.3555404 -0.03672866 -0.5050527 0.022688394 -0.48816183 0.028859 -0.38791442
0.06944958 -0.31950504 -0.59475154 -0.39660558 0.4344972 0.122330196 0.10759074 -0.10422586
-0.13057095 0.4128832 -0.23581658 -0.5351018 0.33603203 -0.46591476 -0.057452843 -0.322864
-0.35563517 0.33151945 -0.11266508 -0.04709809 -0.18167202 0.28202507 -0.15916316 -0.15606578
0.12967354 0.51357955 0.447063 0.5861358 -0.37258923 -0.09012625 0.43576634 -0.5726424

conv_layers.1.att_src f4 [1, 1, 4]
00000000: 926d f5be c2f6 8a3f 2bd9 29bf 4439 9fbe
-0.47935158 1.0856555 -0.66347 -0.31098378

conv_layers.1.att_dst f4 [1, 1, 4]
00000000: ee1c 49bf 7b01 f0be efcd 3dbd 106d 88bf
-0.7855977 -0.4687613 -0.04633897 -1.0658283

conv_layers.1.att_edge f4 [1, 1, 4]
00000000: da80 3d3f 1863 d5be 43e7 40bf da1b e13d
0.74024737 -0.41677165 -0.7535288 0.109916404

conv_layers.1.bias f4 [4]
00000000: 3bdd a0bc afe1 f9bb 430f 113d 2a69 02b9
-0.01963674 -0.0076257805 0.035414945 -0.00012436943

conv_layers.1.lin_src.weight f4 [4, 4]
00000000: d698 fa3e c905 4abf 7bc5 113f cb2c 8ebd
00000010: b4eb c73e fc0b 5e3c bede 9e3d 97a8 473f
00000020: 8674 13bf 7a28 5a3f 263a 3dbf cac1 03bf
00000030: 1d94 4e3e 6128 fbbc 886c 5dbf a269 26bf
0.4894473 -0.7891508 0.56941956 -0.06942137 0.39047015 0.013552662 0.077573285 0.7799162
-0.57599676 0.8521801 -0.7391685 -0.51467574 0.20173688 -0.030658903 -0.8649373 -0.6500493

conv_layers.1.lin_dst.weight f4 [4, 4]
00000000: d698 fa3e c905 4abf 7bc5 113f cb2c 8ebd
00000010: b4eb c73e fc0b 5e3c bede 9e3d 97a8 473f
00000020: 8674 13bf 7a28 5a3f 263a 3dbf cac1 03bf
00000030: 1d94 4e3e 6128 fbbc 886c 5dbf a269 26bf
0.4894473 -0.7891508 0.56941956 -0.06942137 0.39047015 0.013552662 0.077573285 0.7799162
-0.57599676 0.8521801 -0.7391685 -0.51467574 0.20173688 -0.030658903 -0.8649373 -0.6500493

conv_layers.1.lin_edge.weight f4 [4, 12]
00000000: efcc d7be 6da0 b4bd 706d f93e fa92 19bf
00000010: ba90 0fbd d2a0 19bf d5ac a63e 853e 92be
00000020: 3b29 153f 938c 15bf e5bc 6c3e 0df5 50be
00000030: ac96 0dbf 1b5c c5be f5cc 863c 0373 133e
00000040: 6d8d 043e e97a 90be f4a0 b63e 03e2 1bbf
00000050: a49b e13e aea0 c1bd 726b b2bd 5632 eebe
00000060: 3724 ecbe b924 fd3e 5dea e1be 5a12 72be
00000070: e429 d9be 9bc2 d33e 98e0 ce3e b9d3 e23d
00000080: d4a1 133f 3379 89bd a5a8 ce3e 7c88 df3e
00000090: e911 29bd 35db 50be a94b e53e 8476 cabe
000000a0: 35e4 813e d030 f93e 1519 193f fb0d b23d
000000b0: a984 0a3f 333d 0ebd 9566 dcbe 308f bd3d
-0.4214854 -0.08819661 0.48716307 -0.59989893 -0.03505013 -0.6001102 0.32553735 -0.28563324
0.5826604 -0.58417624 0.23118933 -0.2040598 -0.5530803 -0.38546833 0.016455153 0.14399342
0.12944575 -0.28218773 0.35669672 -0.6089174 0.44064057 -0.09454475 -0.087119 -0.46522778
-0.4612138 0.4944208 -0.44124117 -0.23639813 -0.42414773 0.4135941 0.40405726 0.11075539
0.57668805 -0.0671257 0.4036304 0.43658817 -0.041276846 -0.20396121 0.44784287 -0.39543545
0.2536942 0.48670053 0.598039 0.08694073 0.54108673 -0.034726333 -0.43047014 0.092558265

transf_layers.0.weight f4 [4, 4]
00000000: a96f 923e a219 86be c37e a9be 6b24 153e
00000010: 369a 403e b051 023d 6f55 893e e4cb 8fbe
00000020: 24bc 603e 2635 c1be 1424 cdbe 306a 0fbe
00000030: c2b1 ad3e 731e 9bbe 3fb7 b53e d1ab b73e
0.28600815 -0.2619143 -0.33104524 0.14564674 0.18808827 0.031816185 0.26822993 -0.28085244
0.2194677 -0.37735862 -0.40066588 -0.14005351 0.3392468 -0.30296668 0.35491368 0.35873273

transf_layers.0.bias f4 [4]
00000000: b414 f83c 7227 0a3f dfb0 03bd de1d 69be
0.03028331 0.5396644 -0.0321511 -0.227653

transf_layers.1.weight f4 [4, 4]
00000000: 1380 883e e687 b53d e60f eabe a9d5 543b
00000010: 223e 5bbe c33d bcbd 092b 243d 9ac8 fabe
00000020: 4827 913e 87c4 643e 1715 413e 9f58 23bc
00000030: 207a b23e 9190 493c 4688 fe3e c8a4 a4bc
0.26660213 0.08863811 -0.45715255 0.0032475984 -0.2141042 -0.091914676 0.040080104 -0.48981172
0.28350282 0.22340594 0.18855701 -0.009969859 0.348588 0.012302534 0.49713343 -0.020098105

transf_layers.1.bias f4 [4]
00000000: 4b80 b13e b412 56be e506 8dbe d9a8 afbe
0.34668192 -0.20905572 -0.27544323 -0.34308508

bn_layers.0.weight f4 [4]
00000000: 0000 803f 0000 803f 0000 803f 0000 803f
1.0 1.0 1.0 1.0

bn_layers.0.bias f4 [4]
00000000: 0000 0000 0000 0000 0000 0000 0000 0000
0.0 0.0 0.0 0.0

bn_layers.0.running_mean f4 [4]
00000000: 0000 0000 0000 0000 0000 0000 0000 0000
0.0 0.0 0.0 0.0

bn_layers.0.running_var f4 [4]
00000000: 0000 803f 0000 803f 0000 803f 0000 803f
1.0 1.0 1.0 1.0

bn_layers.1.weight f4 [4]
00000000: 0000 803f 0000 803f 0000 803f 0000 803f
1.0 1.0 1.0 1.0

bn_layers.1.bias f4 [4]
00000000: 0000 0000 0000 0000 0000 0000 0000 0000
0.0 0.0 0.0 0.0

bn_layers.1.running_mean f4 [4]
00000000: 0000 0000 0000 0000 0000 0000 0000 0000
0.0 0.0 0.0 0.0

bn_layers.1.running_var f4 [4]
00000000: 0000 803f 0000 803f 0000 803f 0000 803f
1.0 1.0 1.0 1.0

conv1.att_src f4 [1, 1, 4]
00000000: 0a5c 3f3e 68e6 88bf 23e3 153f 0efa f93e
0.18687454 -1.0695314 0.5854971 0.4882359

conv1.att_dst f4 [1, 1, 4]
00000000: 3c34 323f 13ce b9be 4a29 033f 2916 9cbd
0.69610953 -0.36290035 0.5123488 -0.07621414

conv1.att_edge f4 [1, 1, 4]
00000000: 8da6 0fbf b121 7abf 1588 953c 5942 21bf
-0.5611351 -0.9770766 0.018253366 -0.62991863

conv1.bias f4 [4]
00000000: ca0e 60bb 96c4 a43b 1da4 673b ac22 093b
-0.0034188502 0.0050283177 0.0035345622 0.0020925207

conv1.lin_src.weight f4 [4, 3]
00000000: 4f17 0fbc 85bb 49bf ab01 b23e 1668 43bf
00000010: 9573 b23e dbd0 d83e cdb9 abbe c930 03bf
00000020: 5330 68bf 1ca0 67bf cb16 3cbe 0bec 66bf
-0.008733585 -0.7880176 0.34766898 -0.763307 0.34853807 0.42346844 -0.33540192 -0.51246315
-0.90698737 -0.9047868 -0.1836807 -0.90203923

conv1.lin_dst.weight f4 [4, 3]
00000000: 4f17 0fbc 85bb 49bf ab01 b23e 1668 43bf
00000010: 9573 b23e dbd0 d83e cdb9 abbe c930 03bf
00000020: 5330 68bf 1ca0 67bf cb16 3cbe 0bec 66bf
-0.008733585 -0.7880176 0.34766898 -0.763307 0.34853807 0.42346844 -0.33540192 -0.51246315
-0.90698737 -0.9047868 -0.1836807 -0.90203923

conv1.lin_edge.weight f4 [4, 12]
00000000: 37d1 eebd 50df 603d e873 efbe 9542 90be
00000010: 4c7e e03e a25f 913e 23fe b53d 3ed7 0d3f
00000020: 2cbe 0dbf 211f f7bd b00d cdbe 5c96 e3be
00000030: da34 093f 3f69 8cbe 11e4 dbbe 1974 f83e
00000040: 1673 c23e 9278 94be a022 0bbf fa12 1d3e
00000050: 39e2 073f 86dc dd3e 7cf6 22bd 7b84 6e3e
00000060: ec89 85be 64de 073f 2312 c9be 0f47 33be
00000070: 2bda 7ebe 9900 0ebf 78eb 103f 0afd d0be
00000080: 3562 29be baf9 9d3e 58a5 c73e 270b 9e3e
00000090: ba12 0bbf 2cfd aabe 8eab fabe d006 3a3e
000000a0: 7a83 8fbe f066 82be 934d b73e e709 d63d
000000b0: 1a51 14be 3421 12be ed32 81bd 8039 e43d
-0.11660998 0.054900467 -0.46768117 -0.28175798 0.43846357 0.28393275 0.08886363 0.5540656
-0.55368304 -0.12066484 -0.40049505 -0.44450653 0.5359627 -0.27424046 -0.42947438 0.48526075
0.3797843 -0.28998238 -0.5434971 0.1533927 0.53079563 0.4333231 -0.039785847 0.23292725
-0.2608179 0.53073716 -0.3927165 -0.17507575 -0.24887912 -0.5546966 0.56609297 -0.40818053
-0.1654137 0.3085459 0.38993335 0.30867884 -0.5432545 -0.3339628 -0.4895901 0.18166661
-0.28029996 -0.2546916 0.35801372 0.104511075 -0.14484063 -0.14270478 -0.063085414 0.1114378

transf1.weight f4 [4, 4]
00000000: 4981 033d 0c0c c03e 2ce0 b73e eb40 ecbe
00000010: 3670 d03e 6e5e cabe 8032 1d3d 7afa c33d
00000020: 7bc8 63be 4266 c33e 5c18 e13e 80d9 da3d
00000030: 412e 8abe 1e6c 593e a921 c9be 1892 5a3e
0.032105718 0.3750919 0.35913217 -0.46143278 0.4071061 -0.3952517 0.03837824 0.09569259
-0.22244446 0.38163954 0.43963897 0.10686016 -0.26988414 0.2123265 -0.39283493 0.21344793

transf1.bias f4 [4]
00000000: 81a1 71be 618c fdbd 3fc9 d33e 1aa9 7fbe
-0.23596765 -0.12380291 0.41364476 -0.24966851

bn1.weight f4 [4]
00000000: 0000 803f 0000 803f 0000 803f 0000 803f
1.0 1.0 1.0 1.0

bn1.bias f4 [4]
00000000: 0000 0000 0000 0000 0000 0000 0000 0000
0.0 0.0 0.0 0.0

bn1.running_mean f4 [4]
00000000: 0000 0000 0000 0000 0000 0000 0000 0000
0.0 0.0 0.0 0.0

bn1.running_var f4 [4]
00000000: 0000 803f 0000 803f 0000 803f 0000 803f
1.0 1.0 1.0 1.0

pool1.select.weight f4 [1, 4]
00000000: 8622 f13e 54ef c83e b402 77be 14a7 043e
0.47096652 0.39245093 -0.24122125 0.1295436

conv_fin.att_src f4 [1, 1, 8]
00000000: 6429 2ebf 993f 0fbe 8446 d03e fd28 19bf
00000010: b6a8 f1bd a4d4 023f de5b da3e 5e06 8abe
-0.6803191 -0.13989104 0.406788 -0.5982817 -0.11799757 0.51105714 0.42648214 -0.26957983

conv_fin.att_dst f4 [1, 1, 8]
00000000: e83e dabe 5aad d03e c942 c13e 3f5b 79be
00000010: bfd6 373f 7957 00bf 0523 28be 065b 133f
-0.4262612 0.40757257 0.37746266 -0.24351214 0.7181205 -0.5013347 -0.16419609 0.57560766

conv_fin.att_edge f4 [1, 1, 8]
00000000: cdc2 a53e d5eb b2be 1d59 abbe 66f8 43bf
00000010: 3f63 28bf d0dd 9fbe da4f 423f bc99 213f
0.32375184 -0.3494555 -0.33466426 -0.765509 -0.6577644 -0.31223917 0.75903094 0.63125205

conv_fin.bias f4 [8]
00000000: bf52 3bbd 93a6 52bc 7ce3 f93c 6d11 9e3c
00000010: a232 803b 823d abbc b8bc 79bc 7672 01bc
-0.04573321 -0.012857097 0.03050398 0.019295419 0.003912286 -0.020903353 -0.015242748 -0.007900825

conv_fin.lin_src.weight f4 [8, 4]
00000000: d5ef f13e 64c3 0a3f a47c e6be 3888 fc3d
00000010: 294b 24bf 77d5 13bf a563 69be 2ce1 b73e
00000020: c1e4 a1be 957f ac3e 51e2 01bf ef08 25bf
00000030: 07b9 83be 3455 8bbe 34ab 10bf 2811 a33e
00000040: 0215 89be 1554 273f 502a 7dbe 3af2 ffbe
00000050: 8453 133f c4a3 153f b7e9 153f f54d 2bbf
00000060: 7ca2 a23e 64b1 8ebe d05d 08bf eae0 263e
00000070: e956 ee3d d157 73b9 077d 9dbc f35d 86be
0.4725329 0.5420439 -0.45016968 0.12330669 -0.64177185 -0.57747597 -0.22791918 0.3591398
-0.31619838 0.33691087 -0.50735956 -0.64466757 -0.25727102 -0.27213442 -0.56511235 0.31849027
-0.2677384 0.65362674 -0.24723172 -0.49989492 0.5754931 0.5845301 0.58559746 -0.6691583
0.3176459 -0.27869713 -0.53268147 0.16296735 0.116376705 -0.00023207 -0.019224657 -0.26243553

conv_fin.lin_dst.weight f4 [8, 4]
00000000: d5ef f13e 64c3 0a3f a47c e6be 3888 fc3d
00000010: 294b 24bf 77d5 13bf a563 69be 2ce1 b73e
00000020: c1e4 a1be 957f ac3e 51e2 01bf ef08 25bf
00000030: 07b9 83be 3455 8bbe 34ab 10bf 2811 a33e
00000040: 0215 89be 1554 273f 502a 7dbe 3af2 ffbe
00000050: 8453 133f c4a3 153f b7e9 153f f54d 2bbf
00000060: 7ca2 a23e 64b1 8ebe d05d 08bf eae0 263e
00000070: e956 ee3d d157 73b9 077d 9dbc f35d 86be
0.4725329 0.5420439 -0.45016968 0.12330669 -0.64177185 -0.57747597 -0.22791918 0.3591398
-0.31619838 0.33691087 -0.50735956 -0.64466757 -0.25727102 -0.27213442 -0.56511235 0.31849027
-0.2677384 0.65362674 -0.24723172 -0.49989492 0.5754931 0.5845301 0.58559746 -0.6691583
0.3176459 -0.27869713 -0.53268147 0.16296735 0.116376705 -0.00023207 -0.019224657 -0.26243553

conv_fin.lin_edge.weight f4 [8, 12]
00000000: e44f 3abb 7b7c 8b3d a53d 76be 60be 05be
00000010: d8ad f33e 2df7 4b3e c28b 043e bdac 85be
00000020: 8717 d9bd 7d3f f2be a77f 083f 17f3 e33e
00000030: c763 49be 0cfc e4be fbb6 103d ffae 023e
00000040: 0ab1 d6be 3ae0 97be bc1c cd3e 1b78 94be
00000050: 1592 b6be 7ba3 cbbe 368c 9dbe 47ee 17be
00000060: eae6 49bd c3cb a6bd 3042 343e 5c68 f2be
00000070: f909 32be b9bd cebe 3082 863e 692d dabe
00000080: 93b4 a03d 5751 b5be cd60 42be de5f 3bbe
00000090: 8530 cbbd 6844 0b3f 41f9 ca3d 898d 023f
000000a0: 82bd 34bd 266d 38be b39c bd3e c0a4 babd
000000b0: eee6 0b3f e30c 52be 938a 043f d954 c4be
000000c0: 3269 a4be 59cc e8be 0710 6a3d 1f80 a5be
000000d0: fbb2 ad3e f459 33be 382e a53e 9a1b ee3d
000000e0: 884c cd3e e9d6 933d 9be8 f0bc 5f63 4a3e
000000f0: d1c1 ad3e a135 423e b7d5 c2be 0aea d33e
00000100: 60c6 08bf d6e9 94be 1b34 06be 8ca0 e63e
00000110: dd9b f63e b821 acbd 14de f33e e7a3 67be
00000120: bbd2 803e ae94 35be 5f8b 673e 5259 50be
00000130: 1710 40be a636 fcbe d3da 05bf a210 b73e
00000140: 10dc 39be 1d5c 70bd 85c6 b2be 9a6e 0bbf
00000150: d2f3 0b3e 97df 58be 4c05 b0be 180e 0abf
00000160: 5544 d33e 119f a53e bd26 893e 789e 6a3e
00000170: bc8e 80bd 0c15 c63d 6115 d9be cdda de3e
-0.0028428966 0.06810852 -0.24046953 -0.13060904 0.4759357 0.19918509 0.12943938 -0.2610835
-0.106001906 -0.47314063 0.5331978 0.445214 -0.19666968 -0.44723547 0.035330754 0.12762068
-0.41931945 -0.2966326 0.40060985 -0.28997883 -0.35658327 -0.39773163 -0.30771035 -0.1483699
-0.049292482 -0.08144333 0.17603374 -0.47345245 -0.17386617 -0.40379122 0.262712 -0.4261277
0.07846942 -0.3541362 -0.18982239 -0.18298289 -0.09921364 0.54401255 0.09910823 0.50997216
-0.04412604 -0.18010387 0.37033615 -0.09113455 0.54649246 -0.20512728 0.5177395 -0.38345984
-0.32111508 -0.45468405 0.05714419 -0.3232431 0.33925614 -0.17514783 0.32261825 0.11626358
0.4009745 0.07218725 -0.02940779 0.1976447 0.33936933 0.1896577 -0.38053676 0.41389495
-0.53427696 -0.29084653 -0.13105814 0.45044363 0.4816579 -0.08404869 0.4763037 -0.22621118
0.25160775 -0.17732498 0.2261176 -0.20346573 -0.18756138 -0.49260443 -0.52287024 0.35754877
-0.18150353 -0.058681596 -0.34917083 -0.5446564 0.13667229 -0.21179043 -0.3437904 -0.53927755
0.4126307 0.3234792 0.26787367 0.22912014 -0.062772244 0.09671983 -0.42399123 0.43526307

transf_fin.weight f4 [8, 8]
00000000: 64e2 313e 5d23 7b3d 6ba6 863e 31de e03d
00000010: 1dcb a23e 71f7 48be 3975 a1bd 1f03 92bd
00000020: df3c 9e3e d66b b43e 0058 50be 83eb 92be
00000030: fac3 78bd e295 253e 6f73 5c3e 9464 9ebe
00000040: 3955 d23b 4ed5 4d3d 5bf1 a63d a284 723c
00000050: 0ee9 fabc 24b4 fdbb dc8f 05bd 2587 483d
00000060: beff 71be c239 d33c 8362 d2bd 702f b23e
00000070: 44fd 9ebe 9026 ae3e a07e 0b3e 9ec0 99be
00000080: ce3f ebbd 002a 5ebe 2c79 b63d d1a4 41be
00000090: b858 463e 82fb b33e 6c85 f5bd 3358 b8bd
000000a0: 10df 313e 8330 37be e9fb 1e3e e12c 783e
000000b0: 043a 763e 6dbb 6a3e cf14 ac3e 2ed3 acbe
000000c0: 0c72 1a3e c5b0 54be acca 853e 71b0 09be
000000d0: 2d3d 66be 9cc4 153d afb1 32be 0d9a 713e
000000e0: add9 6c3e 4a32 803d 1cd4 a2be 90b8 1bbe
000000f0: a9f5 0bbb 420e 053e 3627 3e3d c6b9 253d
0.17371517 0.061313022 0.26298842 0.1097988 0.31795588 -0.19625641 -0.078836866 -0.071295016
0.30905816 0.35238522 -0.2034607 -0.28695306 -0.060733773 0.16170457 0.2152841 -0.3093611
0.0064188507 0.05025225 0.08151504 0.01480213 -0.030628707 -0.0077424217 -0.032607898 0.04895701
-0.23632714 0.025784377 -0.10272696 0.34801817 -0.310526 0.34013796 0.13622522 -0.30029768
-0.11486779 -0.21695709 0.089098305 -0.18910529 0.19369781 0.35152823 -0.11988339 -0.09001198
0.17370248 -0.178896 0.15525784 0.2423587 0.24045569 0.2292306 0.33609626 -0.33754867
0.15082568 -0.20770557 0.2613119 -0.13446213 -0.22484274 0.036564454 -0.17450593 0.23593922
0.23129912 0.06259592 -0.31802452 -0.15207124 -0.0021356142 0.1299372 0.046424113 0.04046037

transf_fin.bias f4 [8]
00000000: 5323 acbd 6bc6 a2be e7ec 3c3e 1518 96bc
00000010: dd12 bdbd 90e2 6bbd cdba 5fbd f361 d23c
-0.08405175 -0.31792006 0.18449746 -0.01832203 -0.092321135 -0.057589114 -0.054621506 0.025681471

bn_fin.weight f4 [8]
00000000: 0000 803f 0000 803f 0000 803f 0000 803f
00000010: 0000 803f 0000 803f 0000 803f 0000 803f
1.0 1.0 1.0 1.0 1.0 1.0 1.0 1.0

bn_fin.bias f4 [8]
00000000: 0000 0000 0000 0000 0000 0000 0000 0000
00000010: 0000 0000 0000 0000 0000 0000 0000 0000
0.0 0.0 0.0 0.0 0.0 0.0 0.0 0.0

bn_fin.running_mean f4 [8]
00000000: 0000 0000 0000 0000 0000 0000 0000 0000
00000010: 0000 0000 0000 0000 0000 0000 0000 0000
0.0 0.0 0.0 0.0 0.0 0.0 0.0 0.0

bn_fin.running_var f4 [8]
00000000: 0000 803f 0000 803f 0000 803f 0000 803f
00000010: 0000 803f 0000 803f 0000 803f 0000 803f
1.0 1.0 1.0 1.0 1.0 1.0 1.0 1.0

pool_fin.select.weight f4 [1, 8]
00000000: 106f da3b 9ab4 0f3e 9ff6 4fbe 55f9 91bd
00000010: 6a29 8dbe 4f94 5cbe 96ba df3b 8767 83be
0.0066660717 0.14033738 -0.20308922 -0.071276344 -0.2757066 -0.2154095 0.0068276627 -0.25664923

linear0.weight f4 [128, 10]
00000000: 00ed 6b3d 206f 6abd f68c 22be 3f71 8d3e
00000010: 7c25 8a3e 5209 8ebe e40d 9d3e 0fcd cfbd
00000020: 6247 693e 037e 84be 9b9e 083e 4dfd 443d
00000030: 3aa6 ebbd 9245 19be 5263 413e 256e 75be
00000040: 9b54 943e 535a deba 7391 5bbe e2d7 1ebe
00000050: b1d7 bdbd fc13 623e 26ca 75be c422 16bd
00000060: 1219 98be 785d 973e 2579 a9bd 2654 b93d
00000070: 2110 4ebe d581 033e f7be 8a3e 45b8 9bbe
00000080: 1be9 063d 671c 52be 527e 84be 775a cb3c
00000090: de0d e03d 2ba5 4dbe 88d0 9cbe edf1 553e
000000a0: 5f03 f6bd 25e9 8ebe 55c1 bcbd 21d3 d1bd
000000b0: 8398 1ebe 9544 a43d 6631 13be 17c2 7bbe
000000c0: 45e0 693d 624a 82bd e312 65bd 2de4 7cbe
000000d0: f24a 95be 2db7 03be 13f8 483e a314 a3be
000000e0: 3738 8c3e 26b7 4c3e df8c 1b3e fd12 953e
000000f0: 8f31 74be 5cc2 10be d325 a1be b5d2 9e3d
00000100: 39b1 483d a21b c5bd 6f70 20be b168 40bd
00000110: fadc 243e 7195 8c3c 4214 293c 17bc 52be
00000120: 4e5f febc e7f1 57be e5e2 f23d 93cb bfbd
00000130: c9e6 7f3e 954e e83d 2244 4a3e f8af a1bd
00000140: 929a 41be 7c9e 99be 9d88 54be 4882 3a3e
00000150: 4000 62be 604a 80be 70ae 803c cdf6 c03d
00000160: 17be 183c c64f 1fbe 1efa be3d 8852 9b3d
00000170: f780 eb3c 504e 95bc c3b2 973e fb11 18be
00000180: 2b7b 023e d8cd 14be 630d 2bbb 883a ddbd
00000190: 260d 45be 13a2 58be 0094 e33c f02e b03d
000001a0: e10d c73c 43bc 893d 8e40 413e e6c2 6b3e
000001b0: b73d 433d f572 923e 9ef5 86be b6b1 0b3e
000001c0: 4f48 2d3e 20a5 913e 55e2 883d d7f9 cabd
000001d0: 2dd8 7c3e 4d0d 723c c995 413e 8e22 03bf
000001e0: 23b6 883e ab3c 77be 2c56 8dbe 040f 84be
000001f0: 0cfe 99bc e639 4a3e 03f6 483e 4ec2 833d
00000200: 45fc b5bd 7653 cabd 8447 08be d353 a4bc
00000210: 9371 8ebd 219b 57be d4c4 7cbe a723 8a3e
00000220: 80ca 2bbe 265e 553e f27f be3b 2ec6 efbe
00000230: dab4 50be 093c 58be e30a 59be 7425 41be
00000240: b6a5 11be 0413 c6bd f25e a1bc 7aa8 333d
00000250: 81da 37be b09c 80be f975 4cbd b477 d3bd
00000260: bfc0 703e e0da 22be 524b 563e 257c cf3d
00000270: c657 9c3e 6250 c53d 6dd2 60be a30c 95be
00000280: 508c 96be 134d 9abd ad11 dc3d 9e8b 8cbe
00000290: 1758 75be a2f1 953c b32e 15be f9a5 8dbd
000002a0: e982 fbbd 7564 703e ea9b 513e febb e3bd
000002b0: 1a3d 4cbd aa7d 93be f865 9dbe 0105 373e
000002c0: 126b 743e 293b e8bc ffd6 39bd ec94 9bbe
000002d0: 269a 1bbe e927 9e3e d9a6 c83d 653b c2bd
000002e0: ece7 4f3e 1b83 3d3e 689d 483e 4b67 84be
000002f0: 821e 583e f341 64be 0a1d 7c3c 16d6 a83d
00000300: 19dd 3a3e 84c5 9d3e 5884 15be 58d0 9a3d
00000310: 39d6 613e 6201 bb3d 0514 3cbe a4c6 4b3e
00000320: 19a2 8fbe c355 96be fbe3 a0bd b362 29be
00000330: 5a19 863d 23a1 4c3e cedd fe3d 87d5 dcbd
00000340: 853f 0e3e e880 27bf 21c4 15be 79ca 893d
00000350: 79d3 af3e 2d0a acbd 0378 0dbe 8c1f a23c
00000360: fe32 423e e255 803d 64b3 c63c 39f7 0abf
00000370: 9819 96be 380b 6fbe bba6 ec3d cab7 72be
00000380: 364a 8f3e 8e6d 9bbd e59b 1d3e 5380 14be
00000390: e250 463e 2ac5 9e3e 5369 60be 10b6 f1bd
000003a0: 9f59 d63c 7cf6 2a3e 5454 4bbc 7d52 e83d
000003b0: 13f8 3c3e 9c45 a23d 7bb3 98bd bd57 aa3e
000003c0: 6f4d 81be 7164 853e 9017 943d f37c 97be
000003d0: d017 3e3d cd6f 993e b1c9 8c3d 6ee8 26be
000003e0: f88d 89be fe06 613e f67c ff3d 18e1 bf3d
000003f0: 9923 8bbe 7d3c 7abe 394d 00bd 9448 9d3e
0.057599068 -0.057234883 -0.15874085 0.27625462 0.26981723 -0.27741486 0.3067466 -0.10146534
0.22781137 -0.2587739 0.13341753 0.04809313 -0.115063146 -0.14967945 0.18885544 -0.23967798
0.289708 -0.0016964175 -0.21442203 -0.1551204 -0.092696555 0.22077936 -0.24002895 -0.03665425
-0.29706627 0.29563498 -0.082750596 0.09049253 -0.2012334 0.12842496 0.2709882 -0.30414024
0.03293715 -0.20518647 -0.25877625 0.02482341 0.10940145 -0.20082538 -0.30627847 0.20893069
-0.12012362 -0.2791225 -0.09216563 -0.10245348 -0.15487866 0.080208935 -0.14374313 -0.24585758
0.057098646 -0.06361844 -0.055926215 -0.24696417 -0.2915874 -0.12862845 0.19625883 -0.31851682
0.2738664 0.1999174 0.15190457 0.2911605 -0.2384703 -0.14136642 -0.3147417 0.07755033
0.048997138 -0.09624411 -0.1566789 -0.04697484 0.16099921 0.017161103 0.010319771 -0.20579563
-0.031051304 -0.21088372 0.11859683 -0.093650006 0.24990381 0.11343113 0.19752553 -0.078948915
-0.1890662 -0.30003726 -0.20755239 0.18213761 -0.22070408 -0.25056744 0.015708178 0.094220735
0.009322665 -0.15557775 0.0932505 0.07584101 0.028748019 -0.018225819 0.29628572 -0.14850609
0.12742297 -0.14531648 -0.0026100508 -0.108021796 -0.19243297 -0.21155576 0.027780533 0.086027026
0.02429861 0.06725361 0.18872282 0.23023567 0.047666278 0.2860333 -0.26359266 0.1364201
0.16922115 0.28446293 0.066837944 -0.099109344 0.2469184 0.014773679 0.18904795 -0.512246
0.2670146 -0.24144237 -0.27604806 -0.25792706 -0.018797897 0.19748649 0.19625096 0.06433545
-0.08886007 -0.098792 -0.13308531 -0.020059502 -0.06955256 -0.2105527 -0.24684459 0.26980326
-0.16776466 0.20836696 0.005813592 -0.46830887 -0.2038149 -0.21116652 -0.21195559 -0.18861943
-0.1422337 -0.09671596 -0.019698594 0.043861844 -0.17954446 -0.25119543 -0.049917195 -0.10325566
0.23511027 -0.15903807 0.2092717 0.101311006 0.30535716 0.096344724 -0.21955271 -0.29111204
-0.29403925 -0.07534232 0.10745559 -0.2745027 -0.23959385 0.018303696 -0.14568596 -0.069164224
-0.122808285 0.23475821 0.20469633 -0.11119841 -0.04986296 -0.28806812 -0.30741858 0.17873003
0.23868969 -0.028348522 -0.045371052 -0.30387056 -0.15195522 0.30889824 0.09797449 -0.09483985
0.20303315 0.18507044 0.19591296 -0.25860056 0.21105388 -0.22290783 0.015387783 0.08243959
0.18248405 0.30814755 -0.14601266 0.0755927 0.22054376 0.09131123 -0.18367012 0.19899994
-0.28053358 -0.29362306 -0.07855984 -0.16541557 0.06547804 0.19983344 0.1244465 -0.107829146
0.13891418 -0.6543107 -0.14625598 0.06728072 0.34341028 -0.084003784 -0.13815312 0.019790433
0.18964764 0.06266381 0.024255462 -0.5428348 -0.293164 -0.23344123 0.11555239 -0.23702922
0.27986306 -0.07589255 0.153915 -0.14502077 0.19366792 0.310098 -0.21915178 -0.11802304
0.026165782 0.16695589 -0.012410242 0.113438584 0.18454008 0.07923433 -0.07456108 0.33270064
-0.2525439 0.26053193 0.07231057 -0.29587516 0.046409428 0.2996811 0.06874407 -0.16299602
-0.26866126 0.21975324 0.12475006 0.09369105 -0.27175596 -0.24437137 -0.031323645 0.30719435

linear0.bias f4 [128]
00000000: 3601 65be c14a 32bd e949 92be 6f1a c9bd
00000010: b213 7d3e 21d4 eabd 699e 86be 0296 86bd
00000020: 8193 88be 4e3e 9a3e 4c92 a0be 97ac a8bd
00000030: f977 19be 1aaa e93e 57dc ecbc 5503 b03b
00000040: 53bf 94be 22d5 ad3e e8ae 9b3e 11bd 9abe
00000050: dbdb cc3e b4ca 14be 2241 13bf dce9 b3be
00000060: 0280 94be b293 2bbd 9323 0cbf 2b67 dabe
00000070: a90b 573e a467 0f3d 9013 143f ea08 8fbd
00000080: efd3 8dbe de68 183c 0b79 ad3d b71b 153e
00000090: 3cee f53d 8a27 503d b526 0ebe 432d 5e3d
000000a0: d80d f8bd 9bee f9be b6a2 b13e d3e7 12bf
000000b0: 3105 9f3e a8a7 253e 6171 0d3f f929 2dbe
000000c0: 9a3a 073e 1bec 053f 44ac ffbd 6f0d 9c3d
000000d0: 4ed1 c6bd 49b2 863e e68f a03e cf28 513e
000000e0: f2ca b0bd 79e6 103d e9f6 afbe 58c3 913c
000000f0: 4518 a83e 8029 183e 339b 8bbe a9f3 513e
00000100: e5bd 913e 4b0f 273c d0de 0bbd 219f 80bc
00000110: 29da f1be 3800 42be 62b8 8e3e 1595 d93d
00000120: 9819 53be 419f 5abe fa59 ecbd e4ea db3c
00000130: 1ae7 603e 6ced 953a f8fb dfbd 7dd0 82be
00000140: 2983 41be ef80 f13e eb70 7cbe 17cf 6ebe
00000150: 845e b43e f5ea bfbd 667e 0dbe 05ee 653e
00000160: 8415 c63e d271 c6bd 2b54 893c 71bf 733d
00000170: 438e 77be b9a3 893e c6c6 edbe 50a8 1cbd
00000180: ad08 e1be c2e0 f4bd d7aa 023e cd2b 9dbd
00000190: 119b 21be cfd5 0a3d 116e 9fbd 4943 883e
000001a0: c588 99be 2f07 2fbe 5f3a 963e 4ca1 00be
000001b0: 216b 1bbe 7b23 6e3e 1084 10bf 8308 73be
000001c0: b35e ee3d 47f4 a23e e197 7c3e 3eda 163e
000001d0: 44a9 4cbe 1f1f 44be 4f18 ffbe c6f5 563e
000001e0: ed20 1e3d 21f5 5ebe febe 94be 95f9 503c
000001f0: 44ff 953e 25c5 dcbe 54aa 02bd 8ce8 f5be
-0.22363743 -0.043528322 -0.28572014 -0.09819495 0.24714544 -0.11466242 -0.26292732 -0.065715805
-0.26675037 0.3012566 -0.31361616 -0.08236044 -0.14987172 0.4563759 -0.02891366 0.005371491
-0.2905222 0.3395167 0.3040688 -0.3022237 0.40011486 -0.1453045 -0.5752126 -0.35139358
-0.29003912 -0.0418889 -0.5474178 -0.42656836 0.21000542 0.03501095 0.5784235 -0.06984122
-0.27700755 0.009302346 0.08470353 0.14561354 0.1200833 0.050818957 -0.13881953 0.054242384
-0.121120155 -0.48814854 0.3469445 -0.57384986 0.31058648 0.16177237 0.5525113 -0.16910543
0.13205948 0.52313393 -0.12484029 0.0761975 -0.097078905 0.26307896 0.31359786 0.20425723
-0.08632459 0.035376046 -0.34368065 0.017793342 0.32831016 0.14859581 -0.27266845 0.20503105
0.2846519 0.010196517 -0.034148037 -0.015700879 -0.47236755 -0.18945396 0.27875048 0.10624138
-0.20615232 -0.21349813 -0.11540599 0.026845403 0.21963158 0.0011438555 -0.10936731 -0.2554969
-0.1889769 0.4716868 -0.2465245 -0.23321186 0.3522836 -0.09370986 -0.13817748 0.22454078
0.3868829 -0.09689678 0.016763767 0.059508745 -0.24175362 0.26882723 -0.46440715 -0.038246453
-0.43951932 -0.11956932 0.12760483 -0.0767437 -0.1578181 0.03389531 -0.077846654 0.26613835
-0.2998716 -0.17092584 0.2934141 -0.1256153 -0.15177585 0.23255722 -0.5645151 -0.23733716
0.11639156 0.31826994 0.24667312 0.1473169 -0.19986445 -0.19152497 -0.49823233 0.20992193
0.03860562 -0.21773197 -0.29051965 0.0127548175 0.29296315 -0.4311916 -0.03190072 -0.48028982

linear2.weight f4 [128, 128]
00000000: 2405 583c 21d6 833b 5860 7f3d 1950 3d3d
00000010: cc66 59bd 2466 b6bc 9909 90bd 679d 37bd
00000020: 0bd5 3dbc 2d29 1abd 781b 663d 6fde a73d
00000030: 39e7 94bd 707d 9e3d 818f 17bc 4c20 363a
00000040: f6a2 5a3d 88b8 44bc 3703 adbd 9285 acbc
00000050: e203 81bd 8b59 9e3d 7901 a43d 2cca 8cbd
00000060: 96ad a53d 6911 6f3d d1f3 a5bd ef1d 0dbd
00000070: fa5d 223d fff3 823d 9eb9 4b3d 3870 973d
00000080: 0760 91bd c90e a2bd 311e 29bd 854c 89bd
00000090: 3122 37bc ad95 94bc 22f8 00bd 7e15 903d
000000a0: ec15 afbd 6e2b 2cbc 6661 9b3d d2de 8dbd
000000b0: bb78 82bd abcd 65bd 8c36 44bd 81fc 0abd
000000c0: c886 963c 548b 40bd c094 ccbc 1b3a 33bd
000000d0: cdb9 c73c 9f74 16bd 6038 95bd 4047 103d
000000e0: b7bb 1c3d 01ef 16bd 2d78 eb3c 315c 5cbb
000000f0: 1408 123d 48d3 013d f3ee e9bc 2cba 053d
00000100: b8ea 4e3c a998 a1bc e3dc 9f3d ceb2 debc
00000110: abd3 04bd a37c 63bc eca1 d53c b36d 6a3c
00000120: 24b8 86bd 34f7 f6bc 746b a73d 13b4 d83b
00000130: 90d6 80bd e6f9 373d d1d5 9abd 3fd1 9f3c
00000140: 811d 7bbd 11ec 943d 46fc 153d 4d8b cabc
00000150: d2bf 4b3d 62e5 46bc 93e4 493d dba3 35bd
00000160: 01ec 43bc fab9 a1bd df7b a93d 01da 783d
00000170: 9eef 6d3d dc6f dcbc 7006 12bd d70d 943d
00000180: dea5 3a3d f015 7d3d 66e4 0cbd c424 54bd
00000190: 09e3 b4bd 508a 2a3c b73c 613d 930f c9bc
000001a0: 94d0 4c3d e983 75bd 0135 ecbc 429e a6bd
000001b0: fa3b 8dbd 6817 2c3d 884f c2bc 09cd 55bd
000001c0: 7363 62bd 6400 a03d 6f2d a9bd 922a 223d
000001d0: b605 29bc e250 5dbd 2aba 90bd 205f a0ba
000001e0: 88f6 b5bd 1ccb d83c 6a71 91bd cb95 5c3c
000001f0: ccc8 5a3d 24b7 3fbb 3011 733d 87e8 733b
00000200: e5c5 ca3c 80f7 8ebd 3bb1 fb3b b07b 60bd
00000210: 2e80 a3bb 5451 263d 156c afbd b31e 92bd
00000220: ebfa 91bd 4486 9f3d 404b 59bc 7d5c 1ebd
00000230: 3ae7 28bc 99bf b43c 1622 85bd 2725 553d
00000240: 626f 85bd 3231 6c3d 439e b1bd 723d 9bbc
00000250: 8c2e 3a3d ac7a 253d aeed 22bd 4028 6a3c
00000260: d0d3 4e3c 7e60 dcbc 4dc2 a8bd 4582 473d
00000270: c0b0 97bd ff08 b0bd 3691 80bd 5a43 6e3d
00000280: f9d0 1b3d 201c df3c 9e70 53bd 3f93 a83c
00000290: 4719 733d 8b94 743d 7c30 543c d8c1 9dbd
000002a0: faf1 9dbd e482 25bd 842b 673d 48c6 813c
000002b0: a7eb 9a3d 8cf7 b3bd 0a04 453c 0078 9d3d
000002c0: 3598 70bc d8e0 8ebd ccf6 453c 6f69 c43c
000002d0: baf7 49bd 24cb 85bd 7486 8d3d 07cd 35bd
000002e0: 3771 5c3d ba83 49bc b46a 083d afee a93d
000002f0: 508f 063d ac0e 953d fa25 743d abd8 1dbc
00000300: 4483 b8bc eef7 a93d 3b28 51bc 0f40 983d
00000310: 4dc0 bd3b 25cd a3bd c4e9 9cbc 851f 94bc
00000320: 1436 1c3c b589 00b9 03d2 97bd 34e0 aebd
00000330: 97a0 22bd 7d0a 6f3d 1a03 90bc 5c0f 20bd
00000340: 9b84 5ebd 2889 d7bb 693e 4f3d e42d cd3a
00000350: 59d7 943c d014 3e3b e92e eebb 3721 5ebc
00000360: 43b2 61bd f01f b1bd c98b 863d f2ad 983d
00000370: 1b33 d3bb 6765 f6bb 9b51 ef3c e624 993d
00000380: 133a 763d 65e7 abbc d388 223d 6534 663d
00000390: 3878 95bc dbb2 73bc aeec 313d 3622 41bd
000003a0: d714 3d3d 5dd5 70bd 35e2 2c3d 387f 0b3d
000003b0: 001b acbc b2db 2dbc 476a 67bc bbcc 5bbd
000003c0: 95b1 dc3c 334f e73b 1f9c a63c 4b5b 6bbd
000003d0: 8d28 87bd 88f6 75bc cdf6 963d a89d 9e3d
000003e0: 3df8 9a3d 0f3a 9dbd a48b f63c d9fb 7e3d
000003f0: cf83 8bbc 69ed f0bc 1235 0fbd 53cc 29bb
0.013184819 0.004023329 0.06234774 0.046218965 -0.05307655 -0.022265501 -0.070330806 -0.044827845
-0.011586438 -0.037636925 0.05617854 0.08196723 -0.07270665 0.07738769 -0.009250523 0.00069475616
0.053378068 -0.012006886 -0.08447879 -0.021059785 -0.06299569 0.07731923 0.080080934 -0.06874499
0.080897495 0.058366213 -0.08103145 -0.034452375 0.039640404 0.06394195 0.049737565 0.07394451
-0.07098394 -0.07912976 -0.04128856 -0.06704048 -0.011177585 -0.018137777 -0.031486638 0.07035349
-0.08549103 -0.010508401 0.07586937 -0.06927265 -0.06370684 -0.056104343 -0.047903582 -0.033932213
0.018374816 -0.047007874 -0.024973273 -0.043756586 0.024380589 -0.036732312 -0.07286143 0.0352242
0.038264956 -0.036849026 0.028743828 -0.0033624286 0.035652235 0.031695634 -0.028556323 0.03264825
0.0126292035 -0.019726114 0.07805803 -0.02718487 -0.032428425 -0.013884696 0.026078187 0.014308381
-0.06578091 -0.030147173 0.08174792 0.0066132634 -0.062909245 0.044916056 -0.075603135 0.019508956
-0.061307434 0.072715886 0.03661754 -0.024724627 0.04974348 -0.01213965 0.04929025 -0.044345718
-0.011958123 -0.078968 0.0827558 0.06075478 0.058089845 -0.026908807 -0.03565067 0.07229202
0.04556834 0.0617885 -0.034397505 -0.051792875 -0.08832366 0.010408953 0.054989543 -0.02454356
0.050003603 -0.059940252 -0.028833868 -0.08135654 -0.06896205 0.04201451 -0.023719564 -0.05219749
-0.055270623 0.078125745 -0.08260619 0.03959138 -0.010316303 -0.054032214 -0.07066758 -0.0012235381
-0.08884913 0.026464038 -0.0710171 0.013463448 0.05341415 -0.0029253447 0.059342563 0.0037217455
0.024752567 -0.06980801 0.0076810396 -0.054805458 -0.0049896454 0.040604904 -0.08565537 -0.07134762
-0.07127937 0.07789281 -0.01326257 -0.038662422 -0.010309035 0.022064017 -0.06500642 0.052037384
-0.06515385 0.057664104 -0.08672764 -0.018950198 0.045454547 0.040400192 -0.03977745 0.014291823
0.012623742 -0.02690148 -0.08240185 0.04870822 -0.07406759 -0.08595466 -0.06277697 0.0581697
0.03804109 0.02723509 -0.051621072 0.020578025 0.05935028 0.059711974 0.012951013 -0.077029884
-0.07712169 -0.04040803 0.056437984 0.015841618 0.07564478 -0.0878745 0.012024889 0.07688904
-0.0146847265 -0.06976479 0.012082767 0.023976056 -0.049308516 -0.065328866 0.069104105 -0.044384982
0.053818908 -0.0122994725 0.033304885 0.082974784 0.032851517 0.07278189 0.05960653 -0.009634177
-0.02252353 0.08299242 -0.012765939 0.07434093 0.0057907463 -0.079981126 -0.019154437 -0.018081436
0.009534378 -0.00012258331 -0.074131034 -0.08538857 -0.03970393 0.05835961 -0.017579604 -0.039077148
-0.05432568 -0.0065776296 0.05059663 0.0015653935 0.018169092 0.0029004104 -0.0072687757 -0.013557724
-0.055101644 -0.0864867 0.06569631 0.074550524 -0.006445301 -0.0075194123 0.029213717 0.07477741
0.060113978 -0.020984361 0.039681267 0.05620231 -0.018245801 -0.014874185 0.043438606 -0.047151767
0.046162453 -0.05879723 0.042207915 0.034056872 -0.021008968 -0.0106114615 -0.01412446 -0.053662043
0.026940146 0.007059002 0.020338116 -0.05746011 -0.06599531 -0.015012391 0.07371292 0.07744914
0.07566879 -0.076770894 0.030095883 0.0622519 -0.017030625 -0.029410081 -0.03496272 -0.002590914

linear2.bias f4 [128]
00000000: f5d7 bdbd 9625 f0bb 1f26 d0bd ba14 873d
00000010: 79cb 873d df6a ab3d 7b1c 95bc fc08 853d
00000020: 23e9 6b3d 6381 8dbd d63c 8fbd 9178 993d
00000030: 62eb 9dbd 3803 f5bc 1315 23be 2b41 223c
00000040: f0f7 643d 0477 debc d6d1 493d 5ebf bb3d
00000050: 1269 05bb baf7 743c 72b7 f4bd 8c32 703d
00000060: e1fb 803d f516 803d f1b7 113d 48c1 8a3d
00000070: 0e95 ebbc 5d65 c93b f61b 44bd e785 af3d
00000080: aec5 973b 9763 f6bd 6ce0 b1bd adee 81bd
00000090: c606 b43d 1591 dcbe d09c 843d 3c05 513d
000000a0: 5e92 b03c af5a da3c 8320 28bb 7dc2 0ebd
000000b0: f35c 33bd f563 cabe e8a4 083c d568 583d
000000c0: 87c6 86bc 4729 12bd 7997 84bc da54 28bc
000000d0: b83c 93bc bc9f db3b 0739 a33d 77c6 983d
000000e0: fca7 623b 1072 3bbc 4320 2dbe e4db b83c
000000f0: 6875 5bbe 7350 61bc e81b 04be 5c8c c73c
00000100: 5a59 28bd ea61 febe f989 863d 1fa5 cfbd
00000110: 5861 563d ee02 8fbd 5a3a 5bbc b9a5 ae3c
00000120: d930 c53c d830 a63d 1732 5abe 027f 6a3c
00000130: 640b 773d 9af8 55bd 4e0e 3a3d 1265 453d
00000140: e317 1f3d 9f18 c33d c84e a73d 8d5d 963a
00000150: 60ca 04bd a081 edbd 6f43 bd3c 492a dfbc
00000160: 46fe 6f3d 8907 2dbc f685 01bc 10d2 3a3d
00000170: f826 b53c 50cd 2ebd b8c4 b0bd 7f60 bb3c
00000180: a53e 22bd e2a5 333d 55a8 473d 6e3f 3dbd
00000190: 9aa9 033d f637 c13c cd68 9dbc b87a 013c
000001a0: c2cd 93bd a62a a9bd e6fd aebd 532b 62be
000001b0: 161d 093c 817c cf3d 16f6 873d 5f2a 04bd
000001c0: f00f bb3d 6d07 c6bb 89ec 973d caee f73b
000001d0: 2a34 83bd 5afa a1bd 01e2 d1bd 2c8b 443d
000001e0: 3ff0 c53b ae81 5bbd 6c26 913d 4bc3 94be
000001f0: a937 9ebd c8ef 373a 73ed c6bd 9405 3b3d
-0.09269706 -0.0073286993 -0.10163521 0.0659575 0.06630606 0.083699934 -0.018202057 0.06495854
0.057595383 -0.06909444 -0.069940254 0.07493699 -0.07710911 -0.029908761 -0.15926008 0.009903233
0.055900514 -0.02715636 0.04927238 0.0916736 -0.0020356816 0.014951641 -0.11949052 0.058641955
0.06298042 0.06254379 0.03557581 0.06775147 -0.028757598 0.0061461166 -0.047878228 0.08570462
0.0046317196 -0.12030714 -0.08685383 -0.06344352 0.087903544 -0.4307944 0.06475222 0.051030383
0.021554168 0.02665457 -0.0025654144 -0.034853447 -0.043789815 -0.39529386 0.008340098 0.05283435
-0.016452087 -0.035683896 -0.016185509 -0.010274136 -0.017973289 0.0067023914 0.079698615 0.07459729
0.003458499 -0.011440769 -0.16906838 0.02256579 -0.21431506 -0.013752091 -0.1290127 0.02435892
-0.041100837 -0.49684078 0.06569285 -0.10138916 0.052338928 -0.06982981 -0.013380611 0.021319257
0.024071144 0.08114785 -0.2130817 0.014312508 0.060313597 -0.052239038 0.0454238 0.04819209
0.03884114 0.095261805 0.08169323 0.0011471972 -0.032419562 -0.1159699 0.023103444 -0.027241843
0.058592103 -0.010560879 -0.007905474 0.045610487 0.022113308 -0.04267627 -0.08631271 0.022873161
-0.039610524 0.04385937 0.04874452 -0.04620307 0.032144167 0.023586255 -0.019215012 0.007902794
-0.072169796 -0.08260088 -0.08544521 -0.2208684 0.008368751 0.10131169 0.06638734 -0.03226697
0.09133899 -0.0060433657 0.074181624 0.0075663077 -0.06406434 -0.07909079 -0.10248185 0.047984287
0.0060406025 -0.05359047 0.070874065 -0.29055247 -0.0772546 0.0007016626 -0.097132586 0.045659617

linear3.weight f4 [64, 128]
00000000: d81f 17bd 02ea e6bc 40b7 293d deee 17bd
00000010: 76f9 e7bc ef03 80bd 77cc 263d 7b7e 863d
00000020: 84ac 093d 9278 09bc fcfa 853d cde2 823c
00000030: 727a 92bc 739e 6abd 199e 35bd e664 37bd
00000040: 5705 b63c 62e7 633d 7d89 9cbd 0d3a b1bd
00000050: 2898 dfbc 3912 4fbd 5021 a3bd a9ac 8abd
00000060: 4211 383d fde6 9b3d e979 343c 299f 9ebd
00000070: 264d 8a3d c0f3 8d3c 99a7 67bd e7b4 8bbd
00000080: 1542 35bc 54c0 993d 42bf a03d 1301 e23b
00000090: 8eb5 57bd b3ab 883d dc7c 4f3c 333c bc3c
000000a0: 6908 41bc fdd9 01bd 5f2c a8bd a548 dfbc
000000b0: 620c 453d 0c4a a1bd abe8 303b 1211 5b3d
000000c0: 47d9 003d e272 b4bd a4b2 29bd 29cc 8bbc
000000d0: 0f29 2e3d e05a 0d3d f6c8 dcbc 1143 3cbd
000000e0: c41c 9d3d 1ff1 0cbd 2321 cb3b 2ff4 9a3d
000000f0: 52e9 e53c 0b7c 303b e3ba 343d 7130 313d
00000100: 3eb3 763d b7fa f23c f5dc 3b3b 9f00 2ebd
00000110: ed45 573b 5c31 073d 306a 893d 6fef 97bd
00000120: f70f 6ebd a2e4 a63d 59d1 52bd 484f 913d
00000130: be4e 5cbd 1f1c 5fbd 11ce 5a3d 3b93 8bbd
00000140: e617 dabc 9f5e e1bc d346 703c b66f 2b3c
00000150: 2e21 aabd a2ab eb3b 117a 7b3c e6df 7fbc
00000160: 6afa fcbc 0228 35bd 2e41 a2bd 01a1 623d
00000170: e87c 383d af45 05bd ded6 9f3d 22c8 af3d
00000180: ebdd 40bd cef7 06bd 6d66 8fbd 3389 85bc
00000190: ca28 6fbd f87f 43bd 5345 243d a428 a43c
000001a0: d48b a0bd 3718 c23c 6899 7a3d 8e90 ebbc
000001b0: 035f f0bb 47e5 97bd 7592 7c3d 75bc 91bc
000001c0: 8f00 6ebd 7505 6fbd 727a 383b a64c 44bd
000001d0: cb43 8fbd 2a83 8a3d 8f63 b4bd d879 b1bd
000001e0: efd7 923d e05b 2bbd 6337 fb3a 0598 9a3d
000001f0: 5ea6 a5bd 9441 7e3d 0746 dcbc a0b8 5d3c
00000200: d2a5 b43d 3f6e a03d 6a79 00bc 406b 223d
00000210: bfa9 72bd f195 9abd 8dfb 29bd 9d4f 723d
00000220: bbc6 cbbb 9e07 873d 48d0 69bd 8672 b7bd
00000230: 5765 49bd e01b a43d bc63 8abd 7b9b 853d
00000240: cfc1 05bd e3a4 2abd a6ab a73c a148 b23d
00000250: 158b 10bd 36c4 92bd 0f69 f93c 6dff c2bb
00000260: 88f6 20bd 3dfa 003d 3305 0a3c a1ce 883d
00000270: 8011 3fbb 7d60 d83b 270b ab3d e2e9 bbbd
00000280: 971b 073d d878 ebbb c954 b43d 2312 7a3d
00000290: 4b52 1d3d 2e79 193b bad8 f7bc 05c7 953c
000002a0: 7ccd 883d 55fc 683d 0b65 933d 0303 b3bd
000002b0: 7bd1 723d 2ee6 35bd 51f0 17bd 3ba3 a13d
000002c0: 8dfd a03d d124 3f3d 592a 88bb d9ff 6ebd
000002d0: c2e0 0c3d 7f2e acbc ab5c 003d da70 193d
000002e0: 29de 9d3d ec5a a2bd 81dd 1dbd 3e1a 093d
000002f0: 5348 d73c 145b ac3d c40a bbbc 31da 3d3d
00000300: f7ea 05bd bb1a d0bb 68ea 6dbd cf93 f8bc
00000310: 5bda 8b3d 183e 833d a1d7 e53c 3ab6 f13b
00000320: 58ef d4bc 379b e13c e313 8c3d d43a 99bd
00000330: 3e11 8fbd eb19 913d c8d2 a73d c5f7 d03c
00000340: d8d2 c1bc f1a5 813c 6fa1 02bd 03a8 99bc
00000350: 8dec 9bbc bf6e b93c 6f5a 31bc b021 473c
00000360: f4c8 3c3d 589f 8fbd dbfc 883d 2303 ce3c
00000370: 1617 9ebd c67c 46bd a47d 9abd ea67 853b
00000380: 27ca ec3c ad22 92bc 98ca e5b9 3071 73bd
00000390: 9cc4 203d 0f47 a83d d8d1 3cbd 8d3b 95bd
000003a0: 172f 08bd 7566 7bbd b06d dabb 7cca 41bd
000003b0: ab03 b9bd c34e 493a c87a f13c d429 b7bd
000003c0: 2ac2 b3bd 53d6 57bd 026d a0bd 29ee 3ebc
000003d0: c435 b83c 75af 653d 1b06 2f3c 24a2 4a3d
000003e0: 8801 17bd 2ae5 bcbb 87f8 93ba 68c5 67bd
000003f0: ae10 573b a1ce 3d3d fbc5 833c 4812 8ebd
-0.036895603 -0.028187755 0.041434526 -0.037093036 -0.028317194 -0.0625075 0.040722337 0.06567093
0.03361179 -0.008390563 0.06542012 0.015977288 -0.017880652 -0.057280015 -0.044340227 -0.04477396
0.022219343 0.055640586 -0.07643411 -0.086536504 -0.027294233 -0.050554488 -0.07965338 -0.067712136
0.044938333 0.07612417 0.011015394 -0.07745201 0.06752996 0.017328143 -0.056556318 -0.06821614
-0.011063118 0.07507387 0.078489795 0.0068971007 -0.05266338 0.06673374 0.012664046 0.022977924
-0.01178179 -0.03170203 -0.08211588 -0.02725632 0.048107512 -0.078754514 0.002699415 0.053483076
0.03145721 -0.08810975 -0.04143013 -0.017065125 0.042519625 0.034510493 -0.026951294 -0.045962397
0.07671502 -0.03440964 0.0061990186 0.075661056 0.028065357 0.0026929404 0.04412354 0.043259088
0.060229532 0.029660566 0.0028665636 -0.04248106 0.0032848075 0.033006057 0.06709707 -0.07418715
-0.058120694 0.08149077 -0.05146918 0.070952 -0.053786032 -0.054470178 0.053419176 -0.06815191
-0.026622724 -0.02751094 0.014665323 0.010463646 -0.0830711 0.007192091 0.015348927 -0.015617346
-0.030881125 -0.044227608 -0.07922588 0.055329327 0.045040995 -0.03253716 0.078046545 0.08583094
-0.047086637 -0.03295117 -0.07001958 -0.016300773 -0.05838851 -0.047729462 0.040105175 0.02003891
-0.0783917 0.023693187 0.061181456 -0.028755452 -0.007335545 -0.07416778 0.06166311 -0.017790059
-0.058106 -0.058354814 0.0028149155 -0.04792466 -0.06995352 0.06763299 -0.08808052 -0.08665818
0.07170092 -0.041835666 0.0019166287 0.07548527 -0.08088373 0.06207426 -0.02688886 0.013532788
0.0882069 0.07833528 -0.007841447 0.039653063 -0.059243914 -0.0754813 -0.041499663 0.059157956
-0.006218759 0.0659325 -0.057083398 -0.089573905 -0.04916891 0.08013129 -0.06757304 0.06523796
-0.032655533 -0.041661154 0.02046759 0.08705259 -0.03528889 -0.071663305 0.030445604 -0.0059508593
-0.03929761 0.031488646 0.008424091 0.06680036 -0.0029154718 0.006603299 0.083517365 -0.09175469
0.032985296 -0.0071860366 0.08805234 0.061052453 0.03840856 0.0023418176 -0.03025471 0.018283376
0.06679818 0.056881268 0.07197007 -0.08740809 0.059281807 -0.04440897 -0.037094418 0.07892462
0.07860861 0.04666597 -0.004155439 -0.058349464 0.034394033 -0.021018265 0.031338375 0.03746114
0.07708389 -0.07927498 -0.03854132 0.033472292 0.026279604 0.08415809 -0.022832282 0.04635066
-0.032694783 -0.006350843 -0.058084875 -0.030343918 0.068287574 0.06408328 0.028056921 0.0073764594
-0.025993034 0.027539833 0.068397306 -0.07481924 -0.069857106 0.070850216 0.081945 0.02550877
-0.023660108 0.015826197 -0.031892236 -0.018756872 -0.019033695 0.022635816 -0.010824784 0.012154028
0.04609008 -0.07012814 0.06688853 0.02514798 -0.07719247 -0.048458837 -0.07543495 0.0040712254
0.028904987 -0.0178388 -0.00043829228 -0.059434116 0.03925 0.08216678 -0.04609856 -0.07286749
-0.033248033 -0.061377008 -0.006665908 -0.047312245 -0.09033903 0.0007679278 0.029477492 -0.08943525
-0.08777268 -0.05269463 -0.078332916 -0.0116534615 0.022486575 0.056075532 0.010682608 0.049471036
-0.036866695 -0.005764623 -0.0011289277 -0.056584746 0.0032816338 0.046339635 0.016085615 -0.069370806

linear3.bias f4 [64]
00000000: c945 b3bd e8be 77bd bdf3 933d 5558 343e
00000010: 7073 a43a 8230 bebc bb0c 9cbd 9864 0e3a
00000020: b615 503c a855 523b d8de b53a 2b3b 8abd
00000030: 9af6 dabd fe84 1abc 7797 a4bd 953a e8bd
00000040: d6b4 953c c486 7ebd d75b 94bd b639 49bc
00000050: 3776 cebc 27b4 8dbd bdba fcbb c6da 8ebc
00000060: 48ef ce3b ee57 01bd fc80 78bd dd90 2c3e
00000070: e1ae a23d 60c6 0bbd 57b9 c1bc 09c4 e63d
00000080: 83c6 af3c 3463 293c afb6 80bc acd1 52bd
00000090: a354 113e b7b1 b53c cdbc ac3d d696 093c
000000a0: 22b7 0b3d 22ad 5ebd 4b42 743d a9d8 1f3d
000000b0: d35d f9b9 5fab 89bd e0b0 babd c795 6ebd
000000c0: 26f8 24bc a499 933c 151f ddbd 5b83 b2bd
000000d0: d7d6 a13b b66a 69bc da6d b13d 9103 13bd
000000e0: e82e 42bd da9d da3c b437 d83d 57d3 dfbc
000000f0: 6bbd 38bc 2fd3 7abc 1fb5 98bc 1fb1 f03b
-0.08753545 -0.060484797 0.07224224 0.17611821 0.001254661 -0.02321649 -0.07619616 0.000543186
0.012700489 0.0032094512 0.0013875617 -0.06749567 -0.10691567 -0.009431122 -0.08036702 -0.11339299
0.018274706 -0.06214024 -0.072440796 -0.012281826 -0.025202854 -0.06919127 -0.0077126906 -0.017438304
0.0063151456 -0.031577997 -0.060669884 0.16852136 0.07943512 -0.034124732 -0.023647947 0.112678595
0.021456962 0.010338593 -0.01571211 -0.05146949 0.14192443 0.022179468 0.084344484 0.0083977785
0.034110196 -0.05436433 0.059633534 0.039024983 -0.00047562885 -0.067221396 -0.091157675 -0.058248308
-0.010068929 0.018017597 -0.10796944 -0.0871646 0.004938941 -0.014246633 0.08663531 -0.035892073
-0.047408015 0.026686598 0.105574995 -0.027322454 -0.0112756295 -0.015309139 -0.018641053 0.007345333

linear5.weight f4 [1, 64]
00000000: 2018 b5bc a533 a2bd 0437 60bd dee2 1ebe
00000010: 1fcc a33e 0e78 c73e 11b6 c9bd 0241 953e
00000020: ff65 473e 7f45 7e3e 8502 fb3d a678 303e
00000030: 4374 20bd 10b2 b33e 65b6 1cbd 504b debd
00000040: bb78 213e bb83 8ebd 3389 bfbd 8abb 75bc
00000050: d71d c6bd 48b0 a0bd 305a b13e e051 bd3e
00000060: 89a2 8b3e c727 7bbc 0b46 ec3d 45e7 3bbe
00000070: d4bf acbd 685c 443d 80eb d33d 8c75 b7bd
00000080: 688d c73e 5228 5b3d b0eb a93e 06ec e23c
00000090: 3b76 04be 7e26 853e 9700 e4bd 78e9 5d3c
000000a0: f661 933e 6827 863e f866 04be 28ac 24bd
000000b0: 9ba4 953d 992f 3cbd aa1c c1bd cd25 95bd
000000c0: d6de ce3d aec6 123e 1f8d c53e ce0b f3bd
000000d0: 8f21 bb3e 0292 01bd 7f16 08be 5e4e 66bd
000000e0: b048 b5bb 4542 633c 0687 a5bd 8b82 c73e
000000f0: aeda a23e 7189 4e3e 5cb4 7c3e f65b a23e
-0.02210623 -0.07920007 -0.054739967 -0.1551623 0.3199167 0.38958782 -0.098491795 0.2915116
0.19472502 0.24831198 0.1225634 0.17233524 -0.039173376 0.35096788 -0.038259882 -0.108542085
0.15768711 -0.06958719 -0.093523405 -0.014998326 -0.0967366 -0.07846123 0.3463912 0.36976528
0.27272442 -0.015329308 0.11536797 -0.18349941 -0.08435026 0.047939688 0.103476524 -0.08957967
0.38975072 0.05350525 0.33187628 0.027700435 -0.12935726 0.2600593 -0.11132925 0.013544433
0.28785676 0.2620194 -0.12929904 -0.040203243 0.073067866 -0.04594383 -0.09429295 -0.072826006
0.10101096 0.14333603 0.3858423 -0.11867486 0.3654904 -0.031633385 -0.13289832 -0.05622708
-0.0055323467 0.01387078 -0.08082394 0.38966784 0.31807464 0.20169617 0.24678177 0.31710786

momentum_buffer f4 [1, 1, 4]
00000000: f6a3 7f2f 187f 1630 d3c1 11b0 525c b42f
2.3250366e-10 5.4750293e-10 -5.3026133e-10 3.2807407e-10

momentum_buffer f4 [1, 1, 4]
00000000: 217c 0fae 89fe 86ae 7956 542e cdc0 84ad
-3.2624684e-11 -6.138829e-11 4.8280022e-11 -1.5092283e-11

momentum_buffer f4 [1, 1, 4]
00000000: 782f f2b1 401a d8af a3fc a2b0 12ff 3e31
-7.0485235e-09 -3.9308823e-10 -1.1858855e-09 2.779363e-09

momentum_buffer f4 [4]
00000000: afbd c7b4 04bf a6b3 172f 15b5 a21f 1a35
-3.7204651e-07 -7.764723e-08 -5.557535e-07 5.74155e-07

momentum_buffer f4 [4, 4]
00000000: 53a4 ee2f 360b a430 a8ff 68b3 edbb 66b1
00000010: 8a12 c32e 866c 8d2f db4a 4cb2 6412 7ab0
00000020: 3560 3130 7777 f630 32bb afb3 b371 b7b1
00000030: f7b3 37b0 1a4b feb0 c0f5 b433 7677 b831
4.3408707e-10 1.1935757e-09 -5.4249227e-08 -3.3576228e-09 8.8708665e-11 2.572486e-10 -1.1891383e-08 -9.0975605e-10
6.4528943e-10 1.793281e-09 -8.183123e-08 -5.338927e-09 -6.683076e-10 -1.8502277e-09 8.426605e-08 5.368686e-09

momentum_buffer f4 [4, 12]
00000000: 2050 b1b1 9f7c 74b0 aa5d b02f 85e7 b02f
00000010: d2d3 afae 3063 9a30 0000 0000 0000 0000
00000020: 0000 0000 0000 0000 0000 0000 0000 0000
00000030: 17a0 e4b0 879e 9daf 7467 e32e 2e19 e42e
00000040: b9b5 e2ad c010 c72f 0000 0000 0000 0000
00000050: 0000 0000 0000 0000 0000 0000 0000 0000
00000060: 874c 2bb2 c231 ecb0 4b62 2a30 75e7 2a30
00000070: 1edd 29af a626 1531 0000 0000 0000 0000
00000080: 0000 0000 0000 0000 0000 0000 0000 0000
00000090: d095 0fb2 40fb c5b0 78d1 0e30 1741 0f30
000000a0: d861 0eaf 7a0a fa30 0000 0000 0000 0000
000000b0: 0000 0000 0000 0000 0000 0000 0000 0000
-5.160487e-09 -8.894378e-10 3.2080766e-10 3.2178718e-10 -7.9957055e-11 1.1233166e-09 0.0 0.0
0.0 0.0 0.0 0.0 -1.6634684e-09 -2.8670774e-10 1.0341142e-10 1.03727124e-10
-2.5773926e-11 3.620979e-10 0.0 0.0 0.0 0.0 0.0 0.0
-9.97091e-09 -1.7185402e-09 6.198532e-10 6.217456e-10 -1.5449017e-10 2.1704323e-09 0.0 0.0
0.0 0.0 0.0 0.0 -8.357759e-09 -1.4405046e-09 5.195697e-10 5.2115595e-10
-1.2949586e-10 1.8192872e-09 0.0 0.0 0.0 0.0 0.0 0.0

momentum_buffer f4 [1, 1, 4]
00000000: 7150 322f f0f5 29ac c7cc 40af 513b d32c
1.6217584e-10 -2.4152867e-12 -1.753505e-10 6.003566e-12

momentum_buffer f4 [1, 1, 4]
00000000: 0e04 182f 986e 05ac 3b8f 24af 2458 ab2c
1.382576e-10 -1.8961829e-12 -1.4966599e-10 4.869898e-12

momentum_buffer f4 [1, 1, 4]
00000000: cbb4 192d 8883 ef30 a09e f330 7088 4630
8.737187e-12 1.7426922e-09 1.7725661e-09 7.222587e-10

momentum_buffer f4 [4]
00000000: 1efd 2f36 f7c4 8435 804e 9532 718c 4eb4
2.6224366e-06 9.892091e-07 1.738158e-08 -1.9236337e-07

momentum_buffer f4 [4, 4]
00000000: 1e5d 69af a8b4 c935 81f4 a3b0 f2ae abb1
00000010: 4e51 afae e81b 1835 6a49 f7af 1a80 01b1
00000020: f016 dfab 8097 2d32 5803 0dad 30b0 12ae
00000030: 3fee 872d 6c27 ecb3 02f6 bf2e 4212 c92f
-2.1224308e-10 1.5028245e-06 -1.1929303e-09 -4.996644e-09 -7.972521e-11 5.666502e-07 -4.4981202e-10 -1.8844788e-09
-1.5851469e-12 1.01043724e-08 -8.0156645e-12 -3.3353043e-11 1.5453526e-11 -1.0996777e-07 8.729374e-11 3.657466e-10

momentum_buffer f4 [4, 12]
00000000: acc5 34b1 1f66 00af 5d37 932f 7798 6730
00000010: 36c2 a82e a24f a830 0000 0000 0000 0000
00000020: 0000 0000 0000 0000 0000 0000 0000 0000
00000030: 348e cb30 d894 902e 3ac5 25af 6664 02b0
00000040: 2307 3eae 2086 3db0 0000 0000 0000 0000
00000050: 0000 0000 0000 0000 0000 0000 0000 0000
00000060: fb03 3831 deb3 022f 8cdb 95af 36c0 6bb0
00000070: 56c9 abae b654 abb0 0000 0000 0000 0000
00000080: 0000 0000 0000 0000 0000 0000 0000 0000
00000090: b5bc d6af 0686 98ad 60e0 2e2e 0a8e 092f
000000a0: 6877 482d 50ef 472f 0000 0000 0000 0000
000000b0: 0000 0000 0000 0000 0000 0000 0000 0000
-2.630581e-09 -1.1677813e-10 2.6778482e-10 8.4253976e-10 7.674254e-11 1.2246242e-09 0.0 0.0
0.0 0.0 0.0 0.0 1.481061e-09 6.574802e-11 -1.5076732e-10 -4.74364e-10
-4.3207337e-11 -6.89484e-10 0.0 0.0 0.0 0.0 0.0 0.0
2.6777787e-09 1.1887333e-10 -2.725894e-10 -8.576565e-10 -7.811944e-11 -1.2465964e-09 0.0 0.0
0.0 0.0 0.0 0.0 -3.9060458e-10 -1.7339918e-11 3.9762305e-11 1.251054e-10
1.1395197e-11 1.8183965e-10 0.0 0.0 0.0 0.0 0.0 0.0

momentum_buffer f4 [4, 4]
00000000: 7685 93b0 5106 01b1 6cfe 0b31 8a9e 79b0
00000010: 88bc 1034 f230 7d34 0a5b 89b4 8eee f433
00000020: 30d1 9cb0 af27 09b1 cfd0 1431 e5ac 84b0
00000030: 3230 00b0 0626 60b0 233d 7330 44c1 d8af
-1.073359e-09 -1.877556e-09 2.0371784e-09 -9.081097e-10 1.3479632e-07 2.3580267e-07 -2.5584478e-07 1.1405528e-07
-1.1409949e-09 -1.9958681e-09 2.1655528e-09 -9.653404e-10 -4.663462e-10 -8.154476e-10 8.8489766e-10 -3.9427495e-10

momentum_buffer f4 [4]
00000000: 743f 8b32 d899 08b6 ef05 9432 1f3b f231
1.6210585e-08 -2.0355128e-06 1.7232166e-08 7.0498483e-09

momentum_buffer f4 [4, 4]
00000000: 9838 f1b5 c4ae b8b1 b52d 0636 a077 83b3
00000010: 08b0 03b4 1230 c9af 0081 1234 4090 8fb1
00000020: a81c b7b5 1831 8cb1 07b6 cb35 4d98 47b3
00000030: 3841 99b5 b2b9 6ab1 ac7e aa35 180c 27b3
-1.797237e-06 -5.3749734e-09 1.999416e-06 -6.1219225e-08 -1.2264366e-07 -3.6595843e-10 1.364424e-07 -4.178247e-09
-1.3642903e-06 -4.0801176e-09 1.5177656e-06 -4.6471815e-08 -1.141837e-06 -3.4157037e-09 1.2702853e-06 -3.8893717e-08

momentum_buffer f4 [4]
00000000: 358d 7f36 e083 8b34 87fd 4136 dd5b 2236
3.8080154e-06 2.598672e-07 2.8906813e-06 2.4193353e-06

momentum_buffer f4 [1, 1, 4]
00000000: eac3 3332 4cd3 b8b1 f245 7ab1 529d 36b2
1.0463717e-08 -5.3791265e-09 -3.6419547e-09 -1.0629565e-08

momentum_buffer f4 [1, 1, 4]
00000000: 7267 0dae a61a 41b1 c6b3 a9b0 67e5 64b1
-3.2151566e-11 -2.8100344e-09 -1.2347463e-09 -3.3308767e-09

momentum_buffer f4 [1, 1, 4]
00000000: da00 c02f 6c6f 99b0 4e4d 66b0 bb90 6d31
3.4925202e-10 -1.1163883e-09 -8.378337e-10 3.4570309e-09

momentum_buffer f4 [4]
00000000: 8420 1234 1581 32b4 6291 83b2 e724 bdb3
1.3609139e-07 -1.6624502e-07 -1.531652e-08 -8.807711e-08

momentum_buffer f4 [4, 3]
00000000: aa04 9632 1202 5033 0e4d 9e33 71d2 08b3
00000010: 0ee2 54b3 fa34 c2b3 d4c4 b0b2 48bd 03b2
00000020: 63ff 9132 8f22 7eb1 63a4 22b3 5cf0 41b3
1.746442e-08 4.8430657e-08 7.3714645e-08 -3.1856363e-08 -4.9565692e-08 -9.043465e-08 -2.0578604e-08 -7.668241e-09
1.6996358e-08 -3.698151e-09 -3.7868073e-08 -4.515492e-08
