saved_models/tb_logs/version_11/checkpoints/epoch=49-step=1900.ckpt (torch, 249634 bytes, 100 tensors)

conv_layers.0.att_src f4 [1, 1, 4]
000000 b6 f8 10 3f 66 de 30 bf 30 30 9f be d0 5d 52 be
       0.566295 -0.69089353 -0.31091452 -0.20543599

conv_layers.0.att_dst f4 [1, 1, 4]
000000 55 f0 84 3e e9 56 1f 3f 79 8e d2 3e b9 c6 52 3f
       0.2596461 0.6224199 0.41124323 0.82334477

conv_layers.0.att_edge f4 [1, 1, 4]
000000 98 ed 85 bf bc d2 5d bf ba 07 4b 3f 21 d4 f5 3e
       -1.0463133 -0.8664968 0.79308665 0.48013404

conv_layers.0.bias f4 [4]
000000 a6 0d 8c bc fe 59 a5 3b 87 0d b7 3c bc 99 8a 3b
       -0.017096352 0.0050461283 0.022345318 0.0042297523

conv_layers.0.lin_src.weight f4 [4, 4]
000000 ee 4e 1b 3f 73 d3 95 bd 2d 18 17 bf 4c 6c 16 bf
       0.6066731 -0.07315721 -0.59021264 -0.58759
000010 1d 76 e7 be c6 9e d3 3e f5 98 e1 bd d5 fa 98 be
       -0.452073 0.41332072 -0.11015502 -0.2987887
000020 e7 af 23 3f 5f 14 b4 bd 32 a5 8f be ce 4f 63 3d
       0.6394028 -0.08792948 -0.28055722 0.05549603
000030 bb 4d c9 be b5 a9 01 bf 95 67 fd be a5 d9 41 3f
       -0.39317116 -0.5064958 -0.4949309 0.75722724

conv_layers.0.lin_dst.weight f4 [4, 4]
000000 ee 4e 1b 3f 73 d3 95 bd 2d 18 17 bf 4c 6c 16 bf
       0.6066731 -0.07315721 -0.59021264 -0.58759
000010 1d 76 e7 be c6 9e d3 3e f5 98 e1 bd d5 fa 98 be
       -0.452073 0.41332072 -0.11015502 -0.2987887
000020 e7 af 23 3f 5f 14 b4 bd 32 a5 8f be ce 4f 63 3d
       0.6394028 -0.08792948 -0.28055722 0.05549603
000030 bb 4d c9 be b5 a9 01 bf 95 67 fd be a5 d9 41 3f
       -0.39317116 -0.5064958 -0.4949309 0.75722724

conv_layers.0.lin_edge.weight f4 [4, 12]
000000 21 df f8 be 12 43 c0 3e 1e d9 a5 3e 74 04 6b bd
       -0.48607734 0.3755117 0.3239221 -0.057377294
000010 2e d5 0f be 05 58 00 bf c8 cc c1 3e 64 9c 6b bd
       -0.14046165 -0.5013431 0.37851548 -0.057522193
000020 92 fe 1f 3e db d0 03 bf 6c db 46 3e d2 bd e2 be
       0.15624455 -0.51490563 0.1941964 -0.44285446
000030 41 e5 84 3e c3 39 8e bd 10 54 0d bf 2a 31 8d be
       0.25956157 -0.06944611 -0.55206394 -0.27576572
000040 75 c4 a7 3e 79 e2 02 bf d3 da e7 3e 6b 38 e5 be
       0.32767072 -0.5112682 0.45284137 -0.44769606
000050 10 0a 0d 3f 23 94 c6 bd aa 49 11 3c 1f fa 8b 3d
       0.5509348 -0.096962236 0.008867661 0.06834816
000060 18 ff 8e 3e f9 27 8d 3e ad 82 f1 3e c2 c8 cc 3c
       0.27928996 0.2756956 0.4717001 0.024998073
000070 84 d1 d0 bd 43 c2 e6 be b6 68 21 3e 7c a2 b7 be
       -0.10196212 -0.45070085 0.157626 -0.35866153
000080 dd 13 72 3e 11 8b ac be f1 51 19 3f 86 0f 31 3e
       0.2364039 -0.3369985 0.5989066 0.17291078
000090 b9 02 f9 bd 9c c1 43 3e 18 ce 5a be cd c3 0a 3f
       -0.121587224 0.19116825 -0.21367681 0.5420502
0000a0 c5 ab c7 be 4d c0 fc be de 44 87 3e 7a 49 b0 bd
       -0.38998237 -0.49365464 0.2641973 -0.086077645
0000b0 88 f9 db be b4 21 06 bf 41 17 7c 3e 04 34 ca 3e
       -0.42963815 -0.52395177 0.24618246 0.3949281

conv_layers.1.att_src f4 [1, 1, 4]
000000 11 ac 51 bf 5b 85 85 be a0 d3 24 be 39 47 7c bf
       -0.8190318 -0.26078305 -0.16096354 -0.9854618

conv_layers.1.att_dst f4 [1, 1, 4]
000000 4f 3b cf be bf 07 c8 bd 3d 44 01 bf 89 dc 73 bf
       -0.40474936 -0.097671025 -0.5049475 -0.95258385

conv_layers.1.att_edge f4 [1, 1, 4]
000000 48 5b a4 3c bc dd 33 bf cb e0 36 be 06 c3 33 3f
       0.020063058 -0.70260215 -0.17859189 0.7021946

conv_layers.1.bias f4 [4]
000000 6a 3c b3 bc 3b 97 3c 3d 2c 99 05 3d db 0d 97 bd
       -0.021879394 0.046042662 0.03261678 -0.073756896

conv_layers.1.lin_src.weight f4 [4, 4]
000000 39 45 86 be 9d b5 81 3e 16 85 dc be cf 6c 1b bf
       -0.26224688 0.25333872 -0.43070287 -0.60712904
000010 d8 3e e6 be 89 25 20 bf 9d b7 d2 3e f3 e0 08 be
       -0.4496982 -0.62557274 0.4115571 -0.13367061
000020 fa db 7e 3e 30 28 0a 3f 03 d1 6e be 22 ac 5b 3f
       0.24888602 0.5396757 -0.23321919 0.8580953
000030 b1 f1 b7 be 4a de 4f 3f 8c a5 2c 3f 58 fc 1f bf
       -0.35926583 0.8119856 0.67440104 -0.6249442

conv_layers.1.lin_dst.weight f4 [4, 4]
000000 39 45 86 be 9d b5 81 3e 16 85 dc be cf 6c 1b bf
       -0.26224688 0.25333872 -0.43070287 -0.60712904
000010 d8 3e e6 be 89 25 20 bf 9d b7 d2 3e f3 e0 08 be
       -0.4496982 -0.62557274 0.4115571 -0.13367061
000020 fa db 7e 3e 30 28 0a 3f 03 d1 6e be 22 ac 5b 3f
       0.24888602 0.5396757 -0.23321919 0.8580953
000030 b1 f1 b7 be 4a de 4f 3f 8c a5 2c 3f 58 fc 1f bf
       -0.35926583 0.8119856 0.67440104 -0.6249442

conv_layers.1.lin_edge.weight f4 [4, 12]
000000 a7 18 cb 3e 60 1b f4 3e a3 1d 34 be 24 e8 57 3e
       0.39667246 0.47677135 -0.1758943 0.21084648
000010 48 b6 24 3e 8a 45 bf 3d 5e a4 c6 be 22 d2 4b 3e
       0.1608516 0.093394354 -0.38797277 0.19904378
000020 6d a6 e9 be e1 7d 6c 3e 19 43 fb 3e 58 86 b9 be
       -0.45634785 0.23094894 0.4907463 -0.3623531
000030 f6 ea a9 3c 0c 29 9a ba 8d 63 ab 3e b9 57 62 3e
       0.02074192 -0.00117615 0.3347439 0.22103776
000040 53 0e f8 3d c5 9c 9e 3e 80 4b a3 3e 94 3f bd 3e
       0.12112107 0.3097898 0.3189354 0.3696257
000050 3e 85 e3 be be d9 bd be 25 bf 0f bd 88 ae 13 3f
       -0.44437593 -0.37080187 -0.0350944 0.5768819
000060 ba c3 f0 bd 35 8f 8c be 16 e9 b2 3d 98 a7 98 be
       -0.11756082 -0.27453008 0.08735864 -0.29815364
000070 94 94 76 be 0c ce 4d bc 25 e6 d9 be 61 44 83 3e
       -0.24080116 -0.012561332 -0.425584 0.25638106
000080 6e e4 88 bd e0 8e 29 bd 09 2b 89 3e cc b5 72 be
       -0.066841945 -0.04139602 0.26790646 -0.23702163
000090 c3 07 f9 3e 8d c9 c7 be 91 79 d1 3e a9 3b 2c 3e
       0.48638734 -0.3902096 0.4091306 0.16819634
0000a0 30 c2 b3 bc 92 23 0a bf 62 15 26 be 86 71 83 bd
       -0.021943182 -0.53960526 -0.16219094 -0.06418137
0000b0 2f a7 8b be 31 10 0f 3f c3 7c 18 3f f9 ef 14 3f
       -0.27275988 0.5588408 0.5956537 0.5817867

transf_layers.0.weight f4 [4, 4]
000000 7d 1a f2 bd 69 6e 53 3e c5 9f c2 bc 21 fb 81 3d
       -0.118214585 0.20647587 -0.023757825 0.06346727
000010 09 6f 88 3e 8d fd 06 bd f5 e2 fb be 39 c2 97 3c
       0.26647213 -0.03295665 -0.49196592 0.01852523
000020 b3 d5 b7 3e b8 78 5d 3e f6 02 f2 3e 83 a9 93 3e
       0.35905227 0.21628082 0.47267884 0.28840265
000030 72 1e 3e be 24 17 d3 3d 19 ce a2 3c 6b 87 46 3e
       -0.18566301 0.10307148 0.019873666 0.19387595

transf_layers.0.bias f4 [4]
000000 43 41 ec be 79 68 39 3e 99 11 8a bd 32 31 06 3f
       -0.4614354 0.1810626 -0.06741638 0.52418816

transf_layers.1.weight f4 [4, 4]
000000 ca 96 3f bd 6f 59 51 be 14 38 d9 3d 73 66 02 3f
       -0.046774663 -0.20444272 0.10606399 0.50937575
000010 87 db 94 be fd 38 85 be 49 e8 bd bd bd 79 53 bd
       -0.29073736 -0.2602004 -0.092728205 -0.05162977
000020 cf 95 19 3e 7b f5 aa 3e 96 6c 4f 3e c5 2d dd bc
       0.14998554 0.33390412 0.20256266 -0.026999364
000030 97 26 9c 3e cf 01 7d be 2b c9 00 bf e4 ac 79 3e
       0.30498192 -0.24707721 -0.5030696 0.24382359

transf_layers.1.bias f4 [4]
000000 f2 7c 6a 3e 0e 25 bd be af 76 ef be 8d bf c5 3e
       0.22899225 -0.36942333 -0.46770236 0.38622704

bn_layers.0.weight f4 [4]
000000 00 00 80 3f 00 00 80 3f 00 00 80 3f 00 00 80 3f
       1.0 1.0 1.0 1.0

bn_layers.0.bias f4 [4]
000000 00 00 00 00 00 00 00 00 00 00 00 00 00 00 00 00
       0.0 0.0 0.0 0.0

bn_layers.0.running_mean f4 [4]
000000 00 00 00 00 00 00 00 00 00 00 00 00 00 00 00 00
       0.0 0.0 0.0 0.0

bn_layers.0.running_var f4 [4]
000000 00 00 80 3f 00 00 80 3f 00 00 80 3f 00 00 80 3f
       1.0 1.0 1.0 1.0

bn_layers.1.weight f4 [4]
000000 00 00 80 3f 00 00 80 3f 00 00 80 3f 00 00 80 3f
       1.0 1.0 1.0 1.0

bn_layers.1.bias f4 [4]
000000 00 00 00 00 00 00 00 00 00 00 00 00 00 00 00 00
       0.0 0.0 0.0 0.0

bn_layers.1.running_mean f4 [4]
000000 00 00 00 00 00 00 00 00 00 00 00 00 00 00 00 00
       0.0 0.0 0.0 0.0

bn_layers.1.running_var f4 [4]
000000 00 00 80 3f 00 00 80 3f 00 00 80 3f 00 00 80 3f
       1.0 1.0 1.0 1.0

conv1.att_src f4 [1, 1, 4]
000000 4b 23 75 bf cd 64 be bd a4 a0 37 be cc 37 62 bf
       -0.9575698 -0.0929657 -0.17932373 -0.8836639

conv1.att_dst f4 [1, 1, 4]
000000 70 45 21 3f f2 84 12 bf c1 95 f0 3d c2 73 15 3e
       0.6299658 -0.5723411 0.11747313 0.1459494

conv1.att_edge f4 [1, 1, 4]
000000 aa f2 1e bf 8f 0c 26 3c d2 bd 26 bf a9 ec d6 be
       -0.62089026 0.01013483 -0.6513339 -0.41977432

conv1.bias f4 [4]
000000 41 6e 7f 3b c4 cf da ba be b2 94 ba e5 df 2b bb
       0.0038975629 -0.0016693999 -0.0011344773 -0.002622598

conv1.lin_src.weight f4 [4, 3]
000000 38 c6 fb 3b cd 98 88 3e ba 72 f3 3e c9 b2 10 bf
       0.0076835416 0.26679078 0.47548467 -0.56522804
000010 a1 13 e0 3c 9e 20 a2 3e 81 eb ce be 94 63 d9 bb
       0.02735311 0.3166551 -0.4041405 -0.006634185
000020 0d 62 4f bf e5 17 9d 3d 61 55 67 be 44 af 6a bf
       -0.8100899 0.07670573 -0.22591163 -0.91673684

conv1.lin_dst.weight f4 [4, 3]
000000 38 c6 fb 3b cd 98 88 3e ba 72 f3 3e c9 b2 10 bf
       0.0076835416 0.26679078 0.47548467 -0.56522804
000010 a1 13 e0 3c 9e 20 a2 3e 81 eb ce be 94 63 d9 bb
       0.02735311 0.3166551 -0.4041405 -0.006634185
000020 0d 62 4f bf e5 17 9d 3d 61 55 67 be 44 af 6a bf
       -0.8100899 0.07670573 -0.22591163 -0.91673684

conv1.lin_edge.weight f4 [4, 12]
000000 66 db f2 3e 84 c7 3f 3e 83 37 1c 3f 00 c2 0f 3f
       0.47433013 0.18728453 0.61022204 0.56155396
000010 04 bb e3 be e8 36 07 be 14 95 69 be 55 fd ca be
       -0.4447862 -0.13204539 -0.22810775 -0.39646402
000020 e7 e8 af be 58 71 72 3e 52 72 3e be b1 4b ed bd
       -0.34357378 0.2367605 -0.18598297 -0.115867026
000030 5f df 28 3e 75 9b 8c be c2 a4 47 be 20 36 cd 3e
       0.1649146 -0.27462354 -0.19496444 0.40080357
000040 09 61 ae 3e b9 36 f5 3e df 78 82 be 7a 6b 83 bd
       0.34058407 0.47893313 -0.25482842 -0.06416984
000050 58 da e2 bc 74 86 07 bf ee 5a 1b 3f ca 07 27 be
       -0.027692005 -0.52939534 0.6068562 -0.16311565
000060 6f ae 9a 3e 00 6b 31 3e 4b e4 81 3e eb 06 df be
       0.30211207 0.17325974 0.25369486 -0.43559965
000070 99 ce d1 be fb 12 d2 3e d2 a4 0d bf 84 76 c5 be
       -0.40977934 0.41030106 -0.5532962 -0.38566983
000080 33 78 f8 bc 99 56 cc be 70 46 9e be 6b 12 f1 be
       -0.030330753 -0.3990982 -0.30913115 -0.47084364
000090 2a d3 19 3f 57 e9 52 3e 7c 6a 40 be 73 1e 31 be
       0.60087836 0.20596825 -0.1879062 -0.17296772
0000a0 de 1e 93 be 58 f6 f7 bd f7 cb eb be b3 d5 16 3e
       -0.28734487 -0.12107533 -0.4605405 0.14729957
0000b0 71 c4 9c 38 6c 23 1a 3f 68 2d 15 3f 08 2b e3 3e
       7.47525e-05 0.602103 0.5827241 0.44368768

transf1.weight f4 [4, 4]
000000 56 60 98 be 7b 4c cc be c7 09 81 be f6 07 d4 be
       -0.29760998 -0.399021 -0.25202772 -0.41412324
000010 2f 83 f8 bc 7b 3f cb bb c2 f3 fc 3d c8 e4 ce 3e
       -0.03033599 -0.006202636 0.123511806 0.4040892
000020 cd e4 c7 bd 42 da 47 3c 54 4b 92 bd a2 bd fb 3e
       -0.09760437 0.012198033 -0.07143274 0.49168116
000030 be 64 cf 3e 99 75 70 be 00 47 20 be 5c 93 bf be
       0.40506548 -0.2348236 -0.15652084 -0.37417114

transf1.bias f4 [4]
000000 17 48 90 be 10 be a6 be f8 8e 98 3d e5 b3 d8 3e
       -0.2818 -0.3256688 0.07449144 0.4232475

bn1.weight f4 [4]
000000 00 00 80 3f 00 00 80 3f 00 00 80 3f 00 00 80 3f
       1.0 1.0 1.0 1.0

bn1.bias f4 [4]
000000 00 00 00 00 00 00 00 00 00 00 00 00 00 00 00 00
       0.0 0.0 0.0 0.0

bn1.running_mean f4 [4]
000000 00 00 00 00 00 00 00 00 00 00 00 00 00 00 00 00
       0.0 0.0 0.0 0.0

bn1.running_var f4 [4]
000000 00 00 80 3f 00 00 80 3f 00 00 80 3f 00 00 80 3f
       1.0 1.0 1.0 1.0

pool1.select.weight f4 [1, 4]
000000 4c a4 8c 3e 98 90 d3 3e 70 ca a3 bd 2c 23 a8 3e
       0.274691 0.41321254 -0.07997596 0.32839334

conv_fin.att_src f4 [1, 1, 8]
000000 7c 6d ed 3e 3e 2a 18 3d 27 ee f4 3e e1 17 3c 3f
       0.46372592 0.03714966 0.47837946 0.73473936
000010 dd 4d 4b bf f1 8a 21 bf 12 80 1a 3f b2 c9 2a 3f
       -0.79415685 -0.6310263 0.6035167 0.6671401

conv_fin.att_dst f4 [1, 1, 8]
000000 e0 c5 30 bf a6 bc 0e 3f 02 10 a9 bd 07 d2 05 3e
       -0.69051933 0.55756605 -0.082550064 0.130684
000010 fe 38 23 bf 11 66 b7 be a5 32 de bc bd 0f 30 3e
       -0.6375884 -0.35820058 -0.027123759 0.17193504

conv_fin.att_edge f4 [1, 1, 8]
000000 e6 f5 48 3f 43 d3 0c bf 52 78 24 bf b7 bb 20 3f
       0.7850021 -0.5500986 -0.64246094 0.6278643
000010 d8 81 19 bf 32 c3 dc be 29 cd e3 3e 67 ec 1d 3f
       -0.5996375 -0.43117672 0.44492462 0.61688846

conv_fin.bias f4 [8]
000000 5a 16 89 bd 86 0d ee 3c 16 07 15 bd 44 c1 59 bd
       -0.06693716 0.029059183 -0.03638371 -0.053162828
000010 60 7e 77 bb 59 02 5d 3d 13 ee 91 bb 06 61 f9 bb
       -0.0037764534 0.053957317 -0.0044534295 -0.007610443

conv_fin.lin_src.weight f4 [8, 4]
000000 55 57 ce 3e c2 8c cb be 04 b2 41 3e ca 8b 0f 3e
       0.40301004 -0.39755827 0.18915564 0.14018169
000010 dd ee 9b be ae 28 0c bf 13 e4 b5 bc 8b 75 56 3e
       -0.30455676 -0.5474957 -0.02220348 0.20943277
000020 01 dc 07 3c c2 db 71 be b7 7e 0a 3f fb c6 22 3f
       0.008292199 -0.23618987 0.540996 0.6358487
000030 e5 6c 8a 3e e3 80 5e be 6a 36 4d 3e 5e 4e 24 3f
       0.27036205 -0.21728854 0.20040289 0.6418208
000040 58 83 59 be 16 87 2b 3f d6 b1 06 bf 48 7b a5 3d
       -0.2124151 0.67003 -0.52615106 0.08080155
000050 6b c3 29 bf 7f 4d 54 be 32 86 25 bf 65 a0 fe bd
       -0.6631381 -0.20732687 -0.6465789 -0.124329366
000060 29 7b 6a 3d e4 72 a8 bd 37 82 a1 be d2 3a 9a be
       0.05724636 -0.08225039 -0.3154466 -0.30123
000070 63 eb 33 3e 5b ee 40 bd 88 f5 df bc 3c 51 6f 3e
       0.17570262 -0.047102313 -0.027338758 0.23370832

conv_fin.lin_dst.weight f4 [8, 4]
000000 55 57 ce 3e c2 8c cb be 04 b2 41 3e ca 8b 0f 3e
       0.40301004 -0.39755827 0.18915564 0.14018169
000010 dd ee 9b be ae 28 0c bf 13 e4 b5 bc 8b 75 56 3e
       -0.30455676 -0.5474957 -0.02220348 0.20943277
000020 01 dc 07 3c c2 db 71 be b7 7e 0a 3f fb c6 22 3f
       0.008292199 -0.23618987 0.540996 0.6358487
000030 e5 6c 8a 3e e3 80 5e be 6a 36 4d 3e 5e 4e 24 3f
       0.27036205 -0.21728854 0.20040289 0.6418208
000040 58 83 59 be 16 87 2b 3f d6 b1 06 bf 48 7b a5 3d
       -0.2124151 0.67003 -0.52615106 0.08080155
000050 6b c3 29 bf 7f 4d 54 be 32 86 25 bf 65 a0 fe bd
       -0.6631381 -0.20732687 -0.6465789 -0.124329366
000060 29 7b 6a 3d e4 72 a8 bd 37 82 a1 be d2 3a 9a be
       0.05724636 -0.08225039 -0.3154466 -0.30123
000070 63 eb 33 3e 5b ee 40 bd 88 f5 df bc 3c 51 6f 3e
       0.17570262 -0.047102313 -0.027338758 0.23370832

conv_fin.lin_edge.weight f4 [8, 12]
000000 6b af d8 be e2 c3 21 3d e4 f6 7b 3e 57 88 08 3f
       -0.42321333 0.03949345 0.246059 0.5333304
000010 88 de 95 be 3e 5d ee 3e d9 4d 89 be 4a e1 b8 3e
       -0.2927134 0.46555513 -0.26817206 0.36109382
000020 67 63 ac be 0d ac 06 3f 1b ee 6d bd 46 3a 9c 3e
       -0.33669588 0.5260628 -0.058088403 0.3051321
000030 59 a0 da 3d 6b 22 9a 3e 64 7b f4 3e 9a 8b 24 be
       0.10675115 0.30104384 0.4775039 -0.16068879
000040 3f 88 2b be ea 9a be bd 09 09 e4 3e 8a 92 23 3e
       -0.16751193 -0.09306891 0.44538143 0.15973869
000050 2d 38 02 3d 41 82 65 be 34 a1 de 3e d3 46 8b be
       0.031791855 -0.22412969 0.43482363 -0.27202472
000060 3e a7 cf 3e 7a 59 a3 be f5 d3 18 be f7 4e 6d 3e
       0.40557283 -0.31904203 -0.14924605 0.23174654
000070 14 fe 4a be 11 54 1f 3e f3 d7 af bc 43 cc 76 be
       -0.19823486 0.15559413 -0.021465277 -0.24101357
000080 7b cd ae 3d 06 bb c5 3e 2b 1d 71 be ff 82 10 be
       0.08535286 0.3861925 -0.23546283 -0.14112471
000090 fc fc 85 be d3 2c 80 be 4e f9 ba bd 50 47 ad be
       -0.26169574 -0.25034198 -0.09129582 -0.3384347
0000a0 a1 95 4a 3e 37 3b 59 3e b7 6e a9 3e 80 48 8f bd
       0.19783641 0.21213995 0.3309228 -0.0699625
0000b0 0a 34 62 3d 11 18 03 bf d8 92 5c 3e 81 f9 80 be
       0.05522541 -0.512086 0.21540391 -0.25190356
0000c0 44 12 42 3e b9 56 13 be ff 9a a8 3e 3f 3e 79 3e
       0.1895228 -0.14388551 0.32930753 0.24340151
0000d0 fb bf 09 3f 5c ed fa be a0 3f 07 bf 00 45 8c 3e
       0.53808564 -0.49009216 -0.5283146 0.27396393
0000e0 c3 1b eb be 0b 8b 29 be 94 81 e6 bd ae 89 cb 3e
       -0.45919618 -0.16556947 -0.11255184 0.3975348
0000f0 4d 79 cc 3e f1 04 a8 3e d5 73 93 3a a1 46 53 3e
       0.39936295 0.3281627 0.0011249731 0.20632412
000100 33 0b e5 3e 00 f1 f0 3d d9 1f c8 3d 5f ff 8f bc
       0.44735107 0.11764717 0.097716995 -0.017577825
000110 a6 28 f7 be 80 ad ec be 2d 49 e1 be d8 b5 93 be
       -0.482732 -0.4622612 -0.4400114 -0.28849673
000120 b0 eb 92 3d 63 31 29 3e 57 02 82 3e cf 2a e9 3e
       0.0717386 0.16522746 0.2539241 0.45540473
000130 4f a6 cb be 10 ac 8b be 65 af e3 be 53 8c b6 be
       -0.3977532 -0.2727971 -0.44469753 -0.35653934
000140 20 7d 79 3e 00 2f 7c 3e 17 f0 80 3c de 52 14 3d
       0.24364138 0.24627304 0.015739484 0.03621184
000150 73 bc e4 3e 64 0b f0 3e ed d6 95 be d6 b1 03 bf
       0.44675025 0.4688369 -0.29265538 -0.5144323
000160 d4 32 4a be fb 68 27 be f7 bd e6 be a9 8d 77 3e
       -0.19745952 -0.1634864 -0.45066807 0.24175133
000170 44 2d d8 be f3 6b a2 be 6e 4e cd be c8 9e ac be
       -0.42222035 -0.31722984 -0.400989 -0.3371489

transf_fin.weight f4 [8, 8]
000000 1e f5 a3 3d 17 ca b9 bd 35 54 82 bd e5 6c 4e be
       0.08005737 -0.09071749 -0.063637175 -0.20158727
000010 f9 29 8d 3e 6e 89 91 3e ba 47 aa 3e 67 0c a9 be
       0.27571085 0.28425163 0.33257848 -0.33017275
000020 6e 43 86 be 09 a6 68 3d 9c 71 73 3c 6d 59 f3 3d
       -0.2622332 0.05679897 0.01485863 0.11882291
000030 6f 7c 62 be 08 50 3d 3d d1 02 0f bd 2d c9 67 3e
       -0.2211778 0.046218902 -0.034914795 0.22635336
000040 04 1e f3 bd 35 91 a9 be 5e 3b 4c 3d 87 c2 01 3d
       -0.118709594 -0.33118597 0.049861304 0.031679656
000050 82 85 55 3d 6d b9 25 3e 8b 58 8a be 3d 00 a2 3e
       0.052129276 0.16184016 -0.27020678 0.31640807
000060 d9 07 99 3d 40 bf 58 3e 8d 76 28 bd 0e 61 9f bc
       0.074722 0.21166706 -0.041128684 -0.019455459
000070 3b 43 81 ba 5b d2 0b be a8 c0 6d 3e 1e cb 53 be
       -0.0009861955 -0.13654463 0.23218024 -0.20682952
000080 e1 d4 eb 3d 45 e3 62 3d c5 53 b0 3d b9 6b aa be
       0.11515213 0.055392522 0.08609728 -0.3328531
000090 75 7a 35 bd 6c 21 a9 3e 00 f4 80 3e e2 4b 2e 3e
       -0.044306237 0.3303331 0.25186157 0.17021134
0000a0 16 41 ac 3e 93 7a 7a 3e 28 43 a2 3e df cd 83 be
       0.33643407 0.24460821 0.3169186 -0.25743005
0000b0 3b da a9 3e 00 27 a6 be 3b a9 2f be f8 2e 83 3e
       0.3317431 -0.3245163 -0.171544 0.25621772
0000c0 a0 61 8e bc 3e 94 96 be e8 82 b1 3e 39 c7 e5 3d
       -0.017380536 -0.29409975 0.34670186 0.11219639
0000d0 fb e2 e5 bc 30 b4 44 3e de ba 1d bd 53 cd 11 3e
       -0.028062334 0.19209361 -0.03850829 0.14238481
0000e0 03 f0 8d 3e 21 d5 5e 3c c3 a5 ac 3b 37 3c 3a be
       0.27722177 0.013600619 0.005268784 -0.18187033
0000f0 59 d3 89 3e 2d 54 7a bd dd ef 45 bc 7e e2 73 be
       0.26919058 -0.061115433 -0.012081114 -0.23816869

transf_fin.bias f4 [8]
000000 c5 aa d0 bc da 29 bc 3e 53 ef 33 3e 24 ae c0 3e
       -0.025472054 0.3675068 0.17571764 0.3763286
000010 fc 33 0b be 63 0d a4 be 67 82 93 be 8c 91 83 3e
       -0.13594049 -0.32041463 -0.28810427 0.2569698

bn_fin.weight f4 [8]
000000 00 00 80 3f 00 00 80 3f 00 00 80 3f 00 00 80 3f
       1.0 1.0 1.0 1.0
000010 00 00 80 3f 00 00 80 3f 00 00 80 3f 00 00 80 3f
       1.0 1.0 1.0 1.0

bn_fin.bias f4 [8]
000000 00 00 00 00 00 00 00 00 00 00 00 00 00 00 00 00
       0.0 0.0 0.0 0.0
000010 00 00 00 00 00 00 00 00 00 00 00 00 00 00 00 00
       0.0 0.0 0.0 0.0

bn_fin.running_mean f4 [8]
000000 00 00 00 00 00 00 00 00 00 00 00 00 00 00 00 00
       0.0 0.0 0.0 0.0
000010 00 00 00 00 00 00 00 00 00 00 00 00 00 00 00 00
       0.0 0.0 0.0 0.0

bn_fin.running_var f4 [8]
000000 00 00 80 3f 00 00 80 3f 00 00 80 3f 00 00 80 3f
       1.0 1.0 1.0 1.0
000010 00 00 80 3f 00 00 80 3f 00 00 80 3f 00 00 80 3f
       1.0 1.0 1.0 1.0

pool_fin.select.weight f4 [1, 8]
000000 5e b6 88 be 17 90 5a be 98 13 a5 be 29 dd 96 3e
       -0.26701635 -0.21344028 -0.3224151 0.29465607
000010 74 e1 af be 3d 44 ad 3e 69 b9 9b 3e 63 79 07 be
       -0.34351695 0.33841124 0.30414894 -0.13229899

linear0.weight f4 [128, 10]
000000 34 fc fd 3d 30 2a f8 3c 61 25 89 be e0 62 54 3e
       0.124016196 0.030293554 -0.2678633 0.20740843
000010 88 29 83 3e ff 3e 3b be 8e ec 5d 3d f2 25 71 be
       0.25617623 -0.1828575 0.054180674 -0.23549631
000020 39 c8 17 be 25 93 ee bd fb a0 73 bd 8f 1c 2b be
       -0.14822473 -0.11649159 -0.059479695 -0.16710113
000030 bb ea 90 3b 75 d4 89 be 9e cb ef bd 54 bf a8 bc
       0.0044225133 -0.26919904 -0.11708759 -0.020599045
000040 28 d2 41 be f1 90 54 3e 6e 89 80 3d d7 18 91 3e
       -0.18927824 0.20758416 0.06276213 0.28339264
000050 29 52 80 3d ac d8 8a be 7d aa d6 bc 17 12 c7 3d
       0.06265671 -0.27118433 -0.026204342 0.09720247
000060 d8 d4 08 bd 96 d1 aa 3d 3f 5c df 3d 68 a1 1a be
       -0.03340611 0.083407566 0.109062664 -0.15100634
000070 51 d0 05 3d b0 8d 55 be 68 f8 0e be 63 e6 90 be
       0.03266937 -0.2085483 -0.13961947 -0.2830077
000080 15 dd eb 3d e6 dc 5c 3e f3 bf 3f 3d ad 0d 97 3e
       0.115167774 0.21568641 0.046813916 0.2950262
000090 5a 4a 43 3d d9 a2 79 3e e8 29 5a be 01 b0 05 bf
       0.04767833 0.24378528 -0.21305048 -0.52221686
0000a0 b5 b8 1f be 1d e6 c5 3d de 6b 85 be f2 e1 01 bd
       -0.15597804 0.09663031 -0.2605886 -0.03170962
0000b0 f3 c8 5a be 18 37 55 3e 66 ba 96 be ee a5 20 bd
       -0.21365719 0.20821798 -0.29439086 -0.039220743
0000c0 ff 3c 95 bd 46 f3 1b 3e 81 00 4b be 81 f4 3c 3d
       -0.07287025 0.1522952 -0.19824411 0.046131615
0000d0 2a 04 c0 3d ff cd 23 3e 2c cc 22 3e 53 6c 91 3e
       0.09375794 0.1599655 0.15898198 0.28402957
0000e0 26 5a 98 be 0d 74 be be e6 8e 11 be 89 21 8c 3e
       -0.29756278 -0.37197915 -0.14214668 0.27369335
0000f0 50 ca 14 3e de f9 33 3d f0 17 59 bd d6 17 1d 3e
       0.14530301 0.043939464 -0.053001344 0.15341124
000100 8e 5b 9d be e6 b2 e3 bd 9f 72 94 3e 54 86 c0 3d
       -0.30733913 -0.111181065 0.289937 0.09400621
000110 ad 59 92 be 7c 56 99 be 12 b9 27 be 10 ca d9 3d
       -0.28584042 -0.29948795 -0.16379192 0.106342435
000120 dd d7 f0 bb ff 23 96 be d7 08 5f be f7 80 1b 3e
       -0.0073499517 -0.29324338 -0.21780716 0.15185915
000130 01 74 00 bd 5d 86 ea 3d 00 2a e9 3d 83 ad 15 3e
       -0.03136063 0.11451409 0.11384964 0.1461697
000140 3f a8 d2 bd da a0 21 be fa c5 19 be 70 f2 8b 3e
       -0.10285997 -0.15784016 -0.15016928 0.27333403
000150 2c e4 b0 bd 76 71 6d be 02 aa bc bd 24 e6 e8 3d
       -0.0863727 -0.23187813 -0.09212114 0.11372021
000160 9a a7 46 bd cf 42 c2 3e b9 aa 4c 3e aa a1 1d 3e
       -0.04849968 0.37941596 0.19987 0.15393701
000170 06 1f a9 3d 82 0f 24 bd 2a be 67 be 75 2d 9a be
       0.082578704 -0.040053852 -0.22631136 -0.30112806
000180 58 e8 8c 3e e3 42 71 be e4 05 4c 3e ab a7 74 3e
       0.27521014 -0.23560672 0.19924122 0.23892085
000190 c1 fa ff 3d 1e f5 4d be 16 ba 2f be 0b 5f a0 be
       0.124989994 -0.20113036 -0.1716083 -0.31322512
0001a0 9b c0 88 3e 7a 10 36 bb 49 54 9a 3e 77 cc 36 3e
       0.26709446 -0.0027780817 0.3014243 0.17851435
0001b0 d2 aa a1 be 4a ed b0 3c 1f b7 55 3d 2a 57 c1 bd
       -0.31575638 0.021597523 0.05217659 -0.09440453
0001c0 ba 27 9b be 56 eb ba bc bf 26 79 be 67 7e 66 bd
       -0.30303746 -0.022817295 -0.24331187 -0.05627289
0001d0 ea 79 bf bc 25 6d 14 3e 33 03 c1 bc 87 10 4f be
       -0.023373563 0.1449476 -0.023561096 -0.20221148
0001e0 1f 22 2f 3e 82 86 a6 bc da 9f 7a 3e 74 67 63 3d
       0.1710286 -0.02032781 0.24475041 0.055518582
0001f0 5d 17 04 bd 2c 61 40 be 62 7d 17 be 72 ab 89 3e
       -0.032248843 -0.18787068 -0.14793923 0.26888615
000200 a4 d8 a4 bd 6f 64 ce be 55 49 f9 3d ed 4d 07 bd
       -0.080491334 -0.40311 0.1217219 -0.0330333
000210 df fc 30 bd f9 9f 8f 3d 26 a2 71 3e 14 29 3a 3d
       -0.043209907 0.07012934 0.23597011 0.04544933
000220 2f 5e 81 be a5 6d 9d 3e 65 f3 84 be 93 8a d8 bc
       -0.2526717 0.30747715 -0.25966945 -0.026433265
000230 5d a9 cc bd 79 d7 fb 3b 68 f2 1a bd 0c ac 67 be
       -0.09993241 0.0076855985 -0.037828833 -0.22624224
000240 f1 df 87 be e8 9f f4 3c e4 18 4d bd 94 0a 54 3d
       -0.2653804 0.029861405 -0.050072566 0.0517679
000250 3d 79 20 3e 53 94 fd bd 8b 1a 67 3d 5a 73 cf 3d
       0.15671249 -0.12381806 0.056421798 0.101294234
000260 73 f0 3b 3e 39 a7 91 be 46 40 ae bd aa f3 4f be
       0.18353443 -0.28447893 -0.08508353 -0.20307794
000270 86 cc f9 3d 5c f2 8d bc a6 18 8f be 4a 9d 8d 3e
       0.12197213 -0.01732748 -0.27948493 0.27659065
000280 93 67 0d be 87 74 18 3e 2e 84 5e bd f7 69 5c 3e
       -0.13809042 0.14888202 -0.054325275 0.21524797
000290 21 eb d2 bd 76 82 83 bd a7 96 90 be dd 1a cd 3d
       -0.102987535 -0.06421368 -0.2823994 0.100148894
0002a0 18 e8 a1 3d 71 a1 98 be 21 0d a6 bd ce d4 df 3d
       0.079055965 -0.2981067 -0.08107973 0.10929261
0002b0 2e 0e 91 3e 3d e9 9b be 8c 02 44 be 94 bf 92 be
       0.2833113 -0.30451384 -0.19141597 -0.28661788
0002c0 30 42 90 3c 6e c9 19 be 11 f1 8f be 3b 7b d7 bd
       0.017609686 -0.15018246 -0.28113607 -0.10521551
0002d0 d7 fd 76 3e 32 b6 5c be 1a bb 50 3e c3 a8 62 3e
       0.2412027 -0.21553877 0.20383874 0.2213469
0002e0 37 6a 97 bb 7d 7b 8f be 39 6c f2 bd a3 59 84 3e
       -0.004620816 -0.28023902 -0.11837048 0.25849637
0002f0 b4 1a 66 be a5 77 aa be 03 55 63 be ee 51 81 be
       -0.22471124 -0.33294407 -0.22200398 -0.2525782
000300 2f ea a1 3d 66 23 4f bd 07 38 2a be 75 3a 12 3e
       0.07905995 -0.050570868 -0.16622935 0.14280112
000310 ff 84 8f be a7 47 51 be b9 b0 ea bb 5c d7 01 3f
       -0.28031155 -0.2043749 -0.0071621803 0.5071924
000320 3a cf 38 be e6 bb 6b be 33 b1 37 bd 93 d4 46 3e
       -0.180478 -0.23020896 -0.044846725 0.19417028
000330 39 2d e9 bc 81 8d 74 3d 13 62 83 bb 6e bd 00 3e
       -0.028463947 0.05970526 -0.004009494 0.12572262
000340 4e 09 87 3b 1b dc cf bd 74 03 9c 3d 62 27 3e bd
       0.0041209823 -0.10149404 0.07617846 -0.046424277
000350 07 18 2b be 12 6f ac bd f4 ad 93 be 9d 7e 79 be
       -0.16708384 -0.084196225 -0.28843653 -0.24364705
000360 5e 36 9a 3e bd 3d 41 3d 0b 40 ac bd 32 91 96 be
       0.30119604 0.04717802 -0.08410653 -0.2940765
000370 13 e7 9b 3d fb 7a 71 3c 58 06 62 bd 89 41 61 3e
       0.07612433 0.0147387935 -0.05518183 0.21997656
000380 c9 b8 e6 bd 67 15 99 3e 16 30 21 be 5d c6 21 be
       -0.11265714 0.2989914 -0.15741 -0.15798326
000390 eb c4 9a 3e 7b e2 ea be a5 7d e2 3c ce 51 a8 bd
       0.3022836 -0.45875916 0.027647803 -0.08218728
0003a0 b4 81 33 3e f9 f2 99 be 98 ce 98 be 0a 11 ad 3c
       0.17529947 -0.30068186 -0.2984512 0.021126289
0003b0 64 0d 77 bd 13 23 06 be b1 67 64 be 0a 29 a7 3d
       -0.060315505 -0.13099317 -0.2230518 0.081621245
0003c0 17 ea 93 3e bd 6a 6c be e3 a6 42 3d e4 1d 4e 3b
       0.28889534 -0.23087592 0.047522437 0.0031450922
0003d0 ce 1e 49 be 41 07 80 3e ce 29 22 3d 9a 62 60 3e
       -0.19640657 0.25005534 0.03959065 0.21912614
0003e0 fe 9a 2e bd df 35 b1 3e 21 53 8b be ce d7 a5 3d
       -0.04262828 0.34611413 -0.2721186 0.08097802
0003f0 58 56 a5 bd de 9f 95 3c 4f 39 0d be 94 77 fa bd
       -0.080731094 0.018264707 -0.13791393 -0.12229839

linear0.bias f4 [128]
000000 f4 90 2a be 57 e4 89 3e 36 0d 7e be a9 d0 69 3e
       -0.16656858 0.26932022 -0.24809727 0.22833504
000010 5c bf 62 3e e7 43 f9 3d 01 fa 3b bd a2 db 91 be
       0.2214331 0.121711545 -0.04589272 -0.2848788
000020 72 eb c3 be ab 64 80 3d f9 69 6b 3c 65 e2 9c 3e
       -0.38265568 0.06269201 0.014368528 0.30641475
000030 5f d0 99 3e bb c8 f2 bd 96 bf 20 3e 94 38 00 3d
       0.30041787 -0.118546925 0.15698084 0.031303957
000040 f1 26 8e be 8a 3c ee bd 6f a0 d0 3e 38 ba 30 bc
       -0.27764085 -0.11632641 0.407474 -0.0107865855
000050 48 54 e8 3d 47 83 7d bd d5 69 b3 3d ef 71 52 3e
       0.113442004 -0.061892774 0.0876042 0.20551275
000060 79 43 e2 3d 2f bd 07 be f4 9d 75 3d df 85 89 be
       0.11048026 -0.13255762 0.05996509 -0.26859948
000070 20 c5 40 bc 3e 75 cb 3d 4a b7 a0 3e d8 14 80 3e
       -0.011765748 0.099344715 0.31389838 0.25015903
000080 61 9c 06 be 50 3f 7c be 5c be 20 3e fe ec d0 3d
       -0.13145591 -0.24633527 0.15697616 0.10201453
000090 61 c5 c0 bd eb e6 fd 3d 61 12 dd bd d8 9c 50 be
       -0.09412647 0.1239756 -0.10794521 -0.20372331
0000a0 2f 9e 8b bd a9 20 f8 bd 3e 4c 8b be 52 33 e3 3c
       -0.068172805 -0.121156044 -0.27206606 0.027734432
0000b0 46 29 6e 3e 79 59 dd bd 15 45 8c 3d 39 80 15 3d
       0.23257932 -0.10808081 0.06849114 0.036499236
0000c0 41 f3 e0 bd 34 12 5b 3e e5 7a a8 3d 7c 2d 02 3e
       -0.10983897 0.21393663 0.08226565 0.12712663
0000d0 c0 64 12 3d 6d b3 6d be b0 8c 58 3d 92 32 20 be
       0.035740614 -0.23212977 0.052868545 -0.15644291
0000e0 d1 25 30 3e 77 ac b9 be 2f 20 e2 bd 9e 10 5e 3e
       0.17201926 -0.36264393 -0.11041295 0.21686026
0000f0 57 7d 70 be 51 4b 7b 3e f8 08 19 be 20 69 b9 bd
       -0.23485313 0.2454045 -0.14944828 -0.09053254
000100 f3 c3 fb 3b ad a9 70 3e 6f f2 cf 3d 4a 63 47 3e
       0.007683271 0.23502226 0.101536624 0.1947147
000110 1c ef 68 be 81 1b e4 bd ae d2 80 3d 83 75 4a be
       -0.22747463 -0.111380585 0.06290184 -0.1977139
000120 b4 3a b7 be ce 61 80 be 3d 34 d2 be ce 84 af be
       -0.35786974 -0.2507462 -0.4105548 -0.3428101
000130 0d fc 16 be ac 48 93 3e b8 25 42 3e c9 dd a8 bd
       -0.14744587 0.28766382 0.18959701 -0.08245427
000140 87 be 20 3e 26 81 69 be ab 0a 96 3e 21 35 29 3e
       0.1569768 -0.22803172 0.29305014 0.16524173
000150 55 18 ce bd ad e1 78 3e 63 43 21 be 09 20 9f 3e
       -0.10063235 0.24304838 -0.15748362 0.31079128
000160 a6 85 7b 3e a6 79 15 3e 45 6a 95 be ab ed 6e be
       0.24562702 0.14597186 -0.2918264 -0.2333285
000170 0f 4b 3e 3e a8 a4 86 3e a3 5a 72 be ae 7c c5 bd
       0.1858332 0.26297498 -0.23667388 -0.096429214
000180 4e 10 89 be 4f 70 91 3e 49 de e2 3d 77 e3 f2 bd
       -0.26770252 0.28405997 0.11077554 -0.11859792
000190 cd 16 be 3e 03 ac 10 bd 29 d3 48 3d f5 15 37 be
       0.3712677 -0.035320293 0.049029503 -0.1787947
0001a0 3b bf 71 be 5f 86 42 bd 4e 2d 46 be 84 d6 11 3e
       -0.23608105 -0.047491428 -0.1935322 0.14241987
0001b0 de 29 8c 3c c6 59 9e be 0c ac 95 be 9a 17 1f be
       0.017109808 -0.30927867 -0.29232824 -0.15536347
0001c0 ed fd ad 3e a2 21 53 3e 0a ae dd bc 20 47 a0 be
       0.33982792 0.20618299 -0.027060527 -0.31304264
0001d0 d7 ef 94 3d b5 13 90 be 09 7d 42 be ed 13 ab 3d
       0.07272308 -0.28140035 -0.1899301 0.0835341
0001e0 94 9c d0 3e a0 79 b1 3d fe fd 41 be ea d9 c3 3d
       0.4074446 0.08665776 -0.18944547 0.09563048
0001f0 bf 32 ff 3d a3 65 42 3e 8e 05 89 be 74 ec 8c be
       0.12460851 0.18984084 -0.2676205 -0.2752415

linear2.weight f4 [128, 128]
000000 e5 97 90 3d 22 fd 8d bc 45 4f 9e bc ba ef 96 3d
       0.070602216 -0.017332617 -0.019324908 0.07369943
000010 a6 9c 36 3d e1 d4 02 bd c7 25 a1 bc f6 8e 12 3d
       0.044582985 -0.0319413 -0.019671334 0.03578087
000020 0d 75 2e bd a8 2e 80 3c f1 39 0d 3d 7d 42 34 3d
       -0.042592097 0.015647247 0.034479085 0.04400872
000030 24 f8 ad 3c 51 15 17 3d 4c 22 a2 3b e5 32 9a bd
       0.021236487 0.036885563 0.004947936 -0.075292386
000040 c0 54 64 3d 01 c9 93 bd 3e 91 06 3c 65 a6 ae bd
       0.055744886 -0.07216073 0.008213339 -0.08527831
000050 55 c0 fa bc 82 3a b0 3c 2a 8f aa 3d 00 2a 7c 3d
       -0.03060929 0.021512274 0.08328088 0.06156349
000060 64 d6 cd bc 72 10 20 3d c8 e9 59 3d 7f e4 d0 bc
       -0.025126643 0.039078183 0.053201467 -0.02549958
000070 25 3f 2e 3d d6 e0 a3 3c ee 52 1c 3d ae fd 4d bd
       0.042540688 0.020004671 0.038165025 -0.050290756
000080 7e 1c 91 3c 8e 4a 79 bc 62 84 8a 3d 8b d1 0a bd
       0.017713781 -0.015215529 0.06763531 -0.033891242
000090 a3 03 7b 3d f6 2b a9 bd 3e 88 28 bd 88 d6 c6 bb
       0.061282765 -0.08260338 -0.041145556 -0.0060680546
0000a0 d1 b6 b7 3b 91 24 16 bd 91 46 5e 3d 3f b1 0d bd
       0.00560651 -0.036655966 0.054266516 -0.034592863
0000b0 1d 24 6e bd 20 09 82 bd ee b5 43 bd 91 1e 08 3c
       -0.05813991 -0.06349397 -0.047780924 0.008308069
0000c0 d2 1e ef 3a 28 cc 6c bd 56 0f 7e bd f1 32 c0 bd
       0.0018243438 -0.057811886 -0.062026344 -0.09384716
0000d0 ad f6 a7 bd 91 45 40 bc d2 90 90 bc 7d 76 ad 3d
       -0.082013465 -0.011735336 -0.01764718 0.084698655
0000e0 2d 73 a5 bd 79 d3 ad bd 1e c5 1a 3c 46 19 db bc
       -0.08078609 -0.08487601 0.00944641 -0.02674545
0000f0 39 18 31 bd 59 d6 d4 3c ef be 86 3d eb 99 69 bd
       -0.04323599 0.025981115 0.065793864 -0.057031553
000100 76 11 09 bd 27 86 21 3d c3 e9 ac 3d 9c c6 0a 3d
       -0.033463918 0.03943458 0.08443024 0.033880815
000110 29 76 97 3d 1c b9 0a bd 5e 40 c6 bc 39 fd 53 3d
       0.07395584 -0.03386794 -0.024200615 0.051755164
000120 d5 73 14 3d 66 b1 f9 3c 30 01 53 bc 59 7d 89 bc
       0.03624328 0.030480098 -0.012878701 -0.016783403
000130 b9 00 2b 3d ef eb b5 bd 5b 31 13 3d 84 35 9b 3b
       0.041748736 -0.088828914 0.03593574 0.004736604
000140 92 2c 57 3d 44 d2 91 3c c9 89 81 3d 3a aa 5a 3d
       0.05253274 0.017800458 0.063251086 0.053384997
000150 28 f7 4b bb 83 21 64 bd 37 3b b1 bd 39 65 9f bd
       -0.0031122658 -0.05569602 -0.086538725 -0.077829786
000160 70 ec 3e bc 5f f4 ac 3d bb f4 26 bd 71 a9 d4 3c
       -0.011653051 0.084450476 -0.040760737 0.025959702
000170 78 05 22 3d 9b 9f b5 3d 94 c0 49 bd 98 e4 aa bd
       0.039555997 0.08868333 -0.049255922 -0.08344382
000180 5e 15 83 3d 70 41 0a bd 0c 5a 45 bb 75 e1 9d 3d
       0.0640056 -0.033753812 -0.0030113487 0.07709018
000190 eb 05 a0 3d c8 45 71 bc e0 d0 8e 3d 74 11 a5 bc
       0.07813629 -0.01472611 0.069734335 -0.020149924
0001a0 2c 48 8f 3d 61 5a 00 3d 67 5f a7 3d 9b e9 82 bd
       0.069961876 0.031336192 0.081724934 -0.06392213
0001b0 47 7a 33 bc 29 ae 94 bd ec b1 a7 bc d4 0a 96 bd
       -0.010954446 -0.07259781 -0.020470582 -0.07326284
0001c0 f5 f5 97 3c 76 70 84 bd 2f 65 ad 3d 9a ad 65 bc
       0.018549899 -0.06466763 0.08466565 -0.014018441
0001d0 13 a0 3a bc c0 8b 19 3d 24 4e c9 bb 25 d3 4b bd
       -0.011390704 0.03748679 -0.0061433483 -0.04976191
0001e0 db bc aa 3c f7 fb d2 3c c6 13 5e 3d f8 09 af bd
       0.020842006 0.025754912 0.054218076 -0.08546823
0001f0 85 fb 92 3d e9 1e 6a 3d 6b d0 95 3d 07 7d 6b bd
       0.0717688 0.057158384 0.07315143 -0.057492282
000200 44 8f 83 bd 54 79 77 3c 24 05 a5 3c 8a c6 64 3d
       -0.0642381 0.0151046105 0.020144053 0.055853404
000210 df 92 98 3c ec 35 4b bd ab ca 08 3d 09 21 27 3a
       0.018624721 -0.04961197 0.033396404 0.0006375467
000220 8e b5 a3 3c 8b bd ef bc 2b 08 7b 3b cb f9 ef bc
       0.019984033 -0.029265186 0.003830443 -0.029293915
000230 69 c8 a3 3d 6e 4c 60 3d 57 d8 cc 3b 57 b0 40 bd
       0.079972096 0.05476039 0.0062513757 -0.04704317
000240 3a 69 83 bd 65 de 8a 3d 6e 6a ad bd 80 08 85 3d
       -0.06416555 0.067807 -0.084675655 0.06495762
000250 c0 5e 0b 3d 88 cc a3 3d b2 fe 39 bb 5c 71 47 3d
       0.034025908 0.079979956 -0.002838057 0.048692092
000260 d7 a7 ae bd 8e 31 ac bd d5 19 45 bd 47 da d5 bc
       -0.08528107 -0.08407889 -0.04812034 -0.02610506
000270 83 99 87 3d fa ab 4b bd eb 08 45 bc 6e 4c 8c 3d
       0.06621077 -0.049724557 -0.012026052 0.06850515
000280 22 ec ae bd 8c 94 c8 3c f0 49 15 3c ed 3d e0 bc
       -0.085411325 0.024484895 0.009111866 -0.027373279
000290 06 80 f6 bc 7c c3 a6 bd 0f bd 33 3d 95 55 90 bd
       -0.030090343 -0.081427544 0.043881472 -0.070475735
0002a0 3d ab 35 3d 01 f5 88 bc f3 5b ad 3d aa 82 52 3d
       0.04435276 -0.01671839 0.084648035 0.051394142
0002b0 94 0e 5d bc 81 10 fd bc 92 a9 5a bd e4 de 38 3d
       -0.013492245 -0.030891659 -0.05338437 0.04513444
0002c0 e9 8d 01 3c 57 0b 01 3d d5 ea 78 ba ac 01 8c 3d
       0.007907369 0.031504955 -0.0009495442 0.068362564
0002d0 c6 97 20 3c 8d 74 99 3d 00 fb f5 3c fc 4a bb 3c
       0.009801811 0.074929334 0.030026913 0.022862904
0002e0 ab 73 55 bd 3a 9f 09 bd 26 31 41 3d 35 e5 ef 3c
       -0.052112263 -0.033599116 0.047166012 0.0292841
0002f0 93 4b 63 3d 55 86 42 bb 32 3b ab ba b7 e7 39 bd
       0.055491995 -0.002968212 -0.0013063906 -0.045386996
000300 59 15 7a 3c cb 1c 21 bc 66 95 18 bd 0c ac 05 bc
       0.015263879 -0.009833525 -0.037251852 -0.008158695
000310 07 ca ae 3d a6 a7 68 bd 1f bc 6e bd 36 9c 34 bd
       0.085346274 -0.056800507 -0.058284875 -0.044094287
000320 4e 13 91 3d 6c e1 5c bd 75 66 07 3c bd 1d ab bc
       0.0708376 -0.053925917 0.008264174 -0.020888204
000330 50 05 80 bd 25 a7 83 3d 56 fd 11 bd d4 10 82 bb
       -0.06251013 0.06428365 -0.03564199 -0.003969291
000340 58 c8 5f bc d0 09 40 3d 79 5b 1f ba 39 72 e2 bc
       -0.0136586055 0.046884358 -0.0006078999 -0.027642356
000350 47 f1 ce bc 75 35 3e 3d 82 83 9b bd 36 ff 41 bd
       -0.025261534 0.0464377 -0.075934425 -0.04736253
000360 db 57 a6 bd 67 e5 9b 3b 96 17 44 bd 19 97 23 bd
       -0.08122226 0.0047575715 -0.047874056 -0.03993902
000370 b8 36 aa 3b 1e 18 a2 3c 5c 63 96 3d d0 7a 64 bd
       0.0051945113 0.01978689 0.0734317 -0.055781186
000380 6d 6b 6b bb 9d ee 94 bd 10 03 9b 3d 11 1c 1b 3c
       -0.0035922185 -0.07272074 0.075689435 0.009467141
000390 27 ee 06 3d 3b 53 b4 bd 7c 51 9a bd 3c 87 ab 3d
       0.032941964 -0.088049375 -0.07535073 0.08375403
0003a0 11 a3 b5 3c 35 08 aa 3d 8f 79 a1 bd 99 8d dc 3b
       0.022172483 0.083023466 -0.078845136 0.006730747
0003b0 97 5d 88 3d db eb 9d bd 4d 8b 5a bd 65 2e 90 bd
       0.06658476 -0.077110015 -0.053355504 -0.07040099
0003c0 2a cc 81 bc 3b f6 ba 3b 5f 84 87 bc 2b 5e 08 3d
       -0.015844423 0.0057056225 -0.016542612 0.03329293
0003d0 3e 76 da 3c 2b b1 57 3d 93 ee d8 3c 21 e2 45 bd
       0.02666771 0.052659195 0.026480949 -0.048311356
0003e0 b0 8e 14 3b c0 71 74 3d a5 ac e1 3c df 4e 7d 3d
       0.0022668056 0.059678793 0.027548144 0.061842795
0003f0 69 42 59 bd e9 a3 eb 3c 6c fe 2a 3d 37 05 7d bd
       -0.05304185 0.028764682 0.04174654 -0.06177255

linear2.bias f4 [128]
000000 76 31 c6 3d 3e f9 ad bd 7e 81 00 bd 60 7c 55 3d
       0.09677403 -0.08494805 -0.031373493 0.052120566
000010 af ec 04 3e d3 db 0c bc 4e 39 e5 bd 37 dc 94 3d
       0.12980913 -0.008597332 -0.111925706 0.07268565
000020 db b1 5f 3c 3e 81 2c bb 3c 72 a9 bc 92 59 7c bd
       0.013653244 -0.0026322152 -0.020684354 -0.06160886
000030 0b a0 03 3d 10 9c 3d be 41 d6 c2 bc 02 2d 6e 3d
       0.03213505 -0.18516564 -0.023783805 0.05814839
000040 a4 34 3c bd 65 39 6c bd 05 8d c4 bd f0 d1 19 3d
       -0.04594864 -0.057671923 -0.0959721 0.037553728
000050 56 24 02 3d a8 55 c9 3d 71 92 0b 3c db 13 8c 3d
       0.031772934 0.09830791 0.008518801 0.06839725
000060 a2 01 41 3d 07 d3 5a 3c f8 fe a0 bc 89 a3 1d 3d
       0.047120698 0.013355977 -0.019652829 0.038486037
000070 be c4 86 3d f1 7a a5 bc 56 3f 3b 3d 4a 1b a7 bc
       0.06580494 -0.020200225 0.0457147 -0.020398755
000080 a8 20 1d 3d db a6 48 bd 52 f7 9b 3d fc 1f 88 bd
       0.03836122 -0.04898725 0.07615532 -0.066467255
000090 f2 3a 8b 3c 8b ed 15 3d d7 a9 12 bd 80 42 dd 3b
       0.01699588 0.03660349 -0.035806503 0.006752312
0000a0 8d 82 6d 3d f5 de 78 bb 37 63 05 3d 04 dd 3e 3c
       0.05798583 -0.003797469 0.03256532 0.011649374
0000b0 30 da 46 bc e1 d9 54 3d 91 a4 38 3d 75 89 21 3d
       -0.012136981 0.051965598 0.045078818 0.03943773
0000c0 19 ef 30 be 02 e7 85 3d 80 94 a1 3d 14 54 2f 3d
       -0.17278709 0.06538202 0.07889652 0.042804793
0000d0 0c 81 a1 3c a9 9c 6b bd a5 2c e5 bc 2a 54 cc 3d
       0.019714855 -0.05752245 -0.02797539 0.099769905
0000e0 78 ce 8e bd cd 45 61 bd 94 c2 5a bd 0a e8 ae 3b
       -0.069729745 -0.054998208 -0.05340822 0.00533772
0000f0 b0 ec a0 3d 22 50 e2 3c 8c d7 07 3c e5 33 c3 3c
       0.078576446 0.0276261 0.0082911365 0.023828456
000100 b7 5e f3 bb 1f aa 84 3c d5 b5 ad 3d d5 e5 db bd
       -0.0074270624 0.016194401 0.08481947 -0.10737196
000110 40 1d b0 bd 02 b6 9d 3c 61 e2 2b 3c 85 79 7e bd
       -0.08599329 0.019251827 0.010490985 -0.06212761
000120 3a 37 85 3d 08 79 28 3d f8 20 51 bd 7f da ac bd
       0.06504674 0.04113105 -0.051056832 -0.08440112
000130 ac e6 48 3d 70 e0 db bc ef 54 53 3d 4f 00 14 be
       0.04904811 -0.026840419 0.05159467 -0.14453243
000140 b1 16 56 3c 04 9f ae bd 05 35 a7 bd 95 6f 87 3c
       0.0130669335 -0.085264236 -0.081644095 0.016532699
000150 69 43 bd 3c ab e4 b6 3c cf 75 97 3d ae 84 d2 bc
       0.023103433 0.022325834 0.07395517 -0.025698032
000160 d1 64 46 be 90 76 b6 3d 4f 8e 7d 3d 47 0c af 3d
       -0.19374396 0.08909333 0.061903294 0.085472636
000170 e1 7f 7f bb 96 b7 ed bb 00 e2 a5 3d 5d 43 9d 3d
       -0.0038986134 -0.007254551 0.08099747 0.07678864
000180 86 fc 81 3d 83 33 65 bd 33 fe a6 bd 52 71 1c 3b
       0.06346993 -0.05595733 -0.081539534 0.0023871255
000190 53 27 d2 3d 6f e9 bd bd 79 d9 1e 3b 7c 72 a3 3d
       0.10261407 -0.092730395 0.002423851 0.079808205
0001a0 7c a1 5f 3d f1 75 8f bd e8 e8 d5 bd b0 0c d5 3d
       0.054597363 -0.070049174 -0.10444814 0.104028106
0001b0 3d 76 9b 3d 02 45 95 3c 7a 23 14 3d 01 c3 90 bd
       0.075909115 0.018221382 0.036166646 -0.07068444
0001c0 b1 15 83 bd 86 ca 19 3d 05 90 ff 3c d5 8f 90 3d
       -0.06400622 0.037546657 0.031196604 0.07058684
0001d0 11 3e d7 bd 2d 1f fc 3c 5d f3 21 bd 4c 34 81 3d
       -0.10509885 0.030776585 -0.03953873 0.06308803
0001e0 f9 b4 24 bd 61 bf b1 bd 39 d4 c0 3d 07 0a 07 3d
       -0.04021165 -0.08679081 0.09415478 0.032968547
0001f0 16 e9 a5 bb da 57 34 bd 86 3f 7f 3d d0 62 1e bd
       -0.0050631864 -0.044029094 0.06231644 -0.038668454

linear3.weight f4 [64, 128]
000000 07 98 a0 3d 1e 95 a6 bd 1e 84 27 bd cd f7 80 3d
       0.07841497 -0.081339106 -0.04089748 0.06297264
000010 a0 8f 2c bd 83 94 20 bb 8f 5c 4d 3d 95 d2 c8 ba
       -0.04212916 -0.0024502582 0.0501371 -0.0015321547
000020 5f 1e ba 3d f2 3e 2c 3e ad fb 84 bd b4 7f 47 bd
       0.09087824 0.16820887 -0.06493316 -0.04870577
000030 e6 a4 06 bd e8 d7 c5 3d 7d 9c 84 3d 35 29 22 bc
       -0.032872103 0.096603215 0.0647516 -0.00989752
000040 e3 d6 5f bc cb 4c ef 3c 15 d2 c2 3d 94 a7 41 3c
       -0.013662073 0.029211422 0.09512726 0.011819739
000050 14 cf 18 bd b2 49 d0 3d 7c 25 63 3c 29 aa 7b 3d
       -0.03730686 0.10170306 0.013863917 0.061441574
000060 8a fc 8d bd 19 ed a9 bd f6 ce 8a bd e8 5b 66 bc
       -0.06932934 -0.08297176 -0.06777756 -0.014059998
000070 40 50 86 3c ca ab a2 3b 62 c9 53 bc 72 57 b2 3c
       0.016395688 0.0049643265 -0.012926431 0.021770213
000080 6b 11 85 bd f6 52 1d bd 6d a1 09 bd 78 46 5d bd
       -0.06497463 -0.038409196 -0.033601213 -0.054022282
000090 22 10 03 bd 17 d1 42 bb 35 10 0f 3d c2 19 c8 bc
       -0.031997807 -0.0029726678 0.034927566 -0.024426345
0000a0 1e bc cf 3c 51 03 65 3c b4 26 85 bd 56 b2 6a 3b
       0.025358256 0.0139778415 -0.06501523 0.0035811863
0000b0 b4 0f 6b bd f5 94 bc 3d 22 87 86 bd b5 5f a9 bd
       -0.057388023 0.09208099 -0.06568743 -0.08270208
0000c0 07 c4 4a 3d 2a 9d fe bb 60 1a 26 bd 8c b3 90 3d
       0.049503352 -0.0077702003 -0.040552497 0.07065496
0000d0 a5 1b 75 3d b7 a8 aa 3d 3a e1 af bd bf 89 83 3c
       0.059840817 0.08332961 -0.085878804 0.016056893
0000e0 16 8f 67 bd 8c 73 26 3c 4f 14 89 3d 84 88 37 3d
       -0.05653294 0.010159384 0.06693327 0.044807926
0000f0 c7 81 8a 3c 49 81 b7 bc 7b 10 b3 3d 91 c9 d6 3c
       0.016907586 -0.022400515 0.08743378 0.026219161
000100 b4 bc 1a bb ab 05 81 bd f5 1a 0d 3e 98 93 ca 3d
       -0.002361101 -0.06299909 0.13779815 0.098914325
000110 0d 42 18 3d 4d 5a bc 3c 62 7f 54 3d ab fa a5 bd
       0.037172366 0.022992278 0.051879294 -0.08104452
000120 9f 68 23 bd 32 49 1d bd bf 80 e6 3b 18 fe 8b bd
       -0.039894696 -0.038399883 0.0070343907 -0.06835574
000130 9d d0 96 bc da e3 5d bd b3 ac 4c bd 09 a3 2f bc
       -0.018410021 -0.054172374 -0.049969386 -0.010720023
000140 61 5a 45 3d 1e 54 f4 3d 6a a1 4c 3d 9f bd 30 bc
       0.048181895 0.119301066 0.049958624 -0.010787397
000150 0b 7f c1 3c cc 59 07 3d 35 d4 b8 bc f9 d6 53 3d
       0.02362015 0.03304462 -0.022562126 0.051718686
000160 10 6b 9a bc 5d 9f 16 3c a4 24 a5 bc de 45 f5 3d
       -0.01884988 0.009193269 -0.020159073 0.11976217
000170 75 4e 6c bd 8e 97 2c bd 29 79 0a bd 72 8b 50 3c
       -0.05769201 -0.04213672 -0.033806954 0.012728559
000180 51 0f 14 3d c0 d0 56 3d ba 02 cb bc 90 95 3a 3d
       0.03614742 0.052445173 -0.024781574 0.04555279
000190 90 1c 2f 3d 65 d5 86 bc 13 a5 a1 bd 73 ec 83 bd
       0.04275185 -0.016459176 -0.078928135 -0.064415835
0001a0 9c 88 64 bd 8c 8f b4 3b 18 ec 74 3d a3 25 6a 3d
       -0.055794343 0.005510276 0.05979547 0.0571648
0001b0 3e cb 55 3d 85 c4 49 3d f1 36 6c bd 8d 17 50 bd
       0.05219578 0.04925968 -0.057669584 -0.05080371
0001c0 e8 18 70 3d ef cf 25 3d 57 8c 8a 3c e3 5b b9 bb
       0.058617502 0.040481504 0.016912622 -0.0056567057
0001d0 56 a3 83 3d 2c cb 05 bd 69 a5 dc 3d 86 aa 07 3e
       0.06427638 -0.032664463 0.10773737 0.13248643
0001e0 8e 83 da ba 29 f6 26 bd 18 dc 46 bd 92 28 9c bc
       -0.0016671286 -0.0407621 -0.04854974 -0.019062314
0001f0 ec 6d f0 bc a9 9a f4 3c 42 a1 88 bd 34 20 39 3d
       -0.02934929 0.029858904 -0.066713825 0.045196727
000200 1e f8 10 bd 52 c7 69 bd ce 1e a7 bd a8 a3 2a 3d
       -0.035392873 -0.057074852 -0.081601724 0.04165998
000210 7b 0d 35 bd 27 91 03 3b 4b a7 87 3d d4 69 39 3d
       -0.04420231 0.0020075531 0.066237055 0.04526694
000220 06 79 b3 3d 92 29 0f 3d 86 99 6f 3d 43 dd 99 3d
       0.08763318 0.034951754 0.05849602 0.075129054
000230 3d 21 7f 3c 38 07 32 bd 5f af 38 bd bd 8b 63 bd
       0.0155718895 -0.043463916 -0.045089122 -0.055553187
000240 f3 49 55 bd 96 33 88 3d 2b 63 bd 3d f6 e0 b9 3c
       -0.052072477 0.06650464 0.092474304 0.022690278
000250 91 36 81 bd f2 81 52 3d 89 89 8e bb 77 00 72 bc
       -0.06309236 0.051393457 -0.0043498916 -0.014770619
000260 ac d4 07 bd e8 f4 69 3d 2c c5 a7 bd b2 b7 57 3c
       -0.033161804 0.057118326 -0.081919044 0.013166355
000270 e7 5a 77 bd 74 1a 0b 3c 6f fd 73 38 59 09 66 bd
       -0.060389426 0.008490194 5.8171743e-05 -0.05616126
000280 7d b7 ad 3d 97 c9 06 3d e0 02 9b 3d 6a 49 55 3b
       0.08482263 0.032907095 0.07568908 0.003254498
000290 f2 4a a7 3d ce 69 c1 3d c7 d9 f2 3c e8 e9 0c 3d
       0.081685916 0.09444009 0.02964486 0.034402758
0002a0 0c 72 01 bd cd cc 6e 3c 3d d9 a3 3d ee 5c 99 3d
       -0.031602904 0.0145751955 0.08000419 0.07488428
0002b0 34 5c b1 bd 52 39 44 bd 1b ad 52 bd 41 70 97 bd
       -0.086601645 -0.047906227 -0.051434617 -0.073944576
0002c0 0d 88 67 bc 66 9d 92 3d a8 c7 81 bd 8b 2c 9f bd
       -0.014131558 0.071589276 -0.063369095 -0.07772168
0002d0 33 a8 46 3d 67 c0 ab 3c 91 bf 16 bd 3f 0e 6e 3b
       0.04850025 0.020965768 -0.036803786 0.003632441
0002e0 30 48 c1 bc 4c 6c c0 3c 23 8e d9 bc 12 e3 28 3d
       -0.023593992 0.02348914 -0.026557034 0.041232176
0002f0 99 54 f4 bb 59 2f 92 3d 43 6d d8 ba 0a 71 a2 3d
       -0.007456374 0.07137937 -0.0016512055 0.07931717
000300 d8 34 78 bd 5c ae 6d bd 22 70 03 bd 3c 25 57 3c
       -0.06059727 -0.05802761 -0.03208936 0.013131436
000310 94 2a 8c 3d 85 c2 ab 3d 09 90 10 b8 e7 2c 5b bd
       0.06844059 0.08386711 -3.446642e-05 -0.05350962
000320 ee b7 b3 3d 07 86 6c 3d a5 07 2f bd 81 32 78 bd
       0.08775316 0.057745006 -0.0427319 -0.06059504
000330 08 67 88 3d 30 79 64 3d c8 d9 64 3d 17 a1 c8 3d
       0.06660277 0.055779636 0.055871755 0.097963504
000340 d3 e2 94 3c ac 64 c8 bc 62 21 59 ba 6b ff 46 3d
       0.018174564 -0.024462067 -0.00082828675 0.04858343
000350 81 c6 05 3d a9 a1 86 bd c3 88 a5 bd df 5e 8b 3c
       0.03266001 -0.06573803 -0.08082726 0.017013012
000360 8a 7c d0 3d fe 48 c2 3d da 2c dc bc 0e b4 7e bd
       0.10180004 0.094865784 -0.026876856 -0.062183432
000370 01 7d a0 3c ac 2a 8a bd f0 c8 a5 bd f3 37 4b 3d
       0.019590857 -0.0674642 -0.080949664 0.049613904
000380 ef 37 b3 bc 68 f3 7c 3d b8 c5 e9 3c a0 cc bd 3d
       -0.021877257 0.061755568 0.028536662 0.09267545
000390 a5 db 87 3b 87 c3 30 bd 30 40 72 3d d5 a2 9d bd
       0.0041460567 -0.04315522 0.059143245 -0.07697073
0003a0 0a 7f ea bc 8f cb 3b 3d 03 0b 1c 3d ad 6f 64 3d
       -0.02862503 0.045848425 0.03809644 0.055770565
0003b0 c8 4b 9c bd af ff cf 3c 78 9a 77 bb b8 f0 f2 bc
       -0.076316416 0.025390474 -0.003778128 -0.0296558
0003c0 bf 8c 54 bc d4 aa ba bb 0b 3a 94 bc b5 52 7a bd
       -0.01297301 -0.005696634 -0.018094083 -0.06111403
0003d0 61 03 fb bc a9 3f 96 bd 22 9d c6 3d dc 3f a1 bd
       -0.03064126 -0.07336361 0.096979395 -0.07873508
0003e0 97 ee a8 3d 59 3f 03 3d e8 d5 85 bc 2a ca 00 3d
       0.082486324 0.032042835 -0.01633735 0.0314428
0003f0 6e 1f 3d 3d 2d 7c dc bc dc 08 43 3d 7c 6d d4 3c
       0.04617255 -0.02691468 0.04761587 0.025931112

linear3.bias f4 [64]
000000 a5 d0 99 3c 93 3e 8e 3d 75 01 d5 3d c9 14 06 3c
       0.018776247 0.06945529 0.104006685 0.0081836665
000010 eb a6 6d bc d7 06 14 3c df 92 f9 bc aa 9c 04 3d
       -0.014505128 0.009034834 -0.030465541 0.03237597
000020 27 35 15 3d 96 53 64 bd c6 20 18 3d 9d 2b 71 bd
       0.036427643 -0.055743776 0.03714063 -0.058879483
000030 59 5d 2f 3d e8 17 b1 bd e2 f3 c4 bc 04 98 b9 bd
       0.042813633 -0.08647138 -0.024042074 -0.09062198
000040 8e ad 90 bd 43 ac 9b bd 85 ca 1b 3d 0b 29 b7 bd
       -0.07064353 -0.07601216 0.038034935 -0.08943375
000050 da 64 e8 3c f0 cd 9a bd 29 84 1c 3c 22 04 a7 3d
       0.028368402 -0.07558811 0.009552994 0.08155085
000060 a8 44 31 bb 90 c8 0e bd 46 bc 18 3d 40 09 6a 3d
       -0.002704898 -0.03485924 0.037288927 0.057137728
000070 62 95 76 3c 2f 3d 06 be b7 b9 a6 bd ed 5d cc bc
       0.015050264 -0.13109277 -0.08140891 -0.024947131
000080 fc ee 6d 3c b4 ea a7 bd a9 dd a1 bc 49 86 53 bc
       0.01452231 -0.08199063 -0.019759016 -0.012910434
000090 e8 67 12 3d ef c0 cd 3d 39 55 85 bc 88 92 a6 bd
       0.035743624 0.10046565 -0.016275989 -0.08133417
0000a0 8c 9e 96 ba 08 00 47 3d 1f 6e 81 bd 8e 40 ac 3c
       -0.0011491342 0.048584014 -0.06319832 0.021026876
0000b0 b5 0b df 3c 8c c7 81 3c 22 f1 63 bd d1 ba 35 3d
       0.027227262 0.015842222 -0.055649884 0.044367615
0000c0 a9 ae 82 3d 74 53 24 bd 48 68 27 3c bd c4 2b bc
       0.0638097 -0.04011865 0.010217734 -0.010483918
0000d0 de 66 98 3c 93 58 d8 ba 24 33 51 3d 67 43 1b bd
       0.018603738 -0.0016505889 0.051074162 -0.037906077
0000e0 8d 02 24 3c d7 30 43 3d 8d 28 16 bd f1 27 58 bd
       0.010010374 0.047654 -0.036659766 -0.052772466
0000f0 21 44 74 bd 2c 6f 6d bd 4d f1 51 bc f1 1c a1 bd
       -0.059635285 -0.05796735 -0.012813878 -0.07866848

linear5.weight f4 [1, 64]
000000 bc 1c 88 3e 0c 9e e4 3d 22 5b 1b be 64 4d 0e 3e
       0.26584423 0.111629575 -0.15171483 0.1389671
000010 2c b3 b5 bd 7a fb 4e 3e 31 e3 21 3e a1 f8 9c 3d
       -0.08872065 0.20213118 0.15809323 0.0766461
000020 1a dc 47 3e 3c 80 bb 3b 15 f2 a0 3e a2 62 b4 3e
       0.19517556 0.005722074 0.31434694 0.352315
000030 c7 7a 51 3e fd 1c d2 bc 29 56 25 3e a7 5e 9a bd
       0.20456992 -0.025648588 0.16146149 -0.07537585
000040 65 7e 5e bb 1e f8 d2 bd 7c 8f 72 3e 88 e9 98 bd
       -0.0033949849 -0.10301231 0.23687547 -0.074664176
000050 65 82 c6 3e 51 c0 dc 3d d2 c7 b7 3c 0c 9b c1 bd
       0.38771358 0.10778869 0.022434149 -0.09453401
000060 49 1d e0 3d da 99 4c 3e 9f 1a 29 3e c0 90 2e 3e
       0.10943086 0.19980565 0.16514061 0.17047405
000070 78 fc 81 3e 36 79 a8 3e dc 90 80 bd db 70 7c 3e
       0.2538793 0.32904977 -0.0627763 0.24652426
000080 59 1d 86 3d 16 b9 45 3e 9c b5 98 3d 5e 01 1d bd
       0.06548566 0.19308886 0.07456514 -0.038331382
000090 db 63 14 3e cf 07 14 be 35 3c 82 3e 26 c2 a7 3c
       0.14491217 -0.14456104 0.2543656 0.02047832
0000a0 5d 30 d1 3d 07 63 c2 bc ae 56 dc bc f2 3b 6b 3e
       0.10214303 -0.02372886 -0.0268968 0.22972086
0000b0 8f 68 21 3d bb 21 f2 3d c1 fb 0c bd 70 70 ff 3d
       0.039406355 0.1182284 -0.03441978 0.124726176
0000c0 1e 07 02 be 0c aa 82 bd 84 6b 14 3e 93 be af 3e
       -0.12698027 -0.0638009 0.14494139 0.34325084
0000d0 b8 0f a9 3e f5 12 b4 3e 69 fa 7d bb 64 b1 8d 3d
       0.33019805 0.35170713 -0.0038753992 0.069186
0000e0 0e 36 a6 3e b1 1c de 3d 0f b3 87 bd 26 65 d0 bd
       0.32463115 0.10845316 -0.066259496 -0.101755425
0000f0 ce 34 4e 3d 8e ec bb 3b 50 af 02 bc 70 bb a7 bc
       0.050343327 0.0057349866 -0.007976368 -0.02047512

momentum_buffer f4 [1, 1, 4]
000000 40 9f 37 35 c4 cc 15 35 94 51 8d b4 a0 6a 8e b5
       6.840455e-07 5.58048e-07 -2.6322653e-07 -1.0610856e-06

momentum_buffer f4 [1, 1, 4]
000000 20 05 fe 33 ec 45 15 33 6e 34 a5 32 a0 58 c0 b3
       1.1828729e-07 3.475536e-08 1.923237e-08 -8.9568175e-08
