saved_models/tb_logs/version_14/checkpoints/epoch=49-step=100.ckpt (torch, 249570 bytes, 100 tensors)

conv_layers.0.att_src f4 [1, 1, 4]
0	0xbedaf394	-0.4276396
1	0xbf02fbfa	-0.51165736
2	0xbf50f27a	-0.8161999
3	0x3dce07ce	0.100600824

conv_layers.0.att_dst f4 [1, 1, 4]
0	0xbf1a2695	-0.6021512
1	0xbf7693f9	-0.9631954
2	0x3ecde3f6	0.40212983
3	0xbe879fa2	-0.26488978

conv_layers.0.att_edge f4 [1, 1, 4]
0	0xbf8baa97	-1.0911435
1	0x3f7bad4d	0.9831131
2	0x3f5654be	0.83723056
3	0x3f19996b	0.5999972

conv_layers.0.bias f4 [4]
0	0x36b1b111	5.2956243e-06
1	0xb830d744	-4.216215e-05
2	0x389c5015	7.453576e-05
3	0x37296ab6	1.00980305e-05

conv_layers.0.lin_src.weight f4 [4, 4]
0	0x3f490541	0.7852364
1	0x3e08e53d	0.13368697
2	0x3f390846	0.7227825
3	0xbf257f6e	-0.6464757
4	0xbde262df	-0.110540144
5	0xbf56f0e9	-0.8396135
6	0xbebba7d5	-0.36651483
7	0xbef63f0f	-0.48094985
8	0x3f1f154b	0.62141865
9	0xbed00014	-0.4062506
10	0xbf068beb	-0.5255725
11	0xbf5d2d17	-0.86396927
12	0x3f4103cd	0.75396425
13	0x3ebb030b	0.3652576
14	0xbf51bd24	-0.8192923
15	0x3e8453a7	0.25845072

conv_layers.0.lin_dst.weight f4 [4, 4]
0	0x3f490541	0.7852364
1	0x3e08e53d	0.13368697
2	0x3f390846	0.7227825
3	0xbf257f6e	-0.6464757
4	0xbde262df	-0.110540144
5	0xbf56f0e9	-0.8396135
6	0xbebba7d5	-0.36651483
7	0xbef63f0f	-0.48094985
8	0x3f1f154b	0.62141865
9	0xbed00014	-0.4062506
10	0xbf068beb	-0.5255725
11	0xbf5d2d17	-0.86396927
12	0x3f4103cd	0.75396425
13	0x3ebb030b	0.3652576
14	0xbf51bd24	-0.8192923
15	0x3e8453a7	0.25845072

conv_layers.0.lin_edge.weight f4 [4, 12]
0	0x3d97e439	0.07416577
1	0xbe72ae64	-0.23699337
2	0x3ca8a4e0	0.020586431
3	0xbf04417d	-0.5166243
4	0xbf11cba8	-0.5695138
5	0x3e23c734	0.15993959
6	0xbe834c3c	-0.256441
7	0xbe4bcb48	-0.19901764
8	0x3e3bd81e	0.18344161
9	0x3e6dfd91	0.23241259
10	0xbea6bb62	-0.32564837
11	0x3e7b06e7	0.24514352
12	0xbda199b9	-0.078906484
13	0x3d8c61c4	0.06854585
14	0xbd815ae2	-0.06316163
15	0x3e3e0e08	0.1856004
16	0x3f1bfe87	0.6093525
17	0x3e77bcb4	0.24193078
18	0x3e38e757	0.18056999
19	0x3ede0e40	0.43370247
20	0xbdd7fa0a	-0.10545738
21	0xbba44ea4	-0.0050142575
22	0xbe816c05	-0.25277725
23	0x3d3ad19a	0.045610048
24	0x3c27c2d2	0.01023932
25	0xbee66c14	-0.45004332
26	0x3f0e33f1	0.55548006
27	0x3e353228	0.17694914
28	0xbed9c7e4	-0.42535317
29	0xbf12d19a	-0.57351077
30	0xbeb593d3	-0.35464343
31	0xbe640a6c	-0.222696
32	0x3f077ea4	0.52927613
33	0xbeefe6ff	-0.46855924
34	0x3eeb5cb4	0.45969164
35	0xbefeb5a1	-0.49747947
36	0xbdff2bed	-0.1245955
37	0xbddf6a0f	-0.10908901
38	0xbe7a6b66	-0.24455032
39	0x3ed1252f	0.4084868
40	0x3ed7d3c1	0.42153743
41	0xbe843bb1	-0.2582679
42	0xbe807346	-0.25087947
43	0x3ea5ff3e	0.32421297
44	0xbeee69ff	-0.46565244
45	0x3e934bbc	0.28768718
46	0xbeed2c0f	-0.46322677
47	0xbd7e7321	-0.062121514

conv_layers.1.att_src f4 [1, 1, 4]
0	0xbded1d26	-0.11577825
1	0x3ecb7ff7	0.39746067
2	0x3ee0df98	0.43920588
3	0x3f274225	0.65335304

conv_layers.1.att_dst f4 [1, 1, 4]
0	0x3ed4e7ca	0.4158309
1	0x3f6390f7	0.88893074
2	0x3f565db4	0.8373673
3	0xbd837f94	-0.06420818

conv_layers.1.att_edge f4 [1, 1, 4]
0	0x3ee4cc13	0.44686946
1	0xbf672e2b	-0.9030482
2	0xbee5356b	-0.44767317
3	0xbd5fd3fb	-0.05464552

conv_layers.1.bias f4 [4]
0	0xbc66e352	-0.014092283
1	0x39584bea	0.00020627645
2	0x3bde52f1	0.0067847897
3	0x3bc7d1b3	0.006097996

conv_layers.1.lin_src.weight f4 [4, 4]
0	0xbf5b5154	-0.8567097
1	0x3f2df57c	0.67952704
2	0xbeaab579	-0.33341578
3	0xbf455423	-0.7708151
4	0x3f0f1255	0.5588735
5	0xbc9d84ff	-0.019228457
6	0xbf362f60	-0.7116604
7	0x3f14d67b	0.5813977
8	0xbf2ec8f8	-0.68275404
9	0xbf2acc54	-0.6671803
10	0x3eb8f4bf	0.36124226
11	0xbf37a9c3	-0.7174341
12	0xbddab67a	-0.10679336
13	0xbd48eaeb	-0.04905216
14	0x3e1746ac	0.14773053
15	0x3d42bb44	0.04754187

conv_layers.1.lin_dst.weight f4 [4, 4]
0	0xbf5b5154	-0.8567097
1	0x3f2df57c	0.67952704
2	0xbeaab579	-0.33341578
3	0xbf455423	-0.7708151
4	0x3f0f1255	0.5588735
5	0xbc9d84ff	-0.019228457
6	0xbf362f60	-0.7116604
7	0x3f14d67b	0.5813977
8	0xbf2ec8f8	-0.68275404
9	0xbf2acc54	-0.6671803
10	0x3eb8f4bf	0.36124226
11	0xbf37a9c3	-0.7174341
12	0xbddab67a	-0.10679336
13	0xbd48eaeb	-0.04905216
14	0x3e1746ac	0.14773053
15	0x3d42bb44	0.04754187

conv_layers.1.lin_edge.weight f4 [4, 12]
0	0xbf065651	-0.5247546
1	0x3eeada2c	0.45869577
2	0x3ca31fd2	0.019912634
3	0xbc8460ba	-0.016159404
4	0x3ebb40da	0.36572915
5	0xbd8f5b50	-0.06999838
6	0x3f0a5aaf	0.5404462
7	0x3eff90fc	0.49915302
8	0xbe1d69a6	-0.15372333
9	0xbe2d9edb	-0.1695513
10	0x3f005b15	0.5013898
11	0x3ef826b5	0.4846703
12	0xbf13bf71	-0.5771399
13	0x3f002838	0.5006137
14	0xbe8abfa9	-0.2709935
15	0xbe2a8e56	-0.1665586
16	0x3eb4b16c	0.35291612
17	0xbea3a784	-0.31963742
18	0x3f081b46	0.53166616
19	0x3eb55a06	0.35420245
20	0x3e01821d	0.1264729
21	0x3d9d977b	0.07694908
22	0x3f1506bd	0.58213407
23	0x3f18548f	0.59504026
24	0x3f1329d3	0.57485694
25	0xbe9e9a4b	-0.3097709
26	0x3eca287c	0.39484012
27	0xbefd1861	-0.49432662
28	0x3c2d71b1	0.010586188
29	0x3e814759	0.25249746
30	0xbd282769	-0.04105321
31	0xbed4186f	-0.4142489
32	0x3e892197	0.2678344
33	0x3f169769	0.58824784
34	0xbe14d798	-0.14535367
35	0xbedeeeca	-0.43541557
36	0x3ed3e173	0.41382942
37	0xbec53cec	-0.38523042
38	0xbe131802	-0.14364627
39	0xbd90d30e	-0.070715055
40	0xbf015005	-0.50512725
41	0xbf1a9b78	-0.60393476
42	0x3f18a673	0.5962898
43	0x3e911b6c	0.28341234
44	0x3f036509	0.5132604
45	0x3e48116b	0.19537894
46	0xbe97900e	-0.29602093
47	0x3cd39431	0.0258275

transf_layers.0.weight f4 [4, 4]
0	0xbe1d723a	-0.15375605
1	0x3eefa100	0.4680252
2	0x3e4f7dd2	0.2026284
3	0x3d8065f1	0.06269444
4	0xbdbc4d89	-0.09194476
5	0x3edc7b63	0.43062887
6	0xbef27286	-0.47353
7	0xbd8f5bee	-0.06999956
8	0x3e44643d	0.19178863
9	0x3da0e321	0.078558214
10	0xbefce75c	-0.49395263
11	0xbe4fa496	-0.20277628
12	0xbe479ebe	-0.19494149
13	0xbe951c57	-0.29123184
14	0x3efac7d1	0.48980573
15	0x3e3b4c59	0.18290843

transf_layers.0.bias f4 [4]
0	0xbe2fb66b	-0.1715943
1	0xbd9dca71	-0.07704628
2	0xbe2ee525	-0.17079599
3	0xbef87ab7	-0.48531124

transf_layers.1.weight f4 [4, 4]
0	0x3ed573a2	0.41689783
1	0xbc04a08a	-0.008094916
2	0xbea9b664	-0.33146966
3	0xbe792e30	-0.24334025
4	0xbdce97c6	-0.10087542
5	0x3dfc78e0	0.123277426
6	0xbd62b5ae	-0.055349045
7	0x3ea221e7	0.3166649
8	0xbdaeda38	-0.08537716
9	0xbec0894c	-0.3760475
10	0xbefa153d	-0.4884433
11	0xbe6f0490	-0.23341584
12	0xbe5421e3	-0.20716052
13	0xbaaf71ba	-0.0013385334
14	0x3ecd709d	0.4012498
15	0x3e546a29	0.20743622

transf_layers.1.bias f4 [4]
0	0x3ecc5b1a	0.39913255
1	0x3c4500e8	0.012024142
2	0xbe75eab4	-0.24015313
3	0x3ec620f9	0.3869703

bn_layers.0.weight f4 [4]
0	0x3f800000	1.0
1	0x3f800000	1.0
2	0x3f800000	1.0
3	0x3f800000	1.0

bn_layers.0.bias f4 [4]
0	0x00000000	0.0
1	0x00000000	0.0
2	0x00000000	0.0
3	0x00000000	0.0

bn_layers.0.running_mean f4 [4]
0	0x00000000	0.0
1	0x00000000	0.0
2	0x00000000	0.0
3	0x00000000	0.0

bn_layers.0.running_var f4 [4]
0	0x3f800000	1.0
1	0x3f800000	1.0
2	0x3f800000	1.0
3	0x3f800000	1.0

bn_layers.1.weight f4 [4]
0	0x3f800000	1.0
1	0x3f800000	1.0
2	0x3f800000	1.0
3	0x3f800000	1.0

bn_layers.1.bias f4 [4]
0	0x00000000	0.0
1	0x00000000	0.0
2	0x00000000	0.0
3	0x00000000	0.0

bn_layers.1.running_mean f4 [4]
0	0x00000000	0.0
1	0x00000000	0.0
2	0x00000000	0.0
3	0x00000000	0.0

bn_layers.1.running_var f4 [4]
0	0x3f800000	1.0
1	0x3f800000	1.0
2	0x3f800000	1.0
3	0x3f800000	1.0

conv1.att_src f4 [1, 1, 4]
0	0xbf8a7fb3	-1.0820221
1	0x3c9bf17d	0.019036049
2	0x3f60b9a4	0.87783265
3	0xbf08a168	-0.53371286

conv1.att_dst f4 [1, 1, 4]
0	0x3f041fc8	0.51610994
1	0xbf5ce8b1	-0.8629256
2	0xbf107834	-0.56433415
3	0x3e50de6b	0.20397346

conv1.att_edge f4 [1, 1, 4]
0	0x3f694753	0.9112446
1	0x3f819db6	1.0126255
2	0x3ed26389	0.41091564
3	0xbf21f925	-0.6327079

conv1.bias f4 [4]
0	0xb7ad43fb	-2.0654863e-05
1	0xb7db16ad	-2.6117394e-05
2	0xb6f2e5ca	-7.238913e-06
3	0xb665aa48	-3.4222776e-06

conv1.lin_src.weight f4 [4, 3]
0	0x3f3e93c5	0.7444423
1	0x3f255331	0.64580065
2	0xbf63f3ca	-0.8904387
3	0xbf32b96e	-0.69814193
4	0xbe8348b1	-0.25641397
5	0xbe145e28	-0.14489043
6	0x3f1c2ca0	0.6100559
7	0xbf3e5a28	-0.7435632
8	0xbe6b33e5	-0.22969015
9	0xbed33e48	-0.41258454
10	0x3f3ce8db	0.7379281
11	0x3f082bc1	0.53191763

conv1.lin_dst.weight f4 [4, 3]
0	0x3f3e93c5	0.7444423
1	0x3f255331	0.64580065
2	0xbf63f3ca	-0.8904387
3	0xbf32b96e	-0.69814193
4	0xbe8348b1	-0.25641397
5	0xbe145e28	-0.14489043
6	0x3f1c2ca0	0.6100559
7	0xbf3e5a28	-0.7435632
8	0xbe6b33e5	-0.22969015
9	0xbed33e48	-0.41258454
10	0x3f3ce8db	0.7379281
11	0x3f082bc1	0.53191763

conv1.lin_edge.weight f4 [4, 12]
0	0x3dccd2b7	0.10001128
1	0xbe2e82e4	-0.17042118
2	0xbe5420e1	-0.20715667
3	0x3d4e98fe	0.050438873
4	0x3efeb6e5	0.49748912
5	0xbed91a1a	-0.42402726
6	0x3d9639d5	0.07335249
7	0x3de0e1ac	0.109805435
8	0xbeaf4b7c	-0.34237278
9	0x3e7f57e4	0.24935871
10	0x3e78ba2a	0.24289766
11	0x3eb4f09e	0.35339826
12	0x3e4e4450	0.20143247
13	0xbeb47541	-0.35245708
14	0x3eb5ab35	0.35482183
15	0x3efa6b7c	0.4891013
16	0x3f1a3f4b	0.6025283
17	0xbe705f74	-0.23473912
18	0xbecbe002	-0.39819342
19	0xbe2d1ae3	-0.16904788
20	0xbddce854	-0.107865006
21	0xbe4e8487	-0.20167743
22	0x3e991db6	0.2990548
23	0x3eebcc4a	0.46054298
24	0xbecfa250	-0.40553522
25	0x3ec7bb7f	0.39010236
26	0x3e82ffbb	0.25585732
27	0xbe54ca26	-0.20780239
28	0xbe718fc3	-0.23589997
29	0xbc9ed9a7	-0.019390894
30	0xbe87fdb1	-0.2656074
31	0x3e81b972	0.25336796
32	0x3ebae128	0.36499906
33	0x3ee157a3	0.44012174
34	0x3f0ccf37	0.55003685
35	0x3e1a396a	0.15060964
36	0x3f01b645	0.50668746
37	0x3d4b0141	0.049561743
38	0xbf00e426	-0.50348127
39	0xbedbabf6	-0.42904633
40	0x3efb1910	0.4904256
41	0xbf0ce47e	-0.5503615
42	0xbf0c79d1	-0.5487338
43	0x3ed457e2	0.414733
44	0x3f098576	0.5371927
45	0x3c7a2bc0	0.01526922
46	0xbee547a4	-0.4478122
47	0x3ee1651c	0.44022453

transf1.weight f4 [4, 4]
0	0xbea9bd84	-0.331524
1	0xbed5b5f0	-0.4174037
2	0xbde52a1a	-0.11189671
3	0xbd57570c	-0.05257325
4	0xbd015dca	-0.031583585
5	0xbe72b8c7	-0.237033
6	0xbec20c38	-0.37899947
7	0xbc1b415f	-0.009476035
8	0x3d85988c	0.06523237
9	0x3e0923a0	0.13392496
10	0xbdf9e4cb	-0.12201842
11	0x3e8d778f	0.27630278
12	0xbeb70639	-0.35746935
13	0xbe8cb7d1	-0.2748399
14	0x3ef968c2	0.48712736
15	0x3dcd4a56	0.10023944

transf1.bias f4 [4]
0	0xbc879798	-0.016551778
1	0xbeed01b4	-0.46290362
2	0xbe274bdb	-0.1633753
3	0xbed4501e	-0.41467375

bn1.weight f4 [4]
0	0x3f800000	1.0
1	0x3f800000	1.0
2	0x3f800000	1.0
3	0x3f800000	1.0

bn1.bias f4 [4]
0	0x00000000	0.0
1	0x00000000	0.0
2	0x00000000	0.0
3	0x00000000	0.0

bn1.running_mean f4 [4]
0	0x00000000	0.0
1	0x00000000	0.0
2	0x00000000	0.0
3	0x00000000	0.0

bn1.running_var f4 [4]
0	0x3f800000	1.0
1	0x3f800000	1.0
2	0x3f800000	1.0
3	0x3f800000	1.0

pool1.select.weight f4 [1, 4]
0	0x3cc4c260	0.024018466
1	0xbe260bcc	-0.16215438
2	0x3d5ce2b0	0.053927124
3	0x3da579d8	0.080798805

conv_fin.att_src f4 [1, 1, 8]
0	0xbf42f3bb	-0.76153153
1	0xbebcb617	-0.36857674
2	0x3f2daaf0	0.67838955
3	0x3cb3494b	0.021885535
4	0x3f259dd8	0.64693975
5	0xbebb5dc2	-0.3659497
6	0x3f417cf2	0.75581276
7	0xbef40519	-0.4766014

conv_fin.att_dst f4 [1, 1, 8]
0	0x3f1775cf	0.59164137
1	0xbf0b4b87	-0.5441212
2	0x3f1c5a2d	0.610751
3	0x3f3f60c0	0.74757004
4	0x3ea360cc	0.31909788
5	0xbf068f28	-0.5256219
6	0xbeefff47	-0.4687445
7	0x3f2921df	0.6606731

conv_fin.att_edge f4 [1, 1, 8]
0	0xbe95fd14	-0.29294646
1	0x3f1f9b63	0.62346476
2	0x3f00d7e3	0.50329417
3	0xbe38a2e4	-0.18030888
4	0xbf2cbb52	-0.6747333
5	0xbf42bf19	-0.7607284
6	0xbf033cb1	-0.5126448
7	0xbf2f8567	-0.6856293

conv_fin.bias f4 [8]
0	0xbcaaba1a	-0.020840693
1	0xbc2022b3	-0.009773898
2	0x3d2c9c0b	0.042141
3	0xbc2336fe	-0.009961842
4	0x3c159735	0.009130289
5	0x3a98126a	0.0011602168
6	0xbcb62d35	-0.022238353
7	0xbcb104b9	-0.021608697

conv_fin.lin_src.weight f4 [8, 4]
0	0x3e90eaad	0.28304043
1	0xbf23bdce	-0.63961494
2	0xbeb834a2	-0.35977656
3	0xbda446bc	-0.08021304
4	0x3f28c239	0.6592136
5	0xbf1763b1	-0.5913649
6	0x3e90becb	0.28270563
7	0xbd0d9b56	-0.034571968
8	0xbf2cdd5a	-0.67525256
9	0xbf0d25b9	-0.55135685
10	0xbc4a020d	-0.0123295905
11	0xbe9ecba1	-0.31014732
12	0xbe7f408e	-0.2492697
13	0x3ef30425	0.474641
14	0x3e86c868	0.26324773
15	0x3f06d311	0.5266581
16	0x3eddd201	0.43324283
17	0x3c9f6189	0.019455688
18	0x3dfb3959	0.122667976
19	0xbf04935a	-0.5178734
20	0xbe613d07	-0.21995936
21	0x3e4f06ca	0.20217434
22	0x3eea7c3e	0.45797914
23	0xbe8bc504	-0.27298748
24	0x3f0ff998	0.56240225
25	0xbf218506	-0.630936
26	0x3e416fb2	0.18890265
27	0xbe9e082c	-0.3086561
28	0xbe54d607	-0.2078477
29	0x3eaad05e	0.33362097
30	0x3e97ac10	0.2962346
31	0x3e363703	0.17794423

conv_fin.lin_dst.weight f4 [8, 4]
0	0x3e90eaad	0.28304043
1	0xbf23bdce	-0.63961494
2	0xbeb834a2	-0.35977656
3	0xbda446bc	-0.08021304
4	0x3f28c239	0.6592136
5	0xbf1763b1	-0.5913649
6	0x3e90becb	0.28270563
7	0xbd0d9b56	-0.034571968
8	0xbf2cdd5a	-0.67525256
9	0xbf0d25b9	-0.55135685
10	0xbc4a020d	-0.0123295905
11	0xbe9ecba1	-0.31014732
12	0xbe7f408e	-0.2492697
13	0x3ef30425	0.474641
14	0x3e86c868	0.26324773
15	0x3f06d311	0.5266581
16	0x3eddd201	0.43324283
17	0x3c9f6189	0.019455688
18	0x3dfb3959	0.122667976
19	0xbf04935a	-0.5178734
20	0xbe613d07	-0.21995936
21	0x3e4f06ca	0.20217434
22	0x3eea7c3e	0.45797914
23	0xbe8bc504	-0.27298748
24	0x3f0ff998	0.56240225
25	0xbf218506	-0.630936
26	0x3e416fb2	0.18890265
27	0xbe9e082c	-0.3086561
28	0xbe54d607	-0.2078477
29	0x3eaad05e	0.33362097
30	0x3e97ac10	0.2962346
31	0x3e363703	0.17794423

conv_fin.lin_edge.weight f4 [8, 12]
0	0x3e83bf53	0.25731906
1	0xbe33b82a	-0.17550722
2	0x3cdc5f4a	0.026900906
3	0x3edeab83	0.43490228
4	0x3dc0ab1b	0.09407636
5	0xbed85327	-0.4225094
6	0xbdc2d7a0	-0.095137835
7	0x3c1d7b1f	0.009611874
8	0x3e073690	0.13204408
9	0x3d690200	0.056886673
10	0xbcf3d000	-0.029762268
11	0x3dd37095	0.10324208
12	0xbe4a7c0a	-0.1977388
13	0xbf0adaf0	-0.5424032
14	0x3ee5d934	0.44892275
15	0x3ee39ca1	0.44455436
16	0x3e0924c6	0.13392934
17	0x3e845dd2	0.2585283
18	0xbec58963	-0.3858138
19	0xbe95f038	-0.29284835
20	0x3e9f1515	0.31070772
21	0xbca59beb	-0.020215949
22	0x3f0a444a	0.5401045
23	0x3d57fb80	0.052730083
24	0xbeb4fb9a	-0.35348207
25	0xbda0b543	-0.07847073
26	0xbe5c2b9d	-0.21501012
27	0xbe83046c	-0.2558931
28	0xbe83c5bf	-0.25736806
29	0x3e6184de	0.22023341
30	0xbf0236a4	-0.50864625
31	0x3efc2e87	0.49254248
32	0x3e84ca2c	0.25935495
33	0x3e80460c	0.25053442
34	0x3dfc5f19	0.12322826
35	0x3d56cc8a	0.052441157
36	0xbec5f61a	-0.38664323
37	0x3e08ef27	0.1337248
38	0xbe1cfe53	-0.15331392
39	0xbe9cf2ab	-0.3065389
40	0x3e1e2250	0.15442777
41	0x3eaa32d6	0.3324191
42	0xbd61af7d	-0.055099
43	0x3e07134d	0.13190956
44	0xbe647bed	-0.22312899
45	0x3f017125	0.5056327
46	0xbe7ba2d5	-0.24573834
47	0xbef0bad3	-0.47017536
48	0x3ddccfd0	0.107818246
49	0x3e761357	0.24030815
50	0xbe95c2b7	-0.29250118
51	0x3e286f20	0.16448641
52	0x3dbd1bb3	0.09233799
53	0xbece0208	-0.40235925
54	0x3e83ea81	0.2576485
55	0xbef3ab2f	-0.4759154
56	0xbe127916	-0.14304003
57	0x3e454cb7	0.19267546
58	0xbe80e4f9	-0.25174692
59	0x3ee06928	0.43830228
60	0xbdc6dca8	-0.097100556
61	0x3dc3185d	0.09526131
62	0xbea21088	-0.31653237
63	0xbb58fca6	-0.0033109575
64	0xbe359fff	-0.17736815
65	0xbe75c848	-0.24002182
66	0x3ec37fac	0.38183343
67	0xbe3f0ee0	-0.18658018
68	0xbcdb4c55	-0.026769796
69	0x3e7ad84c	0.24496573
70	0x3eb738d0	0.35785532
71	0xbed2f2b3	-0.4120079
72	0x3e2ab3be	0.16670129
73	0x3e67398c	0.22580546
74	0xbded0042	-0.11572315
75	0x3cf4b31e	0.029870566
76	0x3da4ff7b	0.080565415
77	0xbf07dd8a	-0.53072417
78	0xbf078494	-0.52936673
79	0x3eec1971	0.4611316
80	0x3ee94138	0.4555757
81	0x3f069157	0.5256552
82	0x3e2a6e4c	0.16643637
83	0xbd958820	-0.073013544
84	0xbeacf44e	-0.3378014
85	0xbec5151f	-0.38492677
86	0x3f09f4bc	0.5388906
87	0xbea18597	-0.31547233
88	0xbf038756	-0.5137838
89	0x3ee0124e	0.43763965
90	0xbedaaef0	-0.42711592
91	0x3e334ad4	0.17509013
92	0x3ec93faf	0.393064
93	0x3ee83824	0.45355332
94	0xbea8c220	-0.32960606
95	0x3d1ef991	0.038812224

transf_fin.weight f4 [8, 8]
0	0xbeaad3b1	-0.33364633
1	0x3e76ac45	0.24089153
2	0x3e736b2c	0.23771352
3	0xbe6f494a	-0.23367801
4	0x3e85aed6	0.26109952
5	0x3e42b773	0.19015293
6	0xbe3bff5a	-0.18359128
7	0x3e031de1	0.12804367
8	0xbcf56bca	-0.029958624
9	0xbce219fa	-0.027600277
10	0x3e9eb774	0.3099934
11	0x3e8f1cf5	0.2795178
12	0x3e8d4c36	0.27597207
13	0xbe8bb649	-0.2728751
14	0x3e5f59df	0.21811627
15	0xbd052ca4	-0.032513276
16	0x3e06c8b1	0.13162495
17	0x3e012565	0.12611921
18	0xbdd630c8	-0.10458523
19	0x3dbfc3b5	0.093635
20	0x3e1b0aeb	0.15140884
21	0x3e2ed891	0.17074801
22	0x3e92f1b6	0.28700036
23	0x3e902f64	0.28161156
24	0xbc15cac7	-0.009142584
25	0x3da001df	0.07812857
26	0xbd53c234	-0.05169888
27	0xbdf3fe0a	-0.119136885
28	0xbe8a1522	-0.26969248
29	0x3e965663	0.29362783
30	0x3e3f73da	0.18696538
31	0xbe8866d6	-0.26640958
32	0x3d5ebb35	0.054377753
33	0x3e89e0cb	0.26929316
34	0x3da26bd9	0.079307266
35	0xbe822be0	-0.254241
36	0x3e9b808e	0.30371517
37	0x3da485ee	0.080333576
38	0xbce7627d	-0.028245205
39	0x3de384cc	0.11109313
40	0xbd9c30c1	-0.076264866
41	0xbe8c7446	-0.2743246
42	0xbe714636	-0.2356194
43	0x3ea58751	0.323298
44	0x3d53d11f	0.051713105
45	0x3e7efa55	0.24900182
46	0xbe7e63d1	-0.24842764
47	0xbc37cb1d	-0.01121786
48	0x3e853af5	0.26021543
49	0x3e7e99ba	0.2486333
50	0xbe88d398	-0.26723933
51	0xbc6018fb	-0.013677831
52	0xbe88c810	-0.26715136
53	0xbe52bb6b	-0.20579307
54	0x3e292177	0.16516672
55	0x3e51cc6e	0.2048814
56	0x3d93c085	0.072144546
57	0x3ea121f5	0.3147122
58	0x3eabe0a2	0.3356982
59	0x3e8131ca	0.252333
60	0xbdd2d1be	-0.102939114
61	0x3d4143ec	0.047183916
62	0xbe91d2c9	-0.2848113
63	0x3e656e20	0.2240529

transf_fin.bias f4 [8]
0	0xbc80c370	-0.015718192
1	0xbe76ac1b	-0.2408909
2	0x3dc330ce	0.09530793
3	0xbc8dc4d1	-0.017305763
4	0xbe8b4d3d	-0.27207366
5	0x3e2388fe	0.15970227
6	0x3e2ded29	0.16985
7	0x3e8dfd60	0.27732372

bn_fin.weight f4 [8]
0	0x3f800000	1.0
1	0x3f800000	1.0
2	0x3f800000	1.0
3	0x3f800000	1.0
4	0x3f800000	1.0
5	0x3f800000	1.0
6	0x3f800000	1.0
7	0x3f800000	1.0

bn_fin.bias f4 [8]
0	0x00000000	0.0
1	0x00000000	0.0
2	0x00000000	0.0
3	0x00000000	0.0
4	0x00000000	0.0
5	0x00000000	0.0
6	0x00000000	0.0
7	0x00000000	0.0

bn_fin.running_mean f4 [8]
0	0x00000000	0.0
1	0x00000000	0.0
2	0x00000000	0.0
3	0x00000000	0.0
4	0x00000000	0.0
5	0x00000000	0.0
6	0x00000000	0.0
7	0x00000000	0.0

bn_fin.running_var f4 [8]
0	0x3f800000	1.0
1	0x3f800000	1.0
2	0x3f800000	1.0
3	0x3f800000	1.0
4	0x3f800000	1.0
5	0x3f800000	1.0
6	0x3f800000	1.0
7	0x3f800000	1.0

pool_fin.select.weight f4 [1, 8]
0	0x3e08d483	0.13362317
1	0xbd4c68a4	-0.04990448
2	0xbd653f63	-0.055968653
3	0xbe044ee1	-0.12920715
4	0xbdf0d0b5	-0.11758558
5	0xbe89003c	-0.2675799
6	0x3e0738dd	0.13205285
7	0x3d0a0bdf	0.033702727

linear0.weight f4 [128, 10]
0	0xbd9edc38	-0.07756847
1	0x3e907472	0.2821384
2	0xbe197117	-0.14984547
3	0xbe82b791	-0.25530675
4	0xbdaa56c9	-0.08317334
5	0xbe94898e	-0.29011196
6	0x3e82c9ba	0.2554453
7	0xbe8a3662	-0.26994616
8	0xbe927da9	-0.28611496
9	0xbd34b3c8	-0.044116765
10	0x3e169701	0.14706041
11	0x3e71cd0c	0.23613375
12	0x3e4c061e	0.19924209
13	0xbe90666d	-0.28203145
14	0xbe9b7197	-0.303601
15	0x3e157971	0.14597107
16	0x3d573f7e	0.052550785
17	0x3e13081f	0.14358567
18	0xbe4b8d24	-0.1987806
19	0xbd0958f4	-0.033532098
20	0xbdc54d3b	-0.09633871
21	0x3dc856ed	0.09782205
22	0x3e284de1	0.16435958
23	0x3e165a6c	0.1468293
24	0x3e4c15c2	0.19930175
25	0x3e344386	0.17603883
26	0x3e429ced	0.19005175
27	0xbe90cdf9	-0.28282145
28	0x3ea0bb8c	0.31393087
29	0x3e027df6	0.12743363
30	0x3e424ea1	0.18975307
31	0xbe8fbf5c	-0.28075683
32	0x3e26de5c	0.16295761
33	0x3df99e95	0.1218845
34	0x3d0b9b63	0.034083735
35	0xbaf1edfe	-0.0018457768
36	0x3e83e7d0	0.25762796
37	0x3e12afe8	0.14324915
38	0x3e469b86	0.19395265
39	0x3e8d0967	0.27546236
40	0xbe456fcf	-0.19280933
41	0xbdebc17b	-0.11511513
42	0x3e5f0f92	0.21783283
43	0xbe1b466c	-0.15163583
44	0x3e30adc2	0.17253783
45	0x3e7dd92b	0.24789874
46	0x3cf056f0	0.02933833
47	0xbe20ea54	-0.15714389
48	0x3e38a480	0.18031502
49	0x3e15ed83	0.14641385
50	0xbe76c56a	-0.24098745
51	0x3e1be04c	0.15222281
52	0xbdbead33	-0.09310379
53	0x3e5edcde	0.21763942
54	0x3d861199	0.06546325
55	0x3e344431	0.17604138
56	0x3e867644	0.26262105
57	0x3e1f0c2d	0.15531988
58	0x3e01d4c8	0.12678826
59	0xbe2fbc1a	-0.17161599
60	0xbe91b926	-0.2846157
61	0xbe881bfa	-0.26583844
62	0x3cab4bb6	0.020910125
63	0xbe814537	-0.2524812
64	0x3e787b90	0.24265885
65	0x3e2c54df	0.16829251
66	0xbaa4f63e	-0.0012585593
67	0x3e705754	0.23470813
68	0x3e1e8a84	0.15482527
69	0xbe427e8a	-0.18993583
70	0xbdfd592f	-0.12370526
71	0xbea16bfb	-0.31527695
72	0x3e3faccf	0.18718265
73	0xbc1ebfa5	-0.009689246
74	0xbe58058d	-0.21095867
75	0xbe9252a6	-0.2857868
76	0xbd542e3f	-0.051801916
77	0x3e71582c	0.23568791
78	0x3d9d1423	0.076698564
79	0x3e97f591	0.2967954
80	0xbe3aca21	-0.18241169
81	0x3deb7f4e	0.11498891
82	0x3da42558	0.08014935
83	0xbe9b0d39	-0.30283526
84	0x3e432791	0.19058062
85	0x3e7a5af8	0.24448764
86	0x3d029d93	0.031888556
87	0x3e3d9632	0.18514326
88	0xbe8bb7fb	-0.27288803
89	0xbeba4af9	-0.36385325
90	0x3d376fc8	0.044784337
91	0x3e694a41	0.22782232
92	0xbe13f667	-0.14449464
93	0xbe0f17a0	-0.13973856
94	0xbe27e8a2	-0.16397336
95	0x3e24acb8	0.16081512
96	0x3d11b369	0.03557149
97	0x3dcb442b	0.099251114
98	0xbd643274	-0.05571218
99	0x3e537fc1	0.20654203
100	0x3e21553f	0.15755175
101	0x3e31ee57	0.17376076
102	0xbdb6c72c	-0.08924708
103	0x3dc745b6	0.09730093
104	0xbe0e5fbc	-0.13903707
105	0xbe4a886f	-0.19778608
106	0xbe044424	-0.12916619
107	0xbbf25659	-0.0073955473
108	0x3e2dc347	0.16969024
109	0xbd7a1955	-0.061059315
110	0xbe6af503	-0.22945027
111	0xbd47c8b9	-0.04877541
112	0x3e922cbb	0.28549752
113	0xbe351f52	-0.17687729
114	0xbe3c12cb	-0.18366544
115	0x3e77fe63	0.24218135
116	0xbe5eaccb	-0.21745603
117	0xbe0f936c	-0.1402108
118	0x3d0726d2	0.032996006
119	0x3e15f6ee	0.14644977
120	0xbe926526	-0.28592795
121	0x3df49516	0.119424984
122	0x3da745c4	0.081676036
123	0xbdbc4329	-0.09192497
124	0x3e976668	0.29570317
125	0xbdb357e3	-0.087569974
126	0x3e908e48	0.28233552
127	0xbd82d0fc	-0.06387517
128	0xbe7a7c94	-0.24461585
129	0x3df96815	0.12178055
130	0xbe473727	-0.19454633
131	0x3e8dbb7e	0.27682108
132	0x3c38cc3a	0.01127916
133	0xbe2e7f36	-0.17040715
134	0xbe3b0e4f	-0.18267177
135	0x3d0fb98a	0.035089053
136	0xbdb04ccf	-0.086084
137	0x3eaa3e9d	0.33250895
138	0x3e39829a	0.18116227
139	0xbe640d01	-0.22270586
140	0xbe4e7ac5	-0.2016402
141	0xbe0ff576	-0.1405848
142	0x3da8f999	0.08250732
143	0x3cbfc721	0.023410382
144	0x3c8e83f3	0.017396903
145	0xbe4933c7	-0.19648658
146	0x3e514422	0.20436147
147	0x3cf464dc	0.02983325
148	0xbddc993b	-0.10771414
149	0xbc2f4abf	-0.010698973
150	0xbe433ab2	-0.19065359
151	0x3e365eb6	0.17809567
152	0x3d75251e	0.05984985
153	0x3e3a3371	0.18183686
154	0xbaf1e385	-0.0018454647
155	0x3e6af118	0.22943532
156	0x3dab1ffa	0.083557084
157	0x3e8ac13e	0.27100557
158	0x3e926665	0.28593746
159	0xbc54f995	-0.012998958
160	0x3e16158c	0.14656657
161	0xbe75444e	-0.23951837
162	0x3e6b4528	0.229756
163	0x3e03db7f	0.128767
164	0xbe2f4add	-0.17118402
165	0xbe43937b	-0.19099228
166	0xbe426a76	-0.18985924
167	0xbdc17d78	-0.094477594
168	0xbc9ad569	-0.01890059
169	0xbe8ed1a7	-0.27894327
170	0x3df2e059	0.11859197
171	0xbe836656	-0.25664014
172	0x3e6da3fd	0.23207088
173	0xbdbc8e5b	-0.0920684
174	0xbe532f0b	-0.20623414
175	0x3dea4559	0.11439008
176	0xbe8943c0	-0.26809502
177	0x3d6551bc	0.05598615
178	0xbdb89e44	-0.09014562
179	0xbd2bc3ca	-0.041934766
180	0x3d479f81	0.0487361
181	0xbe258fa4	-0.16168076
182	0xbe8e864b	-0.27836832
183	0xbcff3b1e	-0.031156119
184	0x3e8cd919	0.27509382
185	0x3e7888bf	0.24270914
186	0xbe830709	-0.25591305
187	0xbe947c90	-0.29001284
188	0xbe88606d	-0.26636067
189	0x3e873ea5	0.2641498
190	0xbd870979	-0.06593604
191	0xbddd27d5	-0.10798613
192	0xbe960087	-0.29297277
193	0x3d9c739b	0.076392375
194	0x3e8fbbd6	0.28072995
195	0xbe6b125a	-0.2295622
196	0x3e9ecfa5	0.31017795
197	0xbe8a96d3	-0.27068195
198	0xbe98439a	-0.29739076
199	0xbe5962d1	-0.21229102
200	0xbe7b7c6f	-0.24559186
201	0xbe414b1c	-0.18876308
202	0xbe8cf947	-0.27533934
203	0xbe8d06b0	-0.27544165
204	0x3d32a96c	0.043618605
205	0x3e8b6e03	0.2723237
206	0xbe9c355f	-0.3050947
207	0xbe96edce	-0.29478306
208	0x3ea05a25	0.31318775
209	0xbde78bf2	-0.11305989
210	0x3ea084b0	0.31351233
211	0xbd177f1d	-0.03698646
212	0xbdeb78cf	-0.11497652
213	0x3d487cef	0.04894727
214	0x3e6354ff	0.22200392
215	0xbe3dc703	-0.18532948
216	0x3d67156e	0.05641692
217	0x3e6bcdfd	0.23027797
218	0xbdcf40fc	-0.10119817
219	0xbe89e121	-0.26929572
220	0x3b582d7d	0.0032986098
221	0x3db2fb04	0.08739284
222	0xbe6eb675	-0.2331179
223	0xbdd81dba	-0.10552545
224	0x3c5cc8ea	0.013475636
225	0x3dbbc1ac	0.09167799
226	0x3e8da8de	0.27667898
227	0xbe3c96a4	-0.1841684
228	0x3e25836e	0.16163418
229	0xbeb9562f	-0.36198565
230	0x3e138903	0.14407735
231	0x3cb31417	0.021860166
232	0xbc8dc1b1	-0.017304273
233	0xbe3d2151	-0.1846974
234	0x3d9c2f4b	0.07626208
235	0x3bcdbb8e	0.006278462
236	0x3e0e8d59	0.13921107
237	0x3cfd6ca4	0.030935593
238	0x3e1ab33b	0.15107433
239	0xbe5ea495	-0.2174247
240	0x3e154f0b	0.14580934
241	0xbd76c517	-0.060246553
242	0xbe9d3872	-0.30707127
243	0xbd0adf89	-0.033904586
244	0xbe882c03	-0.26596078
245	0x3e2b4129	0.16724075
246	0x3c3c10f1	0.0114786485
247	0x3e4090fe	0.1880531
248	0xbdf287ae	-0.11842285
249	0x3e722563	0.23647074
250	0xbe379604	-0.1792832
251	0x3e04bd1c	0.12962765
252	0xbc5df383	-0.013546827
253	0x3e52fdba	0.20604602
254	0x3db4ad6f	0.08822142
255	0xbe6a6968	-0.22891772

linear0.bias f4 [128]
0	0x3e854935	0.26032415
1	0x3c1dbd00	0.009627581
2	0xbe66e64c	-0.22548789
3	0xbdf0bc2a	-0.117546394
4	0xbe9dfbbf	-0.3085613
5	0xbbab8542	-0.0052343914
6	0xbdcb410e	-0.099245176
7	0xbe3fcc91	-0.1873038
8	0xbd0db7af	-0.034599002
9	0xbe838fb6	-0.2569558
10	0xbe008617	-0.12551151
11	0x3c84c849	0.016208785
12	0x3e7d8f98	0.24761808
13	0xbdc4be6f	-0.09606635
14	0x3e8d6402	0.27615362
15	0xbe3ad43d	-0.18245025
16	0xbe10ccce	-0.14140627
17	0xbd9cf8ad	-0.07664619
18	0x3d49440a	0.049137153
19	0xbd8a969c	-0.06767008
20	0xbdb45bfc	-0.08806607
21	0xbe49f79f	-0.19723366
22	0x3e357870	0.17721725
23	0xbe19054f	-0.14943431
24	0xbdbd01dd	-0.09228871
25	0xbdbe1ce8	-0.09282857
26	0x3e23d25b	0.15998213
27	0xbe6e7556	-0.23286948
28	0xbea003b8	-0.31252837
29	0xbdaa5de6	-0.08318691
30	0xbd99a2fa	-0.075017884
31	0xbe849fff	-0.25903317
32	0xbe84f022	-0.25964457
33	0xbc44ff88	-0.012023814
34	0x3d1ee840	0.03879571
35	0xbe9f0d5a	-0.31064874
36	0x3e1ae144	0.15124995
37	0x3cda6e79	0.026664006
38	0x3e0716b1	0.1319225
39	0x3e4730bb	0.19452183
40	0xbe7b01b1	-0.24512364
41	0xbe8cc399	-0.2749298
42	0xbe09c557	-0.13454185
43	0xbe9334e4	-0.2875129
44	0x3e91891b	0.28424916
45	0x3d2f00a8	0.042725235
46	0x3e1cc190	0.15308213
47	0x3e8df7fb	0.27728257
48	0xbb8e2175	-0.0043374845
49	0x3ddfc963	0.10927083
50	0xbe98e9b6	-0.29865807
51	0x3e72db52	0.23716477
52	0x3e83c5e2	0.2573691
53	0xbe0beaaa	-0.13663736
54	0xbe18b800	-0.1491394
55	0xbd1c5ed0	-0.038176358
56	0xbd9aaa4a	-0.07552011
57	0x3cb818a6	0.02247269
58	0x3e5794c1	0.21052839
59	0x3e4dee44	0.20110422
60	0xbdfb1937	-0.12260669
61	0xbe08ae5e	-0.13347766
62	0xbe92cbf8	-0.2867124
63	0xbe9ab0d7	-0.30213043
64	0xbdd0276a	-0.10163768
65	0xbdb211c5	-0.086947955
66	0xbe5af22a	-0.21381441
67	0xbd883d10	-0.06652272
68	0xbe3b9200	-0.18317413
69	0x3d749cbc	0.059719786
70	0x3e8fb487	0.2806742
71	0x3e67c37d	0.22633167
72	0x3e6d4f9b	0.23174898
73	0x3e6f89ee	0.2339246
74	0xbe72fa84	-0.23728377
75	0xbe9fd8d2	-0.31220108
76	0xbe750fad	-0.23931761
77	0x3d4cb687	0.04997876
78	0x3e4d61fd	0.20056911
79	0x3e1180ea	0.14209333
80	0x3e4fa938	0.20279396
81	0x3ce7cdba	0.02829634
82	0x3e2b0981	0.16702844
83	0xbdbc26c1	-0.09187079
84	0xbe23ecc0	-0.16008282
85	0xbd3765c2	-0.04477478
86	0x3e738271	0.23780228
87	0x3e218208	0.15772259
88	0x3e5d8539	0.21632852
89	0x3e9eded1	0.3102937
90	0xbe8f30e9	-0.27967003
91	0x3e781939	0.24228372
92	0xbe2aecbc	-0.1669187
93	0x3e66d933	0.22543792
94	0xbe7558ca	-0.23959652
95	0xbc56474c	-0.013078522
96	0x3d13fad5	0.036127884
97	0x3d9a4996	0.07533567
98	0x3dd6ccf4	0.104883105
99	0xbe66a41a	-0.22523537
100	0xbc9136d8	-0.017726347
101	0xbe0dbaa6	-0.13840732
102	0x3e2701fe	0.16309354
103	0x3d6ca632	0.057775684
104	0xbe739177	-0.23785959
105	0xbe94677f	-0.2898521
106	0x3d91d337	0.07120364
107	0x3cd84a3e	0.026402589
108	0x3da8b629	0.08237869
109	0x3e57500e	0.21026632
110	0x3c8d75e9	0.017268138
111	0x3dcc1466	0.09964828
112	0xbe6cedd5	-0.231376
113	0xbe92b2c8	-0.28652024
114	0xbb9187bd	-0.00444123
115	0x3e881aca	0.26582938
116	0x3e94ea7b	0.29085144
117	0xbe5a5826	-0.21322688
118	0x3e1f0610	0.15529656
119	0x3d1f5da0	0.038907647
120	0xbea45b6c	-0.32101
121	0x3d3bdb81	0.045863632
122	0x3d00a599	0.031407926
123	0xbe050c37	-0.12992941
124	0x3e746677	0.23867212
125	0x3e11fcc8	0.14256585
126	0x3e719d3d	0.23595138
127	0xbd9adf6a	-0.07562144

linear2.weight f4 [128, 128]
0	0x3d4bacb1	0.04972524
1	0x3be3bef5	0.006950254
2	0xbd8200b5	-0.06347791
3	0xbca7845e	-0.02044886
4	0x3c69a32e	0.0142600965
5	0xbc1dd842	-0.009634079
6	0xbdaf5ad0	-0.08562243
7	0xbd2775d1	-0.040883843
8	0xbc486d37	-0.01223307
9	0xbafad921	-0.0019138196
10	0x3d569982	0.05239249
11	0x3bf76d4b	0.0075508705
12	0x3d27525b	0.040850025
13	0x3d483e72	0.048887677
14	0x3d46c58c	0.04852824
15	0xbd4611fc	-0.048356995
16	0xbd089ece	-0.033354573
17	0x3d91cc22	0.07119013
18	0xbd9f540d	-0.07779703
19	0xbb42980a	-0.0029692673
20	0x3c9a09f7	0.01880358
21	0xbd99fad9	-0.075185485
22	0x3b79dcfd	0.0038126104
23	0xbd922091	-0.07135118
24	0xbca6d5a8	-0.020365551
25	0xbc6ea313	-0.014565247
26	0xbae36c42	-0.0017350989
27	0xbd10259b	-0.035192113
28	0xbc77d403	-0.015126231
29	0xbdb18f78	-0.086699426
30	0x3d83ca8e	0.064351186
31	0xbda07d2e	-0.07836376
32	0xbd248a96	-0.04017123
33	0x3d42e127	0.047578003
34	0x3d5fd435	0.054645736
35	0xbda5185a	-0.08061285
36	0x3ae50446	0.0017472587
37	0xbc895855	-0.016765753
38	0xbdabcb41	-0.08388377
39	0x3da740eb	0.08166679
40	0xbd4da9a0	-0.050210595
41	0x3d1df8be	0.038567297
42	0x3b2b2edd	0.0026120462
43	0x3d397ae7	0.045283224
44	0xbd922df1	-0.07137669
45	0xbd14d582	-0.03633643
46	0x3d869aa4	0.06572464
47	0x3c26480d	0.010149014
48	0x3ca292dd	0.01984542
49	0x3d88572b	0.06657251
50	0xbd99ce4b	-0.075100504
51	0x3d10ce7e	0.035353176
52	0xbd22e03e	-0.039764635
53	0xbb76c2fd	-0.0037652843
54	0x3d87638b	0.06610783
55	0x3d59ca14	0.053171232
56	0xbd836ee6	-0.064176366
57	0xbd821fb7	-0.063537054
58	0x3d5583a4	0.052127495
59	0x3d287a75	0.04113241
60	0xbb988ff2	-0.0046558315
61	0xbcfe7f2e	-0.031066503
62	0x3d5d7b07	0.054072406
63	0x3c95f670	0.018305987
64	0xbd0803a1	-0.033206586
65	0xbd39a2c3	-0.045321237
66	0xbd3636cd	-0.044485856
67	0xbd0ed751	-0.03487331
68	0x3d2e6690	0.04257828
69	0xbd2b9477	-0.041889634
70	0x3d061ff2	0.03274531
71	0x3d76d9db	0.060266357
72	0xbb8f1cd9	-0.0043674526
73	0x3d62480e	0.055244498
74	0x3d229e50	0.03970176
75	0xbd73fd77	-0.059567895
76	0x3b161188	0.0022898633
77	0xbd130791	-0.035895888
78	0xbd4f6ffb	-0.050643902
79	0xbc3fa1c3	-0.011696282
80	0x3d568d28	0.05238071
81	0xbcca0cff	-0.0246644
82	0x3a90bcb2	0.0011042564
83	0xbd60d74f	-0.054892834
84	0x3ca87b83	0.020566707
85	0x3c40e09f	0.011772304
86	0x3d0837ea	0.03325645
87	0x3d68e2cf	0.056856927
88	0xbca03f15	-0.01956133
89	0x3d9f97c1	0.07792617
90	0x3db100a0	0.08642697
91	0x3d60c8c9	0.054878984
92	0xbcb29109	-0.021797674
93	0x3cccf987	0.025021328
94	0xbda2707b	-0.0793161
95	0xbccc0166	-0.02490301
96	0x3d8dbd9f	0.06920933
97	0x3a7352fb	0.00092820794
98	0xbd22b3a7	-0.03972211
99	0xbdab4977	-0.08363622
100	0xbcf114cb	-0.02942886
101	0x3d47d871	0.0487904
102	0xbd18f28a	-0.03734068
103	0xbc7ca0cf	-0.015419199
104	0xbd51919e	-0.051164262
105	0x3d672d2e	0.05643957
106	0xbd927760	-0.07151675
107	0xbc781051	-0.015140609
108	0xbdb079f9	-0.086170144
109	0x3d524d6d	0.05134337
110	0xbd135998	-0.035974115
111	0x3d3ae934	0.045632556
112	0x3ba8f4d3	0.0051561384
113	0x3cafcee0	0.02146095
114	0x3d05a78a	0.03263048
115	0xbcb8d61f	-0.022563038
116	0x3d90ff9a	0.07080002
117	0xbc04fe6e	-0.008117301
118	0xbd889977	-0.06669896
119	0x3d623968	0.055230528
120	0x3d428f78	0.047500104
121	0x3d445ee6	0.047942065
122	0xbd7f51db	-0.062333923
123	0xbc0fb9e8	-0.008772351
124	0xbd8a72eb	-0.067602
125	0x3d2c32da	0.042040683
126	0xbc21c93f	-0.009874641
127	0xbcb148df	-0.021641193
128	0xbcffa6e3	-0.031207507
129	0x3c98fb8e	0.018674638
130	0xbdb12c96	-0.08651082
131	0x3cbd91a6	0.02314074
132	0x3d26d689	0.04073194
133	0xbcf6d211	-0.030129464
134	0xbd4802ba	-0.048830725
135	0x3daf33ca	0.085548
136	0xbd837f4b	-0.064207636
137	0xbd060114	-0.032715872
138	0xbd828fa0	-0.063750505
139	0x3ba70edb	0.0050982065
140	0x3d1caaae	0.03824871
141	0xbd04a43a	-0.03238318
142	0xbc9f7738	-0.019466028
143	0x3d67d740	0.056601763
144	0x3db29a06	0.08720784
145	0xbd6ae155	-0.0573438
146	0xbcd2173e	-0.025645848
147	0x3d82c876	0.06385891
148	0xbc8831b1	-0.016625257
149	0x3d6c08ef	0.057625707
150	0x3d8fd38b	0.070227705
151	0x3d6d39f7	0.057916608
152	0xbd066e58	-0.032820076
153	0x3ca93d5e	0.020659145
154	0xbd47e125	-0.0487987
155	0xbb800421	-0.003906742
156	0xbced6041	-0.028976562
157	0x3d78d6e9	0.06075183
158	0xbad80db4	-0.0016483576
159	0xbd0c2da0	-0.0342232
160	0xbd1eb5cd	-0.038747597
161	0xbcb0a0f7	-0.021561129
162	0xbd239c0d	-0.039943743
163	0x3d9f3610	0.077739835
164	0x3d19d6e3	0.037558448
165	0x3c8ad9ae	0.0169495
166	0x3d5b526d	0.053545404
167	0x3b8d161b	0.0043056137
168	0x3d40459e	0.046941392
169	0x3d183da9	0.03716818
170	0x3b0f56ee	0.0021871882
171	0xbda8a09e	-0.0823376
172	0x3c5655ae	0.013081951
173	0xbcfddca1	-0.030988993
174	0xbc217ff5	-0.0098571675
175	0x3d6f2a74	0.058390096
176	0xbd4d5478	-0.050129384
177	0xbce556da	-0.027995516
178	0x3d6f26b4	0.05838652
179	0xbd9911c2	-0.0747409
180	0xbd0defde	-0.034652583
181	0xbd09a3a6	-0.033603333
182	0xbc5a9190	-0.013340369
183	0x3b4e006e	0.0031433362
184	0x3c4cad7a	0.012492532
185	0x3d5f3ff1	0.05450434
186	0xbd3fda22	-0.046838887
187	0xbcc1c98e	-0.02365568
188	0xbdad116b	-0.08450588
189	0xbda8cc22	-0.0824206
190	0x3cc7dfcb	0.024398705
191	0x3d214989	0.03937677
192	0xbd70141b	-0.058612924
193	0xbdab07d5	-0.08351103
194	0xbd8cf0a3	-0.06881835
195	0x3da1c6d9	0.07899255
196	0x3d9e92a6	0.07742815
197	0x3cc59d5f	0.024122892
198	0x3aff8836	0.001949555
199	0xbc1cdcbc	-0.009574112
200	0x3bb5aec3	0.005544515
201	0x3daf5e49	0.08562905
202	0x3d6db671	0.058035318
203	0x3c89f165	0.016838739
204	0x3d982c57	0.07430332
205	0x3da4779f	0.080306284
206	0xbd71d1f2	-0.05903811
207	0x3da68c87	0.08132272
208	0xbd34b7b2	-0.044120498
209	0x3d6b8c3b	0.05750678
210	0x3cf2d18c	0.029640935
211	0x3d8440cd	0.06457672
212	0x3dae6560	0.085154295
213	0x3bbab2c3	0.0056975796
214	0xbd252b4a	-0.040324487
215	0xbd876de8	-0.0661276
216	0x3d381df9	0.04495046
217	0x3d2c1069	0.042007837
218	0xbd45e1e8	-0.048311144
219	0xbaedb90e	-0.0018136816
220	0x3d97b61b	0.07407781
221	0x3d9be2d5	0.07611624
222	0x3d508c3d	0.05091499
223	0x3db3c13c	0.08777091
224	0xbd19995e	-0.037499778
225	0xbb7f8d79	-0.0038994236
226	0xbca26558	-0.019823715
227	0x3d222da9	0.039594326
228	0x3daaa837	0.08332866
229	0xbd537408	-0.051624328
230	0xbc99c9e4	-0.018773027
231	0x3d05d092	0.03266961
232	0x3cad19ac	0.021130405
233	0x3da56202	0.08075334
234	0xbd7cd70b	-0.06172852
235	0xbda31636	-0.07963221
236	0x3d98c7ea	0.074600056
237	0x3d7d10c1	0.061783556
238	0xbd77dbde	-0.060512416
239	0xbd937008	-0.07199103
240	0xbd90da71	-0.070729144
241	0x3d9dbf2e	0.0770248
242	0xbd268f65	-0.040664095
243	0xbbb20317	-0.0054324972
244	0x3d7b35ee	0.06133073
245	0x3ce9ee90	0.028556138
246	0x3cc674d9	0.02422564
247	0xbd91bf99	-0.071166225
248	0x3ca257fb	0.019817343
249	0x3d3adcad	0.04562061
250	0xbcc26274	-0.023728587
251	0x3d71c6da	0.05902753
252	0x3cb5cd67	0.02219267
253	0xbd08b572	-0.033376165
254	0xbd74ce73	-0.059767198
255	0xbd4bc933	-0.049752425

linear2.bias f4 [128]
0	0xbc7d13f9	-0.015446656
1	0xbcc1f919	-0.02367835
2	0x3d0a4317	0.033755388
3	0xbc6a34ff	-0.014294862
4	0xbd5b11ab	-0.053483646
5	0x3c9d80d6	0.019226473
6	0xbcd2494c	-0.025669716
7	0x3c936ee1	0.017997207
8	0x3d622abe	0.055216543
9	0xbd3ecba4	-0.046580926
10	0xbd240c8e	-0.040051036
11	0x3d686135	0.05673333
12	0x3d5a3f0b	0.05328278
13	0xbd0b89d4	-0.03406699
14	0x3d2c443f	0.042057272
15	0x3d947c22	0.07250239
16	0x3da30780	0.07960415
17	0x3d3d4509	0.046208415
18	0x3d865b43	0.065603755
19	0xbd1039a7	-0.03521123
20	0xbcb221e0	-0.021744668
21	0x3d8406ea	0.06446631
22	0xbc9380d5	-0.018005768
23	0xbd21b7ae	-0.03948181
24	0x3cbda847	0.02315153
25	0xbcf0a1b0	-0.029373974
26	0x37b701b0	2.1816086e-05
27	0x3d8588f2	0.06520261
28	0xbd9a60ae	-0.075379714
29	0xbba11673	-0.0049160062
30	0xbd503e2b	-0.050840538
31	0xbc5bf787	-0.013425714
32	0xbdb462fe	-0.08807944
33	0xbd064d55	-0.032788593
34	0xbd860e38	-0.06545681
35	0x3d22cbbf	0.03974509
36	0x3caa815b	0.020813635
37	0x3d1b5a6c	0.03792803
38	0xbd2402d8	-0.040041775
39	0xbd9c4312	-0.0762998
40	0xbc97602f	-0.018478481
41	0xbd925f92	-0.07147135
42	0xbd60c6f1	-0.054877225
43	0xbd6572d3	-0.056017708
44	0x3db82a21	0.089924105
45	0xbd0dbf24	-0.034606114
46	0xbc8a7969	-0.016903596
47	0x3ce99f85	0.028518448
48	0x3c5a9be6	0.013342833
49	0xbd7511f0	-0.05983156
50	0xbd253259	-0.04033122
51	0xbd1cf2a8	-0.038317353
52	0x3da0999c	0.07841799
53	0xbd4d77fd	-0.050163258
54	0x3daa2640	0.08308077
55	0x3cdc4439	0.026888
56	0x3ccd4ef8	0.02506207
57	0x3b283b81	0.0025670233
58	0x3b3b19b3	0.0028549253
59	0x3c71f3c1	0.014767588
60	0xbcef4df0	-0.029211968
61	0x3d8e3f69	0.06945688
62	0xbd765764	-0.060141936
63	0x3ae1847a	0.0017205619
64	0xbc194dd2	-0.009356933
65	0x3d2d8715	0.042365152
66	0x3ce16f2e	0.027518835
67	0xbbc08314	-0.0058750007
68	0xbd7a3d32	-0.061093517
69	0xbd696919	-0.056984995
70	0x3b8935d9	0.0041873273
71	0xbd9a9c0b	-0.07549294
72	0x3cd13879	0.025539624
73	0x3d7d3f77	0.061828103
74	0x3ad47611	0.0016209503
75	0xbd9ebdaa	-0.07751019
76	0xbd3649cd	-0.044503976
77	0xbd9045d9	-0.070445724
78	0xbd654b9e	-0.055980317
79	0xbda8ce50	-0.08242476
80	0xbb8b1140	-0.0042439997
81	0x3d6367b9	0.05551884
82	0xbdbfa7ce	-0.09358178
83	0xbd1597bd	-0.036521662
84	0xbda00e99	-0.07815284
85	0x3caaf88a	0.020870466
86	0xbd8727ab	-0.06599363
87	0xbd26eea7	-0.04075494
88	0x3d420a34	0.04737301
89	0x3cea2f74	0.02858708
90	0xbd11c0b7	-0.035584178
91	0xbda1e5ff	-0.079051964
92	0x3d3bac77	0.045818772
93	0x3c10e9e9	0.008844831
94	0xbcac6e3a	-0.021048654
95	0x3d9f08df	0.07765364
96	0x3d64304b	0.05571012
97	0x3c1da0f1	0.009620891
98	0x3d604be6	0.054759882
99	0xbda790a7	-0.08181887
100	0x3c358c56	0.011080822
101	0xbcaddda6	-0.021223854
102	0x3d755e3d	0.059904326
103	0xbc793ef6	-0.015212765
104	0x3d9856c1	0.07438422
105	0xbbab6885	-0.0052309656
106	0x3ba86142	0.005138547
107	0xbd89604e	-0.06707822
108	0xbbed8b5f	-0.0072492803
109	0x39181722	0.00014504467
110	0xbd41f0bd	-0.047348727
111	0x3d5d0daa	0.05396811
112	0x3d445dd7	0.047941055
113	0x3cc5bb30	0.02413711
114	0x3d6e0449	0.058109555
115	0xbdbbb9aa	-0.09166272
116	0x3b96f626	0.00460698
117	0xbce35ccf	-0.027754216
118	0x3cfbf31f	0.030755578
119	0xbd881d35	-0.06646196
120	0x3d3ca2ae	0.04605358
121	0x3d895eee	0.067075595
122	0xbba24f65	-0.004953312
123	0xbc8da8a3	-0.017292326
124	0x3d2826cd	0.04105263
125	0x3cc24e30	0.023718923
126	0x3d0b45e8	0.034002215
127	0x3d6edbc1	0.058315042

linear3.weight f4 [64, 128]
0	0x3d14dead	0.036345173
1	0xbc75a7b7	-0.0149936
2	0x3c408097	0.011749408
3	0x3da91752	0.08256401
4	0x3d9e6a78	0.07735151
5	0xbd3d2e45	-0.046186704
6	0x3ca63d16	0.0202928
7	0xbd96f3fb	-0.07370754
8	0xbd7d6ead	-0.061873127
9	0x3d559da3	0.052152287
10	0x3ca48b61	0.020085992
11	0xba933165	-0.0011229931
12	0xbd48370a	-0.048880614
13	0xbd27105c	-0.040787086
14	0xbda6c55d	-0.08143113
15	0xbcc282d6	-0.023744028
16	0x3d717f53	0.058959316
17	0x3c4b02c3	0.012390795
18	0x3c4a25b3	0.01233809
19	0x3c9d7515	0.019220868
20	0xbd8acdae	-0.067775115
21	0xbd8bd674	-0.06828013
22	0xbd17905d	-0.03700291
23	0x3d51276b	0.051062983
24	0xbcd040ee	-0.025421586
25	0xbda10e35	-0.07864038
26	0x3d854921	0.06508089
27	0x3d2a5883	0.041588318
28	0xbdb2596d	-0.08708463
29	0xbcac69dc	-0.021046571
30	0x3d3e5f11	0.04647738
31	0xbd9d6dfa	-0.07686992
32	0x3da75f9b	0.08172532
33	0xbc6a0f35	-0.014285852
34	0xbcd26a0d	-0.025685335
35	0xbd0af76e	-0.033927374
36	0x3ca59878	0.020214304
37	0x3d6faf11	0.058516566
38	0x3d9c3a1e	0.076282725
39	0x3d0d2df0	0.034467638
40	0xbd925be0	-0.0714643
41	0x3d5b939a	0.05360756
42	0xbbf839f9	-0.0075752703
43	0x3da6ff74	0.081541926
44	0x3d952476	0.07282345
45	0x3d9f55e8	0.07780057
46	0x3943a19e	0.00018656856
47	0xbd81772c	-0.06321558
48	0x3d8e2778	0.06941122
49	0x3dac5016	0.08413713
50	0x3d00b543	0.031422865
51	0xbd1a6a2c	-0.03769891
52	0x3d90144f	0.070351236
53	0x3d46bb16	0.048518263
54	0x3cca7bed	0.024717296
55	0xbd105d29	-0.035245094
56	0x3c5b7e9f	0.013396888
57	0xbd96319f	-0.07333683
58	0xbd41bdcc	-0.047300145
59	0xbda9940a	-0.08280189
60	0x3d27b2fd	0.04094218
61	0xbd43ac26	-0.047771595
62	0xbd2aede0	-0.04173076
63	0xbd993721	-0.07481218
64	0xbda5e233	-0.08099785
65	0xbd831c49	-0.06401879
66	0xbd8560f2	-0.065126315
67	0x3d112b41	0.03544164
68	0xbd6bb360	-0.057544112
69	0xbccd2c2a	-0.025045473
70	0x3d23dd98	0.04000625
71	0xbca61e5b	-0.020278146
72	0x3da6db05	0.081472434
73	0xbdad47cf	-0.08460962
74	0xbd20e550	-0.03928119
75	0x3d5c27a8	0.053748757
76	0x3d20dec0	0.03927493
77	0xbd44c33c	-0.048037753
78	0x3d2d0c7a	0.042248227
79	0xbd1e51a9	-0.038652096
80	0x3d01d5ad	0.031697918
81	0xbd8cc5f7	-0.06873696
82	0xbcd3622e	-0.025803652
83	0x3d4908cc	0.049080655
84	0xbda6b24b	-0.081394754
85	0xbd2cb158	-0.042161316
86	0x3d9db8c0	0.07701254
87	0x3c693a6a	0.014235118
88	0x3c2f2fda	0.010692561
89	0xbda49dc5	-0.08037905
90	0xbd8bb0ac	-0.06820807
91	0x3caafec7	0.02087344
92	0xbd855a02	-0.06511308
93	0x3d95fe71	0.073239215
94	0xbc749ea5	-0.014930402
95	0xbd9b52f5	-0.07584182
96	0x3ceddd31	0.029036136
97	0xbb8bf769	-0.004271437
98	0xbd50db76	-0.050990544
99	0x3cd62165	0.02613897
100	0x3d6c0d01	0.05762959
101	0x3d9f0a4b	0.07765635
102	0xbd1034a0	-0.035206437
103	0xbd9766d1	-0.073926575
104	0x3da2b9c2	0.07945587
105	0xbdb40eb2	-0.087918654
106	0xbcf1980a	-0.029491443
107	0x3d073139	0.033005927
108	0xbd1e5844	-0.038658395
109	0x3d257682	0.04039622
110	0x3c559915	0.013036986
111	0xbcf39976	-0.029736262
112	0x3b0bb6a0	0.002131857
113	0x3cc76032	0.024337862
114	0xbd66f406	-0.056385063
115	0xbce352f3	-0.027749514
116	0xbdac0ee1	-0.084012754
117	0xbd51ac19	-0.051189516
118	0x3cd83c5c	0.02639597
119	0x3c719c48	0.014746733
120	0xbc845e9b	-0.016158393
121	0x3d8ce796	0.06880109
122	0xbd6b3089	-0.057419334
123	0x3d31d154	0.04341252
124	0xbc36df01	-0.011161567
125	0xbd860306	-0.065435454
126	0x3c93277e	0.017963167
127	0x3d9c7255	0.076389946
128	0xbcc90da6	-0.02454264
129	0x3d597756	0.053092323
130	0x3d7bb884	0.061455265
131	0xbbd356fd	-0.006449579
132	0x3c53fbae	0.012938423
133	0x3c8f3be8	0.01748462
134	0xbc8d50df	-0.017250476
135	0xbc75f8f0	-0.015012965
136	0x3bab45fa	0.0052268477
137	0xbd2802cf	-0.041018303
138	0x3d88f7d7	0.06687897
139	0x3c540921	0.01294163
140	0x3d9dfcf6	0.07714264
141	0xbb9e1ec5	-0.0048254454
142	0x3ca27779	0.01983236
143	0xbd9a1e9c	-0.075253695
144	0xbc713d54	-0.014724094
145	0x3d758796	0.059943758
146	0xbd330809	-0.043708835
147	0x3d1b0d72	0.03785462
148	0xbda40c8c	-0.080102056
149	0x3d65a960	0.05606973
150	0xbd5f299b	-0.054483037
151	0xbd84d1e4	-0.06485346
152	0xbc6dd25e	-0.0145154875
153	0xbda96ae0	-0.08272338
154	0x3d0b51c0	0.03401351
155	0x3c887762	0.016658489
156	0xbd4e01b8	-0.050294608
157	0x3d98c44c	0.07459316
158	0x3da7ffec	0.0820311
159	0x3d5e164f	0.054220494
160	0x3cb60bd1	0.022222431
161	0x3d002268	0.031282812
162	0xbd129f1b	-0.035796266
163	0x3c7b8e3d	0.0153537365
164	0x3c1189b4	0.008882929
165	0xbd82a9e5	-0.06380061
166	0xbd86e909	-0.06587417
167	0xbd29dad7	-0.041468468
168	0xbd3c147e	-0.04591798
169	0xbcfb61c6	-0.03068627
170	0xbc7d9a72	-0.015478717
171	0xbd3926f8	-0.04520318
172	0x3d9af9fa	0.075672105
173	0xbd8301cb	-0.06396826
174	0xbd2d1b67	-0.04226246
175	0xbcc247d0	-0.023715883
176	0xbc3fb2a4	-0.011700306
177	0xbd8ae67e	-0.06782244
178	0xbd35ed60	-0.04441583
179	0xbda41ea7	-0.08013659
180	0xbd991073	-0.074738406
181	0x3d16de88	0.036833316
182	0xbd908932	-0.07057418
183	0x3b9300a7	0.0044861617
184	0x3d97ae6c	0.07406315
185	0xbdb19f14	-0.0867292
186	0xbd0e7d79	-0.03478763
187	0xbd5c3dcf	-0.053769883
188	0xbd5f7f45	-0.054564733
189	0x3d8c5740	0.06852579
190	0xbd1996b2	-0.03749723
191	0x3d6d3875	0.05791517
192	0x3d8d09eb	0.06886657
193	0xbd31b63f	-0.043386694
194	0xbd3757cf	-0.044761475
195	0x3d79e300	0.0610075
196	0x3d3f98c9	0.046776567
197	0x3cad0bc8	0.021123782
198	0xbd5647ac	-0.052314445
199	0xbc94c9fb	-0.018162718
200	0x3d4ad92b	0.049523514
201	0xbd704495	-0.058659155
202	0x3d1d0b2e	0.03834074
203	0xbcd8bdb2	-0.026457641
204	0xbccb1270	-0.024789065
205	0x3d94f1ce	0.07272683
206	0x3d0a2346	0.033725046
207	0x3d9a06ac	0.07520804
208	0xbd371da2	-0.044705994
209	0xbd0d2793	-0.03446157
210	0x3d34f28f	0.044176634
211	0x3d40f176	0.047105275
212	0x3d23c887	0.03998616
213	0x3b3f2500	0.002916634
214	0x3c767e29	0.015044727
215	0x3d8c6389	0.06854922
216	0xbda26a7a	-0.07930465
217	0x3d18d35d	0.037310947
218	0xbd0637fb	-0.03276823
219	0x3cb14958	0.021641418
220	0x3d989013	0.07449355
221	0xbda15d2c	-0.07879099
222	0x3db03964	0.086046964
223	0xbb9b0c3a	-0.004731682
224	0x3d8b2349	0.067938395
225	0x3a889534	0.0010420443
226	0xbdb9f0cc	-0.090791315
227	0xbd06439e	-0.03277933
228	0xbd905aec	-0.07048592
229	0x3d8553aa	0.06510098
230	0x3d116b5a	0.03550277
231	0x3c1aa74d	0.009439302
232	0xbd077f4f	-0.033080395
233	0xbd3ca0ff	-0.046051975
234	0x3d070d1e	0.032971494
235	0xbcb0c164	-0.02157659
236	0x3cdf2cf1	0.02724311
237	0x3c6b9169	0.01437793
238	0x3d24caed	0.040232588
239	0x3da2433f	0.079229824
240	0x3d3fcddc	0.046827182
241	0x3c99333d	0.01870119
242	0x3d908b59	0.070578285
243	0x3d2cb547	0.042165067
244	0xbd898541	-0.06714869
245	0x3ced15f9	0.028941141
246	0x3c3e0869	0.011598685
247	0x3b0d9bc3	0.0021607734
248	0xbc9a62fa	-0.018846024
249	0x3d0016c4	0.03127171
250	0x3d7ee9b0	0.06223458
251	0x3d7c4d05	0.06159689
252	0xbd8fb9dd	-0.070178725
253	0x3da8b39a	0.08237381
254	0x3bd4e744	0.0064972956
255	0x3d74455f	0.05963647

linear3.bias f4 [64]
0	0x3d5cef75	0.0539393
1	0xbcb9d97d	-0.022686714
2	0xbdb10862	-0.08644177
3	0xbd717d42	-0.058957346
4	0x3db31240	0.08743715
5	0x3ca83b0a	0.020535965
6	0xbbd0e25f	-0.006374642
7	0x3d8e3e13	0.069454335
8	0x3d3bece8	0.04588023
9	0xbd31bc0f	-0.043392237
10	0xbcbb024d	-0.022828246
11	0xbc54cd3e	-0.012988387
12	0x3d7149dc	0.05890833
13	0x3cc11dd7	0.023573799
14	0x3db3ada9	0.087733574
15	0x3b9d414e	0.0047990447
16	0x3cdc5083	0.02689386
17	0xbbfaa06a	-0.0076485174
18	0xbd1cfac3	-0.038325083
19	0x3dc2794c	0.09495792
20	0xbc13f5b3	-0.009030747
21	0x3c841fa8	0.016128376
22	0xbcffeedb	-0.031241825
23	0x3d49167a	0.0490937
24	0x3d54341d	0.05180751
25	0x3d972e75	0.07381908
26	0xbcbf4c76	-0.02335189
27	0x3d82fdf6	0.063960955
28	0xbd95e505	-0.07319073
29	0x3d187c48	0.0372279
30	0xbdce8572	-0.100840464
31	0x3d650e73	0.055921983
32	0x3dad0972	0.08449067
33	0xbd549982	-0.05190421
34	0xbd1d9da0	-0.0384804
35	0x3d8a7e13	0.06762328
36	0xbc9d76ef	-0.019221751
37	0x3dc6bc71	0.09703911
38	0x3d939ee2	0.07208039
39	0x3c9dc8ae	0.01926073
40	0x3dac8673	0.08424082
41	0x3d7ee128	0.062226444
42	0x3da158eb	0.07878288
43	0x3da277ad	0.079329826
44	0xbbe36a25	-0.0069401436
45	0xbc40156c	-0.011723857
46	0xbdc59fd3	-0.09649625
47	0xbd5e73b1	-0.05430955
48	0x3d8cc953	0.06874337
49	0xbd8da580	-0.06916332
50	0xbd6140be	-0.054993384
51	0xbc8a4f1f	-0.016883431
52	0x3d873908	0.06602675
53	0x3d2c20d4	0.042023495
54	0x3d291b2c	0.04128568
55	0xbc830f29	-0.01599844
56	0xbd8671ae	-0.065646514
57	0x3db049e9	0.08607847
58	0x3c05e59f	0.008172422
59	0xbda8a68c	-0.08234891
60	0xbd8839a8	-0.06651622
61	0xbd9b7902	-0.0759144
62	0xbd0b80d5	-0.03405841
63	0x3cd52bd1	0.02602187

linear5.weight f4 [1, 64]
0	0xbdd37dd5	-0.10326735
1	0x3ccddb00	0.025128841
2	0xbcef0c03	-0.029180532
3	0xbd697081	-0.056992058
4	0x3e353608	0.17696393
5	0x3a2e8ccf	0.00066585554
6	0x3d6afc08	0.057369262
7	0x3e03ef08	0.12884152
8	0x3d4a2b4b	0.049357694
9	0x3a3fb34b	0.00073127885
10	0x3de03bf2	0.10948934
11	0xbdea8f30	-0.11453092
12	0x3daca6b1	0.08430231
13	0x3bb14325	0.0054096156
14	0x3d945703	0.07243159
15	0xbe0246eb	-0.12722366
16	0x3cc65267	0.024209214
17	0x3de94465	0.11389998
18	0x3c9f7a5f	0.01946753
19	0x3ddd3aca	0.10802229
20	0x3dec3cbc	0.11535022
21	0xbd52ed0c	-0.051495597
22	0xbda1f93f	-0.07908868
23	0x3e3dfb70	0.18552947
24	0xbcd512c6	-0.026009928
25	0x3e21c531	0.15797879
26	0x3e4ec50d	0.20192356
27	0xbbeef020	-0.0072918087
28	0xbd58c4ca	-0.052922048
29	0x3e07e468	0.13270724
30	0xbda81a36	-0.08208124
31	0xbcb6e3a8	-0.022325352
32	0x3e7d0392	0.24708393
33	0x3e0361a3	0.12830214
34	0x3ced0fa7	0.028938128
35	0x3e257e2c	0.16161412
36	0xbda39267	-0.079869084
37	0x3dc64c7a	0.096825555
38	0x3de5c9c3	0.112201236
39	0xbdbf6b49	-0.09346635
40	0x3d963b90	0.073355794
41	0x3daab41c	0.083351344
42	0x3e581b5a	0.21104184
43	0x3db9ef34	0.090788275
44	0xbaa3c62f	-0.0012494976
45	0x3d483467	0.0488781
46	0xbded6d39	-0.11593098
47	0x3d431c92	0.04763467
48	0xbd4dc259	-0.050234172
49	0xbcafb930	-0.021450609
50	0x3e6b6911	0.22989298
51	0x3d9995e7	0.07499295
52	0x3d993898	0.074814975
53	0x3e4cdb1b	0.20005457
54	0xbdeb6dcc	-0.114955515
55	0x3dae8f69	0.08523447
56	0xbc0a9870	-0.0084591955
57	0x3df7a67e	0.12092303
58	0xbdc03c51	-0.093865044
59	0x3bcf6133	0.0063287257
60	0x3d0947c7	0.033515718
61	0xbba087e4	-0.004899012
62	0x3e8511eb	0.25990233
63	0x3dfe0d0e	0.12404834

momentum_buffer f4 [1, 1, 4]
0	0x30914b46	1.0571533e-09
1	0xaf2fc177	-1.598489e-10
2	0x3060d8b2	8.179867e-10
3	0x30896697	9.99722e-10

momentum_buffer f4 [1, 1, 4]
0	0x301b737c	5.6552785e-10
1	0xaeb9d824	-8.45122e-11
2	0x2ff115d5	4.3853157e-10
3	0x3012f4cf	5.3462385e-10

momentum_buffer f4 [1, 1, 4]
0	0x300cb263	5.1185206e-10
1	0xb0815e6c	-9.412822e-10
2	0xaf12f256	-1.3364718e-10
3	0xb10b15d6	-2.0239574e-09

momentum_buffer f4 [4]
0	0xb5952b97	-1.1114051e-06
1	0x35427c20	7.245126e-07
2	0x36110dac	2.1614642e-06
3	0x354c7408	7.616477e-07

momentum_buffer f4 [4, 4]
0	0xb45a86a0	-2.0351808e-07
1	0x31877012	3.941758e-09
2	0x30bd9d6c	1.3796302e-09
3	0x3141f334	2.8223441e-09
4	0x340c476c	1.3064499e-07
5	0xb131577a	-2.5806615e-09
6	0xb07c57ba	-9.1801733e-10
7	0xb0fd31de	-1.8422346e-09
8	0x34d3057a	3.9305797e-07
9	0xb203f844	-7.681653e-09
10	0xb13a24dd	-2.7087517e-09
11	0xb1bcbb25	-5.492796e-09
12	0x3414f633	1.3873141e-07
13	0xb139e6a1	-2.705214e-09
14	0xb082def2	-9.52211e-10
15	0xb104f74e	-1.9349105e-09

momentum_buffer f4 [4, 12]
0	0xb2d6864f	-2.4973955e-08
1	0xae4117b4	-4.3904172e-11
2	0x2eabb535	7.8083685e-11
3	0xb111069d	-2.1104036e-09
4	0xb01bc1ee	-5.666426e-10
5	0xb061a94f	-8.2095125e-10
6	0x00000000	0.0
7	0x00000000	0.0
8	0x00000000	0.0
9	0x00000000	0.0
10	0x00000000	0.0
11	0x00000000	0.0
12	0x32c14904	2.250136e-08
13	0x2e2df86e	3.9556296e-11
14	0xae9ab525	-7.035287e-11
15	0x3102aac4	1.9014559e-09
16	0x300c561f	5.105409e-10
17	0x304b519c	7.3966944e-10
18	0x00000000	0.0
19	0x00000000	0.0
20	0x00000000	0.0
21	0x00000000	0.0
22	0x00000000	0.0
23	0x00000000	0.0
24	0x32a49a9f	1.9162426e-08
25	0x2e14280e	3.368688e-11
26	0xae83c03a	-5.9913366e-11
27	0x30de8e43	1.6193059e-09
28	0x2fef063b	4.3478274e-10
29	0x302d261d	6.2991196e-10
30	0x00000000	0.0
31	0x00000000	0.0
32	0x00000000	0.0
33	0x00000000	0.0
34	0x00000000	0.0
35	0x00000000	0.0
36	0x326becd8	1.3732652e-08
37	0x2dd45a35	2.414167e-11
38	0xae3cd657	-4.2936623e-11
39	0x309f7e53	1.1604676e-09
40	0x2fab4ba9	3.1158479e-10
41	0x2ff82c30	4.5142334e-10
42	0x00000000	0.0
43	0x00000000	0.0
44	0x00000000	0.0
45	0x00000000	0.0
46	0x00000000	0.0
47	0x00000000	0.0

momentum_buffer f4 [1, 1, 4]
0	0xacebf815	-6.7066444e-12
1	0x2cd7f186	6.137482e-12
2	0xaa97ff15	-2.6999987e-13
3	0xa9fc19bc	-1.1195512e-13

momentum_buffer f4 [1, 1, 4]
0	0xaa4de49c	-1.8286972e-13
1	0x2a65aa4b	2.0398368e-13
2	0x298a429a	6.1399846e-14
3	0xa81eb319	-8.8095975e-15

momentum_buffer f4 [1, 1, 4]
0	0xb1c3557a	-5.6849645e-09
1	0xb1b9f594	-5.4121276e-09
2	0x31f23875	7.0495454e-09
3	0x31ca29aa	5.8837104e-09

momentum_buffer f4 [4]
0	0xb9739fad	-0.0002323377
1	0xb841608e	-4.610471e-05
2	0xb969ccce	-0.00022296907
3	0xb92f2217	-0.00016702

momentum_buffer f4 [4, 4]
0	0x34d230b8	3.9150996e-07
1	0x34ca4393	3.76746e-07
2	0x350f9fc3	5.3504135e-07
3	0x3584e515	9.901438e-07
4	0x33a6d78a	7.769184e-08
5	0x33a08a4e	7.475738e-08
6	0x33e3ffb3	1.06170226e-07
7	0x3452f9a4	1.9648593e-07
8	0x34c9b6da	3.757221e-07
9	0x34c21a9e	3.6154682e-07
10	0x3509d512	5.1346535e-07
11	0x357f12af	9.502209e-07
12	0x349719c9	2.8144703e-07
13	0x349165b3	2.708235e-07
14	0x34ce7dcb	3.8462017e-07
15	0x353f11d8	7.117901e-07
